…
stepsize: 50000
snapshot: 5000
snapshot_prefix: "zf_faster_rcnn"
average_loss: 100
iter_size: 2
I0207 23:02:24.058504  2519 solver.cpp:81] Creating training net from train_net file: models/pascal_voc/ZF/faster_rcnn_end2end/train.prototxt
I0207 23:02:24.059695  2519 net.cpp:49] Initializing net from parameters: 
name: "ZF"
state {
  phase: TRAIN
}
layer {
  name: "input-data"
  type: "Python"
  top: "data"
  top: "im_info"
  top: "gt_boxes"
  python_param {
    module: "roi_data_layer.layer"
    layer: "RoIDataLayer"
    param_str: "\'num_classes\': 2"
  }
}
layer {
  name: "conv1"
  type: "Convolution"
  bottom: "data"
  top: "conv1"
  param {
    lr_mult: 1
  }
  param {
    lr_mult: 2
  }
  convolution_param {
    num_output: 96
    pad: 3
    kernel_size: 7
    stride: 2
  }
}
layer {
  name: "relu1"
  type: "ReLU"
  bottom: "conv1"
  top: "conv1"
}
layer {
  name: "norm1"
  type: "LRN"
  bottom: "conv1"
  top: "norm1"
  lrn_param {
    local_size: 3
    alpha: 5e-05
    beta: 0.75
    norm_region: WITHIN_CHANNEL
    engine: CAFFE
  }
}
layer {
  name: "pool1"
  type: "Pooling"
  bottom: "norm1"
  top: "pool1"
  pooling_param {
    pool: MAX
    kernel_size: 3
    stride: 2
    pad: 1
  }
}
layer {
  name: "conv2"
  type: "Convolution"
  bottom: "pool1"
  top: "conv2"
  param {
    lr_mult: 1
  }
  param {
    lr_mult: 2
  }
  convolution_param {
    num_output: 256
    pad: 2
    kernel_size: 5
    stride: 2
  }
}
layer {
  name: "relu2"
  type: "ReLU"
  bottom: "conv2"
  top: "conv2"
}
layer {
  name: "norm2"
  type: "LRN"
  bottom: "conv2"
  top: "norm2"
  lrn_param {
    local_size: 3
    alpha: 5e-05
    beta: 0.75
    norm_region: WITHIN_CHANNEL
    engine: CAFFE
  }
}
layer {
  name: "pool2"
  type: "Pooling"
  bottom: "norm2"
  top: "pool2"
  pooling_param {
    pool: MAX
    kernel_size: 3
    stride: 2
    pad: 1
  }
}
layer {
  name: "conv3"
  type: "Convolution"
  bottom: "pool2"
  top: "conv3"
  param {
    lr_mult: 1
  }
  param {
    lr_mult: 2
  }
  convolution_param {
    num_output: 384
    pad: 1
    kernel_size: 3
    stride: 1
  }
}
layer {
  name: "relu3"
  type: "ReLU"
  bottom: "conv3"
  top: "conv3"
}
layer {
  name: "conv4"
  type: "Convolution"
  bottom: "conv3"
  top: "conv4"
  param {
    lr_mult: 1
  }
  param {
    lr_mult: 2
  }
  convolution_param {
    num_output: 384
    pad: 1
    kernel_size: 3
    stride: 1
  }
}
layer {
  name: "relu4"
  type: "ReLU"
  bottom: "conv4"
  top: "conv4"
}
layer {
  name: "conv5"
  type: "Convolution"
  bottom: "conv4"
  top: "conv5"
  param {
    lr_mult: 1
  }
  param {
    lr_mult: 2
  }
  convolution_param {
    num_output: 256
    pad: 1
    kernel_size: 3
    stride: 1
  }
}
layer {
  name: "relu5"
  type: "ReLU"
  bottom: "conv5"
  top: "conv5"
}
layer {
  name: "concat"
  type: "Concat"
  bottom: "conv3"
  bottom: "conv4"
  bottom: "conv5"
  top: "concat"
  concat_param {
    axis: 1
  }
}
layer {
  name: "normconcat"
  type: "LRN"
  bottom: "concat"
  top: "concatfeature"
  lrn_param {
    local_size: 3
    alpha: 5e-05
    beta: 0.75
    norm_region: WITHIN_CHANNEL
    engine: CAFFE
  }
}
layer {
  name: "conv6"
  type: "Convolution"
  bottom: "concatfeature"
  top: "conv6"
  param {
    lr_mult: 1
  }
  param {
    lr_mult: 2
  }
  convolution_param {
    num_output: 256
    pad: 0
    kernel_size: 1
    stride: 1
    weight_filler {
      type: "xavier"
    }
    bias_filler {
      type: "constant"
    }
  }
}
layer {
  name: "reluconv"
  type: "ReLU"
  bottom: "conv6"
  top: "conv6"
}
layer {
  name: "rpn_conv/3x3"
  type: "Convolution"
  bottom: "conv6"
  top: "rpn/output"
  param {
    lr_mult: 1
  }
  param {
    lr_mult: 2
  }
  convolution_param {
    num_output: 256
    pad: 1
    kernel_size: 3
    stride: 1
    weight_filler {
      type: "gaussian"
      std: 0.01
    }
    bias_filler {
      type: "constant"
      value: 0
    }
  }
}
layer {
  name: "rpn_relu/3x3"
  type: "ReLU"
  bottom: "rpn/output"
  top: "rpn/output"
}
layer {
  name: "rpn_cls_score"
  type: "Convolution"
  bottom: "rpn/output"
  top: "rpn_cls_score"
  param {
    lr_mult: 1
  }
  param {
    lr_mult: 2
  }
  convolution_param {
    num_output: 18
    pad: 0
    kernel_size: 1
    stride: 1
    weight_filler {
      type: "gaussian"
      std: 0.01
    }
    bias_filler {
      type: "constant"
      value: 0
    }
  }
}
layer {
  name: "rpn_bbox_pred"
  type: "Convolution"
  bottom: "rpn/output"
  top: "rpn_bbox_pred"
  param {
    lr_mult: 1
  }
  param {
    lr_mult: 2
  }
  convolution_param {
    num_output: 36
    pad: 0
    kernel_size: 1
    stride: 1
    weight_filler {
      type: "gaussian"
      std: 0.01
    }
    bias_filler {
      type: "constant"
      value: 0
    }
  }
}
layer {
  name: "rpn_cls_score_reshape"
  type: "Reshape"
  bottom: "rpn_cls_score"
  top: "rpn_cls_score_reshape"
  reshape_param {
    shape {
      dim: 0
      dim: 2
      dim: -1
      dim: 0
    }
  }
}
layer {
  name: "rpn-data"
  type: "Python"
  bottom: "rpn_cls_score"
  bottom: "gt_boxes"
  bottom: "im_info"
  bottom: "data"
  top: "rpn_labels"
  top: "rpn_bbox_targets"
  top: "rpn_bbox_inside_weights"
  top: "rpn_bbox_outside_weights"
  python_param {
    module: "rpn.anchor_target_layer"
    layer: "AnchorTargetLayer"
    param_str: "\'feat_stride\': 16"
  }
}
layer {
  name: "rpn_loss_cls"
  type: "SoftmaxWithLoss"
  bottom: "rpn_cls_score_reshape"
  bottom: "rpn_labels"
  top: "rpn_cls_loss"
  loss_weight: 1
  propagate_down: true
  propagate_down: false
  loss_param {
    ignore_label: -1
    normalize: true
  }
}
layer {
  name: "rpn_loss_bbox"
  type: "SmoothL1Loss"
  bottom: "rpn_bbox_pred"
  bottom: "rpn_bbox_targets"
  bottom: "rpn_bbox_inside_weights"
  bottom: "rpn_bbox_outside_weights"
  top: "rpn_loss_bbox"
  loss_weight: 1
  smooth_l1_loss_param {
    sigma: 3
  }
}
layer {
  name: "rpn_cls_prob"
  type: "Softmax"
  bottom: "rpn_cls_score_reshape"
  top: "rpn_cls_prob"
}
layer {
  name: "rpn_cls_prob_reshape"
  type: "Reshape"
  bottom: "rpn_cls_prob"
  top: "rpn_cls_prob_reshape"
  reshape_param {
    shape {
      dim: 0
      dim: 18
      dim: -1
      dim: 0
    }
  }
}
layer {
  name: "proposal"
  type: "Python"
  bottom: "rpn_cls_prob_reshape"
  bottom: "rpn_bbox_pred"
  bottom: "im_info"
  top: "rpn_rois"
  python_param {
    module: "rpn.proposal_layer"
    layer: "ProposalLayer"
    param_str: "\'feat_stride\': 16"
  }
}
layer {
  name: "roi-data"
  type: "Python"
  bottom: "rpn_rois"
  bottom: "gt_boxes"
  top: "rois"
  top: "labels"
  top: "bbox_targets"
  top: "bbox_inside_weights"
  top: "bbox_outside_weights"
  python_param {
    module: "rpn.proposal_target_layer"
    layer: "ProposalTargetLayer"
    param_str: "\'num_classes\': 2"
  }
}
layer {
  name: "roi_pool_conv5"
  type: "ROIPooling"
  bottom: "conv6"
  bottom: "rois"
  top: "roi_pool_conv5"
  roi_pooling_param {
    pooled_h: 6
    pooled_w: 6
    spatial_scale: 0.0625
  }
}
layer {
  name: "fc6"
  type: "InnerProduct"
  bottom: "roi_pool_conv5"
  top: "fc6"
  param {
    lr_mult: 1
  }
  param {
    lr_mult: 2
  }
  inner_product_param {
    num_output: 4096
  }
}
layer {
  name: "relu6"
  type: "ReLU"
  bottom: "fc6"
  top: "fc6"
}
layer {
  name: "drop6"
  type: "Dropout"
  bottom: "fc6"
  top: "fc6"
  dropout_param {
    dropout_ratio: 0.5
    scale_train: false
  }
}
layer {
  name: "fc7"
  type: "InnerProduct"
  bottom: "fc6"
  top: "fc7"
  param {
    lr_mult: 1
  }
  param {
    lr_mult: 2
  }
  inner_product_param {
    num_output: 4096
  }
}
layer {
  name: "relu7"
  type: "ReLU"
  bottom: "fc7"
  top: "fc7"
}
layer {
  name: "drop7"
  type: "Dropout"
  bottom: "fc7"
  top: "fc7"
  dropout_param {
    dropout_ratio: 0.5
    scale_train: false
  }
}
layer {
  name: "cls_score"
  type: "InnerProduct"
  bottom: "fc7"
  top: "cls_score"
  param {
    lr_mult: 1
  }
  param {
    lr_mult: 2
  }
  inner_product_param {
    num_output: 2
    weight_filler {
      type: "gaussian"
      std: 0.01
    }
    bias_filler {
      type: "constant"
      value: 0
    }
  }
}
layer {
  name: "bbox_pred"
  type: "InnerProduct"
  bottom: "fc7"
  top: "bbox_pred"
  param {
    lr_mult: 1
  }
  param {
    lr_mult: 2
  }
  inner_product_param {
    num_output: 8
    weight_filler {
      type: "gaussian"
      std: 0.001
    }
    bias_filler {
      type: "constant"
      value: 0
    }
  }
}
layer {
  name: "loss_cls"
  type: "SoftmaxWithLoss"
  bottom: "cls_score"
  bottom: "labels"
  top: "cls_loss"
  loss_weight: 1
  propagate_down: true
  propagate_down: false
  loss_param {
    ignore_label: -1
    normalize: true
  }
}
layer {
  name: "loss_bbox"
  type: "SmoothL1Loss"
  bottom: "bbox_pred"
  bottom: "bbox_targets"
  bottom: "bbox_inside_weights"
  bottom: "bbox_outside_weights"
  top: "bbox_loss"
  loss_weight: 1
}
I0207 23:02:24.059940  2519 layer_factory.hpp:77] Creating layer input-data
I0207 23:02:25.335222  2519 net.cpp:106] Creating Layer input-data
I0207 23:02:25.335250  2519 net.cpp:411] input-data -> data
I0207 23:02:25.344892  2519 net.cpp:411] input-data -> im_info
I0207 23:02:25.344911  2519 net.cpp:411] input-data -> gt_boxes
RoiDataLayer: name_to_top: {'gt_boxes': 2, 'data': 0, 'im_info': 1}
I0207 23:02:25.558408  2519 net.cpp:150] Setting up input-data
I0207 23:02:25.558454  2519 net.cpp:157] Top shape: 1 3 300 500 (450000)
I0207 23:02:25.558470  2519 net.cpp:157] Top shape: 1 3 (3)
I0207 23:02:25.558475  2519 net.cpp:157] Top shape: 1 4 (4)
I0207 23:02:25.558477  2519 net.cpp:165] Memory required for data: 1800028
I0207 23:02:25.558485  2519 layer_factory.hpp:77] Creating layer data_input-data_0_split
I0207 23:02:25.558497  2519 net.cpp:106] Creating Layer data_input-data_0_split
I0207 23:02:25.558501  2519 net.cpp:454] data_input-data_0_split <- data
I0207 23:02:25.558507  2519 net.cpp:411] data_input-data_0_split -> data_input-data_0_split_0
I0207 23:02:25.558516  2519 net.cpp:411] data_input-data_0_split -> data_input-data_0_split_1
I0207 23:02:25.558557  2519 net.cpp:150] Setting up data_input-data_0_split
I0207 23:02:25.558562  2519 net.cpp:157] Top shape: 1 3 300 500 (450000)
I0207 23:02:25.558576  2519 net.cpp:157] Top shape: 1 3 300 500 (450000)
I0207 23:02:25.558578  2519 net.cpp:165] Memory required for data: 5400028
I0207 23:02:25.558581  2519 layer_factory.hpp:77] Creating layer im_info_input-data_1_split
I0207 23:02:25.558585  2519 net.cpp:106] Creating Layer im_info_input-data_1_split
I0207 23:02:25.558589  2519 net.cpp:454] im_info_input-data_1_split <- im_info
I0207 23:02:25.558593  2519 net.cpp:411] im_info_input-data_1_split -> im_info_input-data_1_split_0
I0207 23:02:25.558598  2519 net.cpp:411] im_info_input-data_1_split -> im_info_input-data_1_split_1
I0207 23:02:25.558619  2519 net.cpp:150] Setting up im_info_input-data_1_split
I0207 23:02:25.558624  2519 net.cpp:157] Top shape: 1 3 (3)
I0207 23:02:25.558626  2519 net.cpp:157] Top shape: 1 3 (3)
I0207 23:02:25.558629  2519 net.cpp:165] Memory required for data: 5400052
I0207 23:02:25.558631  2519 layer_factory.hpp:77] Creating layer gt_boxes_input-data_2_split
I0207 23:02:25.558635  2519 net.cpp:106] Creating Layer gt_boxes_input-data_2_split
I0207 23:02:25.558640  2519 net.cpp:454] gt_boxes_input-data_2_split <- gt_boxes
I0207 23:02:25.558642  2519 net.cpp:411] gt_boxes_input-data_2_split -> gt_boxes_input-data_2_split_0
I0207 23:02:25.558647  2519 net.cpp:411] gt_boxes_input-data_2_split -> gt_boxes_input-data_2_split_1
I0207 23:02:25.558668  2519 net.cpp:150] Setting up gt_boxes_input-data_2_split
I0207 23:02:25.558672  2519 net.cpp:157] Top shape: 1 4 (4)
I0207 23:02:25.558676  2519 net.cpp:157] Top shape: 1 4 (4)
I0207 23:02:25.558677  2519 net.cpp:165] Memory required for data: 5400084
I0207 23:02:25.558681  2519 layer_factory.hpp:77] Creating layer conv1
I0207 23:02:25.558694  2519 net.cpp:106] Creating Layer conv1
I0207 23:02:25.558698  2519 net.cpp:454] conv1 <- data_input-data_0_split_0
I0207 23:02:25.558703  2519 net.cpp:411] conv1 -> conv1
I0207 23:02:27.429379  2519 net.cpp:150] Setting up conv1
I0207 23:02:27.429414  2519 net.cpp:157] Top shape: 1 96 150 250 (3600000)
I0207 23:02:27.429419  2519 net.cpp:165] Memory required for data: 19800084
I0207 23:02:27.429435  2519 layer_factory.hpp:77] Creating layer relu1
I0207 23:02:27.429446  2519 net.cpp:106] Creating Layer relu1
I0207 23:02:27.429461  2519 net.cpp:454] relu1 <- conv1
I0207 23:02:27.429471  2519 net.cpp:397] relu1 -> conv1 (in-place)
I0207 23:02:27.429661  2519 net.cpp:150] Setting up relu1
I0207 23:02:27.429671  2519 net.cpp:157] Top shape: 1 96 150 250 (3600000)
I0207 23:02:27.429682  2519 net.cpp:165] Memory required for data: 34200084
I0207 23:02:27.429685  2519 layer_factory.hpp:77] Creating layer norm1
I0207 23:02:27.429692  2519 net.cpp:106] Creating Layer norm1
I0207 23:02:27.429695  2519 net.cpp:454] norm1 <- conv1
I0207 23:02:27.429702  2519 net.cpp:411] norm1 -> norm1
I0207 23:02:27.429822  2519 net.cpp:150] Setting up norm1
I0207 23:02:27.429831  2519 net.cpp:157] Top shape: 1 96 150 250 (3600000)
I0207 23:02:27.429842  2519 net.cpp:165] Memory required for data: 48600084
I0207 23:02:27.429846  2519 layer_factory.hpp:77] Creating layer pool1
I0207 23:02:27.429849  2519 net.cpp:106] Creating Layer pool1
I0207 23:02:27.429860  2519 net.cpp:454] pool1 <- norm1
I0207 23:02:27.429864  2519 net.cpp:411] pool1 -> pool1
I0207 23:02:27.429893  2519 net.cpp:150] Setting up pool1
I0207 23:02:27.429899  2519 net.cpp:157] Top shape: 1 96 76 126 (919296)
I0207 23:02:27.429901  2519 net.cpp:165] Memory required for data: 52277268
I0207 23:02:27.429903  2519 layer_factory.hpp:77] Creating layer conv2
I0207 23:02:27.429913  2519 net.cpp:106] Creating Layer conv2
I0207 23:02:27.429917  2519 net.cpp:454] conv2 <- pool1
I0207 23:02:27.429946  2519 net.cpp:411] conv2 -> conv2
I0207 23:02:27.437602  2519 net.cpp:150] Setting up conv2
I0207 23:02:27.437624  2519 net.cpp:157] Top shape: 1 256 38 63 (612864)
I0207 23:02:27.437628  2519 net.cpp:165] Memory required for data: 54728724
I0207 23:02:27.437641  2519 layer_factory.hpp:77] Creating layer relu2
I0207 23:02:27.437651  2519 net.cpp:106] Creating Layer relu2
I0207 23:02:27.437655  2519 net.cpp:454] relu2 <- conv2
I0207 23:02:27.437661  2519 net.cpp:397] relu2 -> conv2 (in-place)
I0207 23:02:27.438112  2519 net.cpp:150] Setting up relu2
I0207 23:02:27.438125  2519 net.cpp:157] Top shape: 1 256 38 63 (612864)
I0207 23:02:27.438129  2519 net.cpp:165] Memory required for data: 57180180
I0207 23:02:27.438133  2519 layer_factory.hpp:77] Creating layer norm2
I0207 23:02:27.438140  2519 net.cpp:106] Creating Layer norm2
I0207 23:02:27.438143  2519 net.cpp:454] norm2 <- conv2
I0207 23:02:27.438149  2519 net.cpp:411] norm2 -> norm2
I0207 23:02:27.438253  2519 net.cpp:150] Setting up norm2
I0207 23:02:27.438261  2519 net.cpp:157] Top shape: 1 256 38 63 (612864)
I0207 23:02:27.438264  2519 net.cpp:165] Memory required for data: 59631636
I0207 23:02:27.438267  2519 layer_factory.hpp:77] Creating layer pool2
I0207 23:02:27.438272  2519 net.cpp:106] Creating Layer pool2
I0207 23:02:27.438277  2519 net.cpp:454] pool2 <- norm2
I0207 23:02:27.438280  2519 net.cpp:411] pool2 -> pool2
I0207 23:02:27.438313  2519 net.cpp:150] Setting up pool2
I0207 23:02:27.438320  2519 net.cpp:157] Top shape: 1 256 20 32 (163840)
I0207 23:02:27.438323  2519 net.cpp:165] Memory required for data: 60286996
I0207 23:02:27.438325  2519 layer_factory.hpp:77] Creating layer conv3
I0207 23:02:27.438334  2519 net.cpp:106] Creating Layer conv3
I0207 23:02:27.438338  2519 net.cpp:454] conv3 <- pool2
I0207 23:02:27.438343  2519 net.cpp:411] conv3 -> conv3
I0207 23:02:27.445868  2519 net.cpp:150] Setting up conv3
I0207 23:02:27.445895  2519 net.cpp:157] Top shape: 1 384 20 32 (245760)
I0207 23:02:27.445900  2519 net.cpp:165] Memory required for data: 61270036
I0207 23:02:27.445919  2519 layer_factory.hpp:77] Creating layer relu3
I0207 23:02:27.445971  2519 net.cpp:106] Creating Layer relu3
I0207 23:02:27.445976  2519 net.cpp:454] relu3 <- conv3
I0207 23:02:27.445983  2519 net.cpp:397] relu3 -> conv3 (in-place)
I0207 23:02:27.446416  2519 net.cpp:150] Setting up relu3
I0207 23:02:27.446439  2519 net.cpp:157] Top shape: 1 384 20 32 (245760)
I0207 23:02:27.446441  2519 net.cpp:165] Memory required for data: 62253076
I0207 23:02:27.446444  2519 layer_factory.hpp:77] Creating layer conv3_relu3_0_split
I0207 23:02:27.446451  2519 net.cpp:106] Creating Layer conv3_relu3_0_split
I0207 23:02:27.446455  2519 net.cpp:454] conv3_relu3_0_split <- conv3
I0207 23:02:27.446460  2519 net.cpp:411] conv3_relu3_0_split -> conv3_relu3_0_split_0
I0207 23:02:27.446471  2519 net.cpp:411] conv3_relu3_0_split -> conv3_relu3_0_split_1
I0207 23:02:27.446516  2519 net.cpp:150] Setting up conv3_relu3_0_split
I0207 23:02:27.446521  2519 net.cpp:157] Top shape: 1 384 20 32 (245760)
I0207 23:02:27.446525  2519 net.cpp:157] Top shape: 1 384 20 32 (245760)
I0207 23:02:27.446528  2519 net.cpp:165] Memory required for data: 64219156
I0207 23:02:27.446532  2519 layer_factory.hpp:77] Creating layer conv4
I0207 23:02:27.446540  2519 net.cpp:106] Creating Layer conv4
I0207 23:02:27.446543  2519 net.cpp:454] conv4 <- conv3_relu3_0_split_0
I0207 23:02:27.446548  2519 net.cpp:411] conv4 -> conv4
I0207 23:02:27.450960  2519 net.cpp:150] Setting up conv4
I0207 23:02:27.450991  2519 net.cpp:157] Top shape: 1 384 20 32 (245760)
I0207 23:02:27.450994  2519 net.cpp:165] Memory required for data: 65202196
I0207 23:02:27.451004  2519 layer_factory.hpp:77] Creating layer relu4
I0207 23:02:27.451020  2519 net.cpp:106] Creating Layer relu4
I0207 23:02:27.451025  2519 net.cpp:454] relu4 <- conv4
I0207 23:02:27.451030  2519 net.cpp:397] relu4 -> conv4 (in-place)
I0207 23:02:27.451175  2519 net.cpp:150] Setting up relu4
I0207 23:02:27.451182  2519 net.cpp:157] Top shape: 1 384 20 32 (245760)
I0207 23:02:27.451184  2519 net.cpp:165] Memory required for data: 66185236
I0207 23:02:27.451187  2519 layer_factory.hpp:77] Creating layer conv4_relu4_0_split
I0207 23:02:27.451195  2519 net.cpp:106] Creating Layer conv4_relu4_0_split
I0207 23:02:27.451197  2519 net.cpp:454] conv4_relu4_0_split <- conv4
I0207 23:02:27.451201  2519 net.cpp:411] conv4_relu4_0_split -> conv4_relu4_0_split_0
I0207 23:02:27.451206  2519 net.cpp:411] conv4_relu4_0_split -> conv4_relu4_0_split_1
I0207 23:02:27.451241  2519 net.cpp:150] Setting up conv4_relu4_0_split
I0207 23:02:27.451246  2519 net.cpp:157] Top shape: 1 384 20 32 (245760)
I0207 23:02:27.451248  2519 net.cpp:157] Top shape: 1 384 20 32 (245760)
I0207 23:02:27.451251  2519 net.cpp:165] Memory required for data: 68151316
I0207 23:02:27.451252  2519 layer_factory.hpp:77] Creating layer conv5
I0207 23:02:27.451261  2519 net.cpp:106] Creating Layer conv5
I0207 23:02:27.451264  2519 net.cpp:454] conv5 <- conv4_relu4_0_split_0
I0207 23:02:27.451270  2519 net.cpp:411] conv5 -> conv5
I0207 23:02:27.453852  2519 net.cpp:150] Setting up conv5
I0207 23:02:27.453878  2519 net.cpp:157] Top shape: 1 256 20 32 (163840)
I0207 23:02:27.453881  2519 net.cpp:165] Memory required for data: 68806676
I0207 23:02:27.453902  2519 layer_factory.hpp:77] Creating layer relu5
I0207 23:02:27.453907  2519 net.cpp:106] Creating Layer relu5
I0207 23:02:27.453910  2519 net.cpp:454] relu5 <- conv5
I0207 23:02:27.453915  2519 net.cpp:397] relu5 -> conv5 (in-place)
I0207 23:02:27.454283  2519 net.cpp:150] Setting up relu5
I0207 23:02:27.454293  2519 net.cpp:157] Top shape: 1 256 20 32 (163840)
I0207 23:02:27.454296  2519 net.cpp:165] Memory required for data: 69462036
I0207 23:02:27.454298  2519 layer_factory.hpp:77] Creating layer concat
I0207 23:02:27.454305  2519 net.cpp:106] Creating Layer concat
I0207 23:02:27.454309  2519 net.cpp:454] concat <- conv3_relu3_0_split_1
I0207 23:02:27.454313  2519 net.cpp:454] concat <- conv4_relu4_0_split_1
I0207 23:02:27.454316  2519 net.cpp:454] concat <- conv5
I0207 23:02:27.454320  2519 net.cpp:411] concat -> concat
I0207 23:02:27.454345  2519 net.cpp:150] Setting up concat
I0207 23:02:27.454350  2519 net.cpp:157] Top shape: 1 1024 20 32 (655360)
I0207 23:02:27.454354  2519 net.cpp:165] Memory required for data: 72083476
I0207 23:02:27.454355  2519 layer_factory.hpp:77] Creating layer normconcat
I0207 23:02:27.454361  2519 net.cpp:106] Creating Layer normconcat
I0207 23:02:27.454363  2519 net.cpp:454] normconcat <- concat
I0207 23:02:27.454368  2519 net.cpp:411] normconcat -> concatfeature
I0207 23:02:27.454461  2519 net.cpp:150] Setting up normconcat
I0207 23:02:27.454468  2519 net.cpp:157] Top shape: 1 1024 20 32 (655360)
I0207 23:02:27.454470  2519 net.cpp:165] Memory required for data: 74704916
I0207 23:02:27.454473  2519 layer_factory.hpp:77] Creating layer conv6
I0207 23:02:27.454481  2519 net.cpp:106] Creating Layer conv6
I0207 23:02:27.454484  2519 net.cpp:454] conv6 <- concatfeature
I0207 23:02:27.454489  2519 net.cpp:411] conv6 -> conv6
I0207 23:02:27.457015  2519 net.cpp:150] Setting up conv6
I0207 23:02:27.457028  2519 net.cpp:157] Top shape: 1 256 20 32 (163840)
I0207 23:02:27.457041  2519 net.cpp:165] Memory required for data: 75360276
I0207 23:02:27.457047  2519 layer_factory.hpp:77] Creating layer reluconv
I0207 23:02:27.457054  2519 net.cpp:106] Creating Layer reluconv
I0207 23:02:27.457057  2519 net.cpp:454] reluconv <- conv6
I0207 23:02:27.457062  2519 net.cpp:397] reluconv -> conv6 (in-place)
I0207 23:02:27.457419  2519 net.cpp:150] Setting up reluconv
I0207 23:02:27.457428  2519 net.cpp:157] Top shape: 1 256 20 32 (163840)
I0207 23:02:27.457442  2519 net.cpp:165] Memory required for data: 76015636
I0207 23:02:27.457444  2519 layer_factory.hpp:77] Creating layer conv6_reluconv_0_split
I0207 23:02:27.457450  2519 net.cpp:106] Creating Layer conv6_reluconv_0_split
I0207 23:02:27.457453  2519 net.cpp:454] conv6_reluconv_0_split <- conv6
I0207 23:02:27.457458  2519 net.cpp:411] conv6_reluconv_0_split -> conv6_reluconv_0_split_0
I0207 23:02:27.457465  2519 net.cpp:411] conv6_reluconv_0_split -> conv6_reluconv_0_split_1
I0207 23:02:27.457511  2519 net.cpp:150] Setting up conv6_reluconv_0_split
I0207 23:02:27.457516  2519 net.cpp:157] Top shape: 1 256 20 32 (163840)
I0207 23:02:27.457530  2519 net.cpp:157] Top shape: 1 256 20 32 (163840)
I0207 23:02:27.457531  2519 net.cpp:165] Memory required for data: 77326356
I0207 23:02:27.457533  2519 layer_factory.hpp:77] Creating layer rpn_conv/3x3
I0207 23:02:27.457542  2519 net.cpp:106] Creating Layer rpn_conv/3x3
I0207 23:02:27.457545  2519 net.cpp:454] rpn_conv/3x3 <- conv6_reluconv_0_split_0
I0207 23:02:27.457552  2519 net.cpp:411] rpn_conv/3x3 -> rpn/output
I0207 23:02:27.465013  2519 net.cpp:150] Setting up rpn_conv/3x3
I0207 23:02:27.465039  2519 net.cpp:157] Top shape: 1 256 20 32 (163840)
I0207 23:02:27.465041  2519 net.cpp:165] Memory required for data: 77981716
I0207 23:02:27.465049  2519 layer_factory.hpp:77] Creating layer rpn_relu/3x3
I0207 23:02:27.465059  2519 net.cpp:106] Creating Layer rpn_relu/3x3
I0207 23:02:27.465065  2519 net.cpp:454] rpn_relu/3x3 <- rpn/output
I0207 23:02:27.465070  2519 net.cpp:397] rpn_relu/3x3 -> rpn/output (in-place)
I0207 23:02:27.465224  2519 net.cpp:150] Setting up rpn_relu/3x3
I0207 23:02:27.465231  2519 net.cpp:157] Top shape: 1 256 20 32 (163840)
I0207 23:02:27.465234  2519 net.cpp:165] Memory required for data: 78637076
I0207 23:02:27.465236  2519 layer_factory.hpp:77] Creating layer rpn/output_rpn_relu/3x3_0_split
I0207 23:02:27.465243  2519 net.cpp:106] Creating Layer rpn/output_rpn_relu/3x3_0_split
I0207 23:02:27.465245  2519 net.cpp:454] rpn/output_rpn_relu/3x3_0_split <- rpn/output
I0207 23:02:27.465250  2519 net.cpp:411] rpn/output_rpn_relu/3x3_0_split -> rpn/output_rpn_relu/3x3_0_split_0
I0207 23:02:27.465255  2519 net.cpp:411] rpn/output_rpn_relu/3x3_0_split -> rpn/output_rpn_relu/3x3_0_split_1
I0207 23:02:27.465291  2519 net.cpp:150] Setting up rpn/output_rpn_relu/3x3_0_split
I0207 23:02:27.465296  2519 net.cpp:157] Top shape: 1 256 20 32 (163840)
I0207 23:02:27.465299  2519 net.cpp:157] Top shape: 1 256 20 32 (163840)
I0207 23:02:27.465301  2519 net.cpp:165] Memory required for data: 79947796
I0207 23:02:27.465303  2519 layer_factory.hpp:77] Creating layer rpn_cls_score
I0207 23:02:27.465314  2519 net.cpp:106] Creating Layer rpn_cls_score
I0207 23:02:27.465317  2519 net.cpp:454] rpn_cls_score <- rpn/output_rpn_relu/3x3_0_split_0
I0207 23:02:27.465322  2519 net.cpp:411] rpn_cls_score -> rpn_cls_score
I0207 23:02:27.466646  2519 net.cpp:150] Setting up rpn_cls_score
I0207 23:02:27.466657  2519 net.cpp:157] Top shape: 1 18 20 32 (11520)
I0207 23:02:27.466660  2519 net.cpp:165] Memory required for data: 79993876
I0207 23:02:27.466665  2519 layer_factory.hpp:77] Creating layer rpn_cls_score_rpn_cls_score_0_split
I0207 23:02:27.466670  2519 net.cpp:106] Creating Layer rpn_cls_score_rpn_cls_score_0_split
I0207 23:02:27.466673  2519 net.cpp:454] rpn_cls_score_rpn_cls_score_0_split <- rpn_cls_score
I0207 23:02:27.466678  2519 net.cpp:411] rpn_cls_score_rpn_cls_score_0_split -> rpn_cls_score_rpn_cls_score_0_split_0
I0207 23:02:27.466683  2519 net.cpp:411] rpn_cls_score_rpn_cls_score_0_split -> rpn_cls_score_rpn_cls_score_0_split_1
I0207 23:02:27.466729  2519 net.cpp:150] Setting up rpn_cls_score_rpn_cls_score_0_split
I0207 23:02:27.466744  2519 net.cpp:157] Top shape: 1 18 20 32 (11520)
I0207 23:02:27.466748  2519 net.cpp:157] Top shape: 1 18 20 32 (11520)
I0207 23:02:27.466761  2519 net.cpp:165] Memory required for data: 80086036
I0207 23:02:27.466763  2519 layer_factory.hpp:77] Creating layer rpn_bbox_pred
I0207 23:02:27.466773  2519 net.cpp:106] Creating Layer rpn_bbox_pred
I0207 23:02:27.466775  2519 net.cpp:454] rpn_bbox_pred <- rpn/output_rpn_relu/3x3_0_split_1
I0207 23:02:27.466779  2519 net.cpp:411] rpn_bbox_pred -> rpn_bbox_pred
I0207 23:02:27.467877  2519 net.cpp:150] Setting up rpn_bbox_pred
I0207 23:02:27.467887  2519 net.cpp:157] Top shape: 1 36 20 32 (23040)
I0207 23:02:27.467890  2519 net.cpp:165] Memory required for data: 80178196
I0207 23:02:27.467898  2519 layer_factory.hpp:77] Creating layer rpn_bbox_pred_rpn_bbox_pred_0_split
I0207 23:02:27.467903  2519 net.cpp:106] Creating Layer rpn_bbox_pred_rpn_bbox_pred_0_split
I0207 23:02:27.467906  2519 net.cpp:454] rpn_bbox_pred_rpn_bbox_pred_0_split <- rpn_bbox_pred
I0207 23:02:27.467922  2519 net.cpp:411] rpn_bbox_pred_rpn_bbox_pred_0_split -> rpn_bbox_pred_rpn_bbox_pred_0_split_0
I0207 23:02:27.467929  2519 net.cpp:411] rpn_bbox_pred_rpn_bbox_pred_0_split -> rpn_bbox_pred_rpn_bbox_pred_0_split_1
I0207 23:02:27.467970  2519 net.cpp:150] Setting up rpn_bbox_pred_rpn_bbox_pred_0_split
I0207 23:02:27.467975  2519 net.cpp:157] Top shape: 1 36 20 32 (23040)
I0207 23:02:27.467989  2519 net.cpp:157] Top shape: 1 36 20 32 (23040)
I0207 23:02:27.467991  2519 net.cpp:165] Memory required for data: 80362516
I0207 23:02:27.467993  2519 layer_factory.hpp:77] Creating layer rpn_cls_score_reshape
I0207 23:02:27.468004  2519 net.cpp:106] Creating Layer rpn_cls_score_reshape
I0207 23:02:27.468009  2519 net.cpp:454] rpn_cls_score_reshape <- rpn_cls_score_rpn_cls_score_0_split_0
I0207 23:02:27.468014  2519 net.cpp:411] rpn_cls_score_reshape -> rpn_cls_score_reshape
I0207 23:02:27.468034  2519 net.cpp:150] Setting up rpn_cls_score_reshape
I0207 23:02:27.468039  2519 net.cpp:157] Top shape: 1 2 180 32 (11520)
I0207 23:02:27.468041  2519 net.cpp:165] Memory required for data: 80408596
I0207 23:02:27.468044  2519 layer_factory.hpp:77] Creating layer rpn_cls_score_reshape_rpn_cls_score_reshape_0_split
I0207 23:02:27.468050  2519 net.cpp:106] Creating Layer rpn_cls_score_reshape_rpn_cls_score_reshape_0_split
I0207 23:02:27.468051  2519 net.cpp:454] rpn_cls_score_reshape_rpn_cls_score_reshape_0_split <- rpn_cls_score_reshape
I0207 23:02:27.468055  2519 net.cpp:411] rpn_cls_score_reshape_rpn_cls_score_reshape_0_split -> rpn_cls_score_reshape_rpn_cls_score_reshape_0_split_0
I0207 23:02:27.468061  2519 net.cpp:411] rpn_cls_score_reshape_rpn_cls_score_reshape_0_split -> rpn_cls_score_reshape_rpn_cls_score_reshape_0_split_1
I0207 23:02:27.468096  2519 net.cpp:150] Setting up rpn_cls_score_reshape_rpn_cls_score_reshape_0_split
I0207 23:02:27.468114  2519 net.cpp:157] Top shape: 1 2 180 32 (11520)
I0207 23:02:27.468117  2519 net.cpp:157] Top shape: 1 2 180 32 (11520)
I0207 23:02:27.468119  2519 net.cpp:165] Memory required for data: 80500756
I0207 23:02:27.468122  2519 layer_factory.hpp:77] Creating layer rpn-data
I0207 23:02:27.496516  2519 net.cpp:106] Creating Layer rpn-data
I0207 23:02:27.496533  2519 net.cpp:454] rpn-data <- rpn_cls_score_rpn_cls_score_0_split_1
I0207 23:02:27.496541  2519 net.cpp:454] rpn-data <- gt_boxes_input-data_2_split_0
I0207 23:02:27.496546  2519 net.cpp:454] rpn-data <- im_info_input-data_1_split_0
I0207 23:02:27.496549  2519 net.cpp:454] rpn-data <- data_input-data_0_split_1
I0207 23:02:27.496556  2519 net.cpp:411] rpn-data -> rpn_labels
I0207 23:02:27.496564  2519 net.cpp:411] rpn-data -> rpn_bbox_targets
I0207 23:02:27.496572  2519 net.cpp:411] rpn-data -> rpn_bbox_inside_weights
I0207 23:02:27.496582  2519 net.cpp:411] rpn-data -> rpn_bbox_outside_weights
I0207 23:02:27.497411  2519 net.cpp:150] Setting up rpn-data
I0207 23:02:27.497433  2519 net.cpp:157] Top shape: 1 1 180 32 (5760)
I0207 23:02:27.497437  2519 net.cpp:157] Top shape: 1 36 20 32 (23040)
I0207 23:02:27.497439  2519 net.cpp:157] Top shape: 1 36 20 32 (23040)
I0207 23:02:27.497442  2519 net.cpp:157] Top shape: 1 36 20 32 (23040)
I0207 23:02:27.497444  2519 net.cpp:165] Memory required for data: 80800276
I0207 23:02:27.497447  2519 layer_factory.hpp:77] Creating layer rpn_loss_cls
I0207 23:02:27.497454  2519 net.cpp:106] Creating Layer rpn_loss_cls
I0207 23:02:27.497458  2519 net.cpp:454] rpn_loss_cls <- rpn_cls_score_reshape_rpn_cls_score_reshape_0_split_0
I0207 23:02:27.497463  2519 net.cpp:454] rpn_loss_cls <- rpn_labels
…
I0207 23:02:27.498059  2519 net.cpp:157] Top shape: (1)
I0207 23:02:27.498061  2519 net.cpp:160]     with loss weight 1
I0207 23:02:27.498065  2519 net.cpp:165] Memory required for data: 80800284
I0207 23:02:27.498067  2519 layer_factory.hpp:77] Creating layer rpn_cls_prob
I0207 23:02:27.498073  2519 net.cpp:106] Creating Layer rpn_cls_prob
I0207 23:02:27.498077  2519 net.cpp:454] rpn_cls_prob <- rpn_cls_score_reshape_rpn_cls_score_reshape_0_split_1
I0207 23:02:27.498082  2519 net.cpp:411] rpn_cls_prob -> rpn_cls_prob
I0207 23:02:27.498534  2519 net.cpp:150] Setting up rpn_cls_prob
I0207 23:02:27.498543  2519 net.cpp:157] Top shape: 1 2 180 32 (11520)
I0207 23:02:27.498546  2519 net.cpp:165] Memory required for data: 80846364
I0207 23:02:27.498548  2519 layer_factory.hpp:77] Creating layer rpn_cls_prob_reshape
I0207 23:02:27.498556  2519 net.cpp:106] Creating Layer rpn_cls_prob_reshape
I0207 23:02:27.498559  2519 net.cpp:454] rpn_cls_prob_reshape <- rpn_cls_prob
I0207 23:02:27.498565  2519 net.cpp:411] rpn_cls_prob_reshape -> rpn_cls_prob_reshape
I0207 23:02:27.498589  2519 net.cpp:150] Setting up rpn_cls_prob_reshape
I0207 23:02:27.498594  2519 net.cpp:157] Top shape: 1 18 20 32 (11520)
I0207 23:02:27.498597  2519 net.cpp:165] Memory required for data: 80892444
I0207 23:02:27.498600  2519 layer_factory.hpp:77] Creating layer proposal
I0207 23:02:27.531152  2519 net.cpp:106] Creating Layer proposal
I0207 23:02:27.531167  2519 net.cpp:454] proposal <- rpn_cls_prob_reshape
I0207 23:02:27.531173  2519 net.cpp:454] proposal <- rpn_bbox_pred_rpn_bbox_pred_0_split_1
I0207 23:02:27.531177  2519 net.cpp:454] proposal <- im_info_input-data_1_split_1
I0207 23:02:27.531181  2519 net.cpp:411] proposal -> rpn_rois
I0207 23:02:27.536959  2519 net.cpp:150] Setting up proposal
I0207 23:02:27.536978  2519 net.cpp:157] Top shape: 1 5 (5)
I0207 23:02:27.536983  2519 net.cpp:165] Memory required for data: 80892464
I0207 23:02:27.536986  2519 layer_factory.hpp:77] Creating layer roi-data
I0207 23:02:27.543115  2519 net.cpp:106] Creating Layer roi-data
I0207 23:02:27.543131  2519 net.cpp:454] roi-data <- rpn_rois
I0207 23:02:27.543138  2519 net.cpp:454] roi-data <- gt_boxes_input-data_2_split_1
I0207 23:02:27.543145  2519 net.cpp:411] roi-data -> rois
I0207 23:02:27.543154  2519 net.cpp:411] roi-data -> labels
I0207 23:02:27.543160  2519 net.cpp:411] roi-data -> bbox_targets
I0207 23:02:27.543167  2519 net.cpp:411] roi-data -> bbox_inside_weights
I0207 23:02:27.543174  2519 net.cpp:411] roi-data -> bbox_outside_weights
I0207 23:02:27.543692  2519 net.cpp:150] Setting up roi-data
I0207 23:02:27.543710  2519 net.cpp:157] Top shape: 1 5 (5)
I0207 23:02:27.543718  2519 net.cpp:157] Top shape: 1 1 (1)
I0207 23:02:27.543723  2519 net.cpp:157] Top shape: 1 8 (8)
I0207 23:02:27.543730  2519 net.cpp:157] Top shape: 1 8 (8)
I0207 23:02:27.543735  2519 net.cpp:157] Top shape: 1 8 (8)
I0207 23:02:27.543740  2519 net.cpp:165] Memory required for data: 80892584
I0207 23:02:27.543745  2519 layer_factory.hpp:77] Creating layer roi_pool_conv5
I0207 23:02:27.543758  2519 net.cpp:106] Creating Layer roi_pool_conv5
I0207 23:02:27.543766  2519 net.cpp:454] roi_pool_conv5 <- conv6_reluconv_0_split_1
I0207 23:02:27.543774  2519 net.cpp:454] roi_pool_conv5 <- rois
I0207 23:02:27.543782  2519 net.cpp:411] roi_pool_conv5 -> roi_pool_conv5
I0207 23:02:27.543804  2519 roi_pooling_layer.cpp:30] Spatial scale: 0.0625
I0207 23:02:27.543884  2519 net.cpp:150] Setting up roi_pool_conv5
I0207 23:02:27.543896  2519 net.cpp:157] Top shape: 1 256 6 6 (9216)
I0207 23:02:27.543901  2519 net.cpp:165] Memory required for data: 80929448
I0207 23:02:27.543907  2519 layer_factory.hpp:77] Creating layer fc6
I0207 23:02:27.543920  2519 net.cpp:106] Creating Layer fc6
I0207 23:02:27.543927  2519 net.cpp:454] fc6 <- roi_pool_conv5
I0207 23:02:27.543936  2519 net.cpp:411] fc6 -> fc6
I0207 23:02:27.617350  2519 net.cpp:150] Setting up fc6
I0207 23:02:27.617398  2519 net.cpp:157] Top shape: 1 4096 (4096)
I0207 23:02:27.617401  2519 net.cpp:165] Memory required for data: 80945832
I0207 23:02:27.617413  2519 layer_factory.hpp:77] Creating layer relu6
I0207 23:02:27.617424  2519 net.cpp:106] Creating Layer relu6
I0207 23:02:27.617429  2519 net.cpp:454] relu6 <- fc6
I0207 23:02:27.617436  2519 net.cpp:397] relu6 -> fc6 (in-place)
I0207 23:02:27.617681  2519 net.cpp:150] Setting up relu6
I0207 23:02:27.617688  2519 net.cpp:157] Top shape: 1 4096 (4096)
I0207 23:02:27.617700  2519 net.cpp:165] Memory required for data: 80962216
I0207 23:02:27.617702  2519 layer_factory.hpp:77] Creating layer drop6
I0207 23:02:27.617708  2519 net.cpp:106] Creating Layer drop6
I0207 23:02:27.617712  2519 net.cpp:454] drop6 <- fc6
I0207 23:02:27.617715  2519 net.cpp:397] drop6 -> fc6 (in-place)
I0207 23:02:27.617751  2519 net.cpp:150] Setting up drop6
I0207 23:02:27.617756  2519 net.cpp:157] Top shape: 1 4096 (4096)
I0207 23:02:27.617758  2519 net.cpp:165] Memory required for data: 80978600
I0207 23:02:27.617760  2519 layer_factory.hpp:77] Creating layer fc7
I0207 23:02:27.617768  2519 net.cpp:106] Creating Layer fc7
I0207 23:02:27.617770  2519 net.cpp:454] fc7 <- fc6
I0207 23:02:27.617774  2519 net.cpp:411] fc7 -> fc7
I0207 23:02:27.652993  2519 net.cpp:150] Setting up fc7
I0207 23:02:27.653034  2519 net.cpp:157] Top shape: 1 4096 (4096)
I0207 23:02:27.653038  2519 net.cpp:165] Memory required for data: 80994984
I0207 23:02:27.653048  2519 layer_factory.hpp:77] Creating layer relu7
I0207 23:02:27.653077  2519 net.cpp:106] Creating Layer relu7
I0207 23:02:27.653086  2519 net.cpp:454] relu7 <- fc7
I0207 23:02:27.653093  2519 net.cpp:397] relu7 -> fc7 (in-place)
I0207 23:02:27.653622  2519 net.cpp:150] Setting up relu7
I0207 23:02:27.653631  2519 net.cpp:157] Top shape: 1 4096 (4096)
I0207 23:02:27.653635  2519 net.cpp:165] Memory required for data: 81011368
I0207 23:02:27.653636  2519 layer_factory.hpp:77] Creating layer drop7
I0207 23:02:27.653645  2519 net.cpp:106] Creating Layer drop7
I0207 23:02:27.653647  2519 net.cpp:454] drop7 <- fc7
I0207 23:02:27.653651  2519 net.cpp:397] drop7 -> fc7 (in-place)
I0207 23:02:27.653679  2519 net.cpp:150] Setting up drop7
I0207 23:02:27.653684  2519 net.cpp:157] Top shape: 1 4096 (4096)
I0207 23:02:27.653687  2519 net.cpp:165] Memory required for data: 81027752
I0207 23:02:27.653689  2519 layer_factory.hpp:77] Creating layer fc7_drop7_0_split
I0207 23:02:27.653694  2519 net.cpp:106] Creating Layer fc7_drop7_0_split
I0207 23:02:27.653697  2519 net.cpp:454] fc7_drop7_0_split <- fc7
I0207 23:02:27.653702  2519 net.cpp:411] fc7_drop7_0_split -> fc7_drop7_0_split_0
I0207 23:02:27.653707  2519 net.cpp:411] fc7_drop7_0_split -> fc7_drop7_0_split_1
I0207 23:02:27.653743  2519 net.cpp:150] Setting up fc7_drop7_0_split
I0207 23:02:27.653748  2519 net.cpp:157] Top shape: 1 4096 (4096)
I0207 23:02:27.653750  2519 net.cpp:157] Top shape: 1 4096 (4096)
I0207 23:02:27.653753  2519 net.cpp:165] Memory required for data: 81060520
I0207 23:02:27.653754  2519 layer_factory.hpp:77] Creating layer cls_score
I0207 23:02:27.653761  2519 net.cpp:106] Creating Layer cls_score
I0207 23:02:27.653764  2519 net.cpp:454] cls_score <- fc7_drop7_0_split_0
I0207 23:02:27.653769  2519 net.cpp:411] cls_score -> cls_score
I0207 23:02:27.653937  2519 net.cpp:150] Setting up cls_score
I0207 23:02:27.653944  2519 net.cpp:157] Top shape: 1 2 (2)
I0207 23:02:27.653946  2519 net.cpp:165] Memory required for data: 81060528
I0207 23:02:27.653950  2519 layer_factory.hpp:77] Creating layer bbox_pred
I0207 23:02:27.653955  2519 net.cpp:106] Creating Layer bbox_pred
I0207 23:02:27.653959  2519 net.cpp:454] bbox_pred <- fc7_drop7_0_split_1
I0207 23:02:27.653964  2519 net.cpp:411] bbox_pred -> bbox_pred
I0207 23:02:27.654328  2519 net.cpp:150] Setting up bbox_pred
I0207 23:02:27.654335  2519 net.cpp:157] Top shape: 1 8 (8)
I0207 23:02:27.654336  2519 net.cpp:165] Memory required for data: 81060560
I0207 23:02:27.654350  2519 layer_factory.hpp:77] Creating layer loss_cls
I0207 23:02:27.654356  2519 net.cpp:106] Creating Layer loss_cls
I0207 23:02:27.654358  2519 net.cpp:454] loss_cls <- cls_score
I0207 23:02:27.654361  2519 net.cpp:454] loss_cls <- labels
I0207 23:02:27.654364  2519 net.cpp:411] loss_cls -> cls_loss
…
           'RPN_POST_NMS_TOP_N': 2000,
           'RPN_PRE_NMS_TOP_N': 12000,
           'SCALES': [300],
           'SNAPSHOT_INFIX': '',
           'SNAPSHOT_ITERS': 10000,
           'USE_FLIPPED': True,
           'USE_PREFETCH': False},
 'USE_GPU_NMS': True}
WARNING: Logging before InitGoogleLogging() is written to STDERR
I0208 08:55:00.259979  6824 net.cpp:49] Initializing net from parameters: 
name: "ZF"
input: "data"
input: "im_info"
state {
  phase: TEST
}
input_shape {
  dim: 1
  dim: 3
  dim: 224
  dim: 224
}
input_shape {
  dim: 1
  dim: 3
}
layer {
  name: "conv1"
  type: "Convolution"
  bottom: "data"
  top: "conv1"
  convolution_param {
    num_output: 96
    pad: 3
    kernel_size: 7
    stride: 2
  }
}
layer {
  name: "relu1"
  type: "ReLU"
  bottom: "conv1"
  top: "conv1"
}
layer {
  name: "norm1"
  type: "LRN"
  bottom: "conv1"
  top: "norm1"
  lrn_param {
    local_size: 3
    alpha: 5e-05
    beta: 0.75
    norm_region: WITHIN_CHANNEL
    engine: CAFFE
  }
}
layer {
  name: "pool1"
  type: "Pooling"
  bottom: "norm1"
  top: "pool1"
  pooling_param {
    pool: MAX
    kernel_size: 3
    stride: 2
    pad: 1
  }
}
layer {
  name: "conv2"
  type: "Convolution"
  bottom: "pool1"
  top: "conv2"
  convolution_param {
    num_output: 256
    pad: 2
    kernel_size: 5
    stride: 2
  }
}
layer {
  name: "relu2"
  type: "ReLU"
  bottom: "conv2"
  top: "conv2"
}
layer {
  name: "norm2"
  type: "LRN"
  bottom: "conv2"
  top: "norm2"
  lrn_param {
    local_size: 3
    alpha: 5e-05
    beta: 0.75
    norm_region: WITHIN_CHANNEL
    engine: CAFFE
  }
}
layer {
  name: "pool2"
  type: "Pooling"
  bottom: "norm2"
  top: "pool2"
  pooling_param {
    pool: MAX
    kernel_size: 3
    stride: 2
    pad: 1
  }
}
layer {
  name: "conv3"
  type: "Convolution"
  bottom: "pool2"
  top: "conv3"
  convolution_param {
    num_output: 384
    pad: 1
    kernel_size: 3
    stride: 1
  }
}
layer {
  name: "relu3"
  type: "ReLU"
  bottom: "conv3"
  top: "conv3"
}
layer {
  name: "conv4"
  type: "Convolution"
  bottom: "conv3"
  top: "conv4"
  convolution_param {
    num_output: 384
    pad: 1
    kernel_size: 3
    stride: 1
  }
}
layer {
  name: "relu4"
  type: "ReLU"
  bottom: "conv4"
  top: "conv4"
}
layer {
  name: "conv5"
  type: "Convolution"
  bottom: "conv4"
  top: "conv5"
  convolution_param {
    num_output: 256
    pad: 1
    kernel_size: 3
    stride: 1
  }
}
layer {
  name: "relu5"
  type: "ReLU"
  bottom: "conv5"
  top: "conv5"
}
layer {
  name: "concat"
  type: "Concat"
  bottom: "conv3"
  bottom: "conv4"
  bottom: "conv5"
  top: "concat"
  concat_param {
    axis: 1
  }
}
layer {
  name: "normconcat"
  type: "LRN"
  bottom: "concat"
  top: "concatfeature"
  lrn_param {
    local_size: 3
    alpha: 5e-05
    beta: 0.75
    norm_region: WITHIN_CHANNEL
    engine: CAFFE
  }
}
layer {
  name: "conv6"
  type: "Convolution"
  bottom: "concatfeature"
  top: "conv6"
  param {
    lr_mult: 1
  }
  param {
    lr_mult: 2
  }
  convolution_param {
    num_output: 256
    pad: 0
    kernel_size: 1
    stride: 1
    weight_filler {
      type: "xavier"
    }
    bias_filler {
      type: "constant"
    }
  }
}
layer {
  name: "reluconv"
  type: "ReLU"
  bottom: "conv6"
  top: "conv6"
}
layer {
  name: "rpn_conv/3x3"
  type: "Convolution"
  bottom: "conv6"
  top: "rpn/output"
  convolution_param {
    num_output: 256
    pad: 1
    kernel_size: 3
    stride: 1
    weight_filler {
      type: "gaussian"
      std: 0.01
    }
    bias_filler {
      type: "constant"
      value: 0
    }
  }
}
layer {
  name: "rpn_relu/3x3"
  type: "ReLU"
  bottom: "rpn/output"
  top: "rpn/output"
}
layer {
  name: "rpn_cls_score"
  type: "Convolution"
  bottom: "rpn/output"
  top: "rpn_cls_score"
  convolution_param {
    num_output: 18
    pad: 0
    kernel_size: 1
    stride: 1
    weight_filler {
      type: "gaussian"
      std: 0.01
    }
    bias_filler {
      type: "constant"
      value: 0
    }
  }
}
layer {
  name: "rpn_bbox_pred"
  type: "Convolution"
  bottom: "rpn/output"
  top: "rpn_bbox_pred"
  convolution_param {
    num_output: 36
    pad: 0
    kernel_size: 1
    stride: 1
    weight_filler {
      type: "gaussian"
      std: 0.01
    }
    bias_filler {
      type: "constant"
      value: 0
    }
  }
}
layer {
  name: "rpn_cls_score_reshape"
  type: "Reshape"
  bottom: "rpn_cls_score"
  top: "rpn_cls_score_reshape"
  reshape_param {
    shape {
      dim: 0
      dim: 2
      dim: -1
      dim: 0
    }
  }
}
layer {
  name: "rpn_cls_prob"
  type: "Softmax"
  bottom: "rpn_cls_score_reshape"
  top: "rpn_cls_prob"
}
layer {
  name: "rpn_cls_prob_reshape"
  type: "Reshape"
  bottom: "rpn_cls_prob"
  top: "rpn_cls_prob_reshape"
  reshape_param {
    shape {
      dim: 0
      dim: 18
      dim: -1
      dim: 0
    }
  }
}
layer {
  name: "proposal"
  type: "Python"
  bottom: "rpn_cls_prob_reshape"
  bottom: "rpn_bbox_pred"
  bottom: "im_info"
  top: "rois"
  python_param {
    module: "rpn.proposal_layer"
    layer: "ProposalLayer"
    param_str: "\'feat_stride\': 16"
  }
}
layer {
  name: "roi_pool_conv5"
  type: "ROIPooling"
  bottom: "conv6"
  bottom: "rois"
  top: "roi_pool_conv5"
  roi_pooling_param {
    pooled_h: 6
    pooled_w: 6
    spatial_scale: 0.0625
  }
}
layer {
  name: "fc6"
  type: "InnerProduct"
  bottom: "roi_pool_conv5"
  top: "fc6"
  inner_product_param {
    num_output: 4096
  }
}
layer {
  name: "relu6"
  type: "ReLU"
  bottom: "fc6"
  top: "fc6"
}
layer {
  name: "drop6"
  type: "Dropout"
  bottom: "fc6"
  top: "fc6"
  dropout_param {
    dropout_ratio: 0.5
    scale_train: false
  }
}
layer {
  name: "fc7"
  type: "InnerProduct"
  bottom: "fc6"
  top: "fc7"
  inner_product_param {
    num_output: 4096
  }
}
layer {
  name: "relu7"
  type: "ReLU"
  bottom: "fc7"
  top: "fc7"
}
layer {
  name: "drop7"
  type: "Dropout"
  bottom: "fc7"
  top: "fc7"
  dropout_param {
    dropout_ratio: 0.5
    scale_train: false
  }
}
layer {
  name: "cls_score"
  type: "InnerProduct"
  bottom: "fc7"
  top: "cls_score"
  inner_product_param {
    num_output: 2
  }
}
layer {
  name: "bbox_pred"
  type: "InnerProduct"
  bottom: "fc7"
  top: "bbox_pred"
  inner_product_param {
    num_output: 8
  }
}
layer {
  name: "cls_prob"
  type: "Softmax"
  bottom: "cls_score"
  top: "cls_prob"
  loss_param {
    ignore_label: -1
    normalize: true
  }
}
I0208 08:55:00.260174  6824 net.cpp:413] Input 0 -> data
I0208 08:55:00.291537  6824 net.cpp:413] Input 1 -> im_info
I0208 08:55:00.291591  6824 layer_factory.hpp:77] Creating layer conv1
I0208 08:55:00.291622  6824 net.cpp:106] Creating Layer conv1
I0208 08:55:00.291628  6824 net.cpp:454] conv1 <- data
I0208 08:55:00.291638  6824 net.cpp:411] conv1 -> conv1
I0208 08:55:00.500598  6824 net.cpp:150] Setting up conv1
I0208 08:55:00.500628  6824 net.cpp:157] Top shape: 1 96 112 112 (1204224)
I0208 08:55:00.500633  6824 net.cpp:165] Memory required for data: 4816896
I0208 08:55:00.500659  6824 layer_factory.hpp:77] Creating layer relu1
I0208 08:55:00.500674  6824 net.cpp:106] Creating Layer relu1
I0208 08:55:00.500681  6824 net.cpp:454] relu1 <- conv1
I0208 08:55:00.500690  6824 net.cpp:397] relu1 -> conv1 (in-place)
I0208 08:55:00.500844  6824 net.cpp:150] Setting up relu1
I0208 08:55:00.500854  6824 net.cpp:157] Top shape: 1 96 112 112 (1204224)
I0208 08:55:00.500857  6824 net.cpp:165] Memory required for data: 9633792
I0208 08:55:00.500871  6824 layer_factory.hpp:77] Creating layer norm1
I0208 08:55:00.500881  6824 net.cpp:106] Creating Layer norm1
I0208 08:55:00.500887  6824 net.cpp:454] norm1 <- conv1
I0208 08:55:00.500895  6824 net.cpp:411] norm1 -> norm1
I0208 08:55:00.500989  6824 net.cpp:150] Setting up norm1
I0208 08:55:00.500998  6824 net.cpp:157] Top shape: 1 96 112 112 (1204224)
I0208 08:55:00.501001  6824 net.cpp:165] Memory required for data: 14450688
I0208 08:55:00.501015  6824 layer_factory.hpp:77] Creating layer pool1
I0208 08:55:00.501022  6824 net.cpp:106] Creating Layer pool1
I0208 08:55:00.501029  6824 net.cpp:454] pool1 <- norm1
I0208 08:55:00.501034  6824 net.cpp:411] pool1 -> pool1
I0208 08:55:00.501068  6824 net.cpp:150] Setting up pool1
I0208 08:55:00.501076  6824 net.cpp:157] Top shape: 1 96 57 57 (311904)
I0208 08:55:00.501080  6824 net.cpp:165] Memory required for data: 15698304
I0208 08:55:00.501085  6824 layer_factory.hpp:77] Creating layer conv2
I0208 08:55:00.501096  6824 net.cpp:106] Creating Layer conv2
I0208 08:55:00.501099  6824 net.cpp:454] conv2 <- pool1
I0208 08:55:00.501106  6824 net.cpp:411] conv2 -> conv2
I0208 08:55:00.503527  6824 net.cpp:150] Setting up conv2
I0208 08:55:00.503545  6824 net.cpp:157] Top shape: 1 256 29 29 (215296)
I0208 08:55:00.503548  6824 net.cpp:165] Memory required for data: 16559488
I0208 08:55:00.503572  6824 layer_factory.hpp:77] Creating layer relu2
I0208 08:55:00.503583  6824 net.cpp:106] Creating Layer relu2
I0208 08:55:00.503588  6824 net.cpp:454] relu2 <- conv2
I0208 08:55:00.503595  6824 net.cpp:397] relu2 -> conv2 (in-place)
I0208 08:55:00.503948  6824 net.cpp:150] Setting up relu2
I0208 08:55:00.503959  6824 net.cpp:157] Top shape: 1 256 29 29 (215296)
I0208 08:55:00.503964  6824 net.cpp:165] Memory required for data: 17420672
I0208 08:55:00.503978  6824 layer_factory.hpp:77] Creating layer norm2
I0208 08:55:00.503988  6824 net.cpp:106] Creating Layer norm2
I0208 08:55:00.503994  6824 net.cpp:454] norm2 <- conv2
I0208 08:55:00.504001  6824 net.cpp:411] norm2 -> norm2
I0208 08:55:00.504094  6824 net.cpp:150] Setting up norm2
I0208 08:55:00.504102  6824 net.cpp:157] Top shape: 1 256 29 29 (215296)
I0208 08:55:00.504107  6824 net.cpp:165] Memory required for data: 18281856
I0208 08:55:00.504122  6824 layer_factory.hpp:77] Creating layer pool2
I0208 08:55:00.504127  6824 net.cpp:106] Creating Layer pool2
I0208 08:55:00.504133  6824 net.cpp:454] pool2 <- norm2
I0208 08:55:00.504139  6824 net.cpp:411] pool2 -> pool2
I0208 08:55:00.504173  6824 net.cpp:150] Setting up pool2
I0208 08:55:00.504180  6824 net.cpp:157] Top shape: 1 256 15 15 (57600)
I0208 08:55:00.504184  6824 net.cpp:165] Memory required for data: 18512256
I0208 08:55:00.504189  6824 layer_factory.hpp:77] Creating layer conv3
I0208 08:55:00.504199  6824 net.cpp:106] Creating Layer conv3
I0208 08:55:00.504204  6824 net.cpp:454] conv3 <- pool2
I0208 08:55:00.504210  6824 net.cpp:411] conv3 -> conv3
I0208 08:55:00.506556  6824 net.cpp:150] Setting up conv3
I0208 08:55:00.506574  6824 net.cpp:157] Top shape: 1 384 15 15 (86400)
I0208 08:55:00.506578  6824 net.cpp:165] Memory required for data: 18857856
I0208 08:55:00.506602  6824 layer_factory.hpp:77] Creating layer relu3
I0208 08:55:00.506613  6824 net.cpp:106] Creating Layer relu3
I0208 08:55:00.506618  6824 net.cpp:454] relu3 <- conv3
I0208 08:55:00.506626  6824 net.cpp:397] relu3 -> conv3 (in-place)
I0208 08:55:00.506974  6824 net.cpp:150] Setting up relu3
I0208 08:55:00.506985  6824 net.cpp:157] Top shape: 1 384 15 15 (86400)
I0208 08:55:00.506990  6824 net.cpp:165] Memory required for data: 19203456
I0208 08:55:00.507004  6824 layer_factory.hpp:77] Creating layer conv3_relu3_0_split
I0208 08:55:00.507014  6824 net.cpp:106] Creating Layer conv3_relu3_0_split
I0208 08:55:00.507020  6824 net.cpp:454] conv3_relu3_0_split <- conv3
I0208 08:55:00.507027  6824 net.cpp:411] conv3_relu3_0_split -> conv3_relu3_0_split_0
I0208 08:55:00.507037  6824 net.cpp:411] conv3_relu3_0_split -> conv3_relu3_0_split_1
I0208 08:55:00.507079  6824 net.cpp:150] Setting up conv3_relu3_0_split
I0208 08:55:00.507097  6824 net.cpp:157] Top shape: 1 384 15 15 (86400)
I0208 08:55:00.507102  6824 net.cpp:157] Top shape: 1 384 15 15 (86400)
I0208 08:55:00.507115  6824 net.cpp:165] Memory required for data: 19894656
I0208 08:55:00.507122  6824 layer_factory.hpp:77] Creating layer conv4
I0208 08:55:00.507133  6824 net.cpp:106] Creating Layer conv4
I0208 08:55:00.507138  6824 net.cpp:454] conv4 <- conv3_relu3_0_split_0
I0208 08:55:00.507145  6824 net.cpp:411] conv4 -> conv4
I0208 08:55:00.510483  6824 net.cpp:150] Setting up conv4
I0208 08:55:00.510512  6824 net.cpp:157] Top shape: 1 384 15 15 (86400)
I0208 08:55:00.510517  6824 net.cpp:165] Memory required for data: 20240256
I0208 08:55:00.510529  6824 layer_factory.hpp:77] Creating layer relu4
I0208 08:55:00.510540  6824 net.cpp:106] Creating Layer relu4
I0208 08:55:00.510550  6824 net.cpp:454] relu4 <- conv4
I0208 08:55:00.510558  6824 net.cpp:397] relu4 -> conv4 (in-place)
I0208 08:55:00.510720  6824 net.cpp:150] Setting up relu4
I0208 08:55:00.510728  6824 net.cpp:157] Top shape: 1 384 15 15 (86400)
I0208 08:55:00.510733  6824 net.cpp:165] Memory required for data: 20585856
I0208 08:55:00.510737  6824 layer_factory.hpp:77] Creating layer conv4_relu4_0_split
I0208 08:55:00.510746  6824 net.cpp:106] Creating Layer conv4_relu4_0_split
I0208 08:55:00.510751  6824 net.cpp:454] conv4_relu4_0_split <- conv4
I0208 08:55:00.510759  6824 net.cpp:411] conv4_relu4_0_split -> conv4_relu4_0_split_0
I0208 08:55:00.510769  6824 net.cpp:411] conv4_relu4_0_split -> conv4_relu4_0_split_1
I0208 08:55:00.510812  6824 net.cpp:150] Setting up conv4_relu4_0_split
I0208 08:55:00.510819  6824 net.cpp:157] Top shape: 1 384 15 15 (86400)
I0208 08:55:00.510825  6824 net.cpp:157] Top shape: 1 384 15 15 (86400)
I0208 08:55:00.510830  6824 net.cpp:165] Memory required for data: 21277056
I0208 08:55:00.510835  6824 layer_factory.hpp:77] Creating layer conv5
I0208 08:55:00.510848  6824 net.cpp:106] Creating Layer conv5
I0208 08:55:00.510854  6824 net.cpp:454] conv5 <- conv4_relu4_0_split_0
I0208 08:55:00.510860  6824 net.cpp:411] conv5 -> conv5
I0208 08:55:00.513741  6824 net.cpp:150] Setting up conv5
I0208 08:55:00.513764  6824 net.cpp:157] Top shape: 1 256 15 15 (57600)
I0208 08:55:00.513768  6824 net.cpp:165] Memory required for data: 21507456
I0208 08:55:00.513784  6824 layer_factory.hpp:77] Creating layer relu5
I0208 08:55:00.513797  6824 net.cpp:106] Creating Layer relu5
I0208 08:55:00.513804  6824 net.cpp:454] relu5 <- conv5
I0208 08:55:00.513813  6824 net.cpp:397] relu5 -> conv5 (in-place)
I0208 08:55:00.514201  6824 net.cpp:150] Setting up relu5
I0208 08:55:00.514214  6824 net.cpp:157] Top shape: 1 256 15 15 (57600)
I0208 08:55:00.514219  6824 net.cpp:165] Memory required for data: 21737856
I0208 08:55:00.514222  6824 layer_factory.hpp:77] Creating layer concat
I0208 08:55:00.514236  6824 net.cpp:106] Creating Layer concat
I0208 08:55:00.514242  6824 net.cpp:454] concat <- conv3_relu3_0_split_1
I0208 08:55:00.514248  6824 net.cpp:454] concat <- conv4_relu4_0_split_1
I0208 08:55:00.514253  6824 net.cpp:454] concat <- conv5
I0208 08:55:00.514261  6824 net.cpp:411] concat -> concat
I0208 08:55:00.514295  6824 net.cpp:150] Setting up concat
I0208 08:55:00.514303  6824 net.cpp:157] Top shape: 1 1024 15 15 (230400)
I0208 08:55:00.514307  6824 net.cpp:165] Memory required for data: 22659456
I0208 08:55:00.514312  6824 layer_factory.hpp:77] Creating layer normconcat
I0208 08:55:00.514322  6824 net.cpp:106] Creating Layer normconcat
I0208 08:55:00.514328  6824 net.cpp:454] normconcat <- concat
I0208 08:55:00.514334  6824 net.cpp:411] normconcat -> concatfeature
I0208 08:55:00.514427  6824 net.cpp:150] Setting up normconcat
I0208 08:55:00.514436  6824 net.cpp:157] Top shape: 1 1024 15 15 (230400)
I0208 08:55:00.514441  6824 net.cpp:165] Memory required for data: 23581056
I0208 08:55:00.514446  6824 layer_factory.hpp:77] Creating layer conv6
I0208 08:55:00.514458  6824 net.cpp:106] Creating Layer conv6
I0208 08:55:00.514463  6824 net.cpp:454] conv6 <- concatfeature
I0208 08:55:00.514472  6824 net.cpp:411] conv6 -> conv6
I0208 08:55:00.517272  6824 net.cpp:150] Setting up conv6
I0208 08:55:00.517285  6824 net.cpp:157] Top shape: 1 256 15 15 (57600)
I0208 08:55:00.517290  6824 net.cpp:165] Memory required for data: 23811456
I0208 08:55:00.517299  6824 layer_factory.hpp:77] Creating layer reluconv
I0208 08:55:00.517309  6824 net.cpp:106] Creating Layer reluconv
I0208 08:55:00.517315  6824 net.cpp:454] reluconv <- conv6
I0208 08:55:00.517323  6824 net.cpp:397] reluconv -> conv6 (in-place)
I0208 08:55:00.517679  6824 net.cpp:150] Setting up reluconv
I0208 08:55:00.517690  6824 net.cpp:157] Top shape: 1 256 15 15 (57600)
I0208 08:55:00.517695  6824 net.cpp:165] Memory required for data: 24041856
I0208 08:55:00.517699  6824 layer_factory.hpp:77] Creating layer conv6_reluconv_0_split
I0208 08:55:00.517707  6824 net.cpp:106] Creating Layer conv6_reluconv_0_split
I0208 08:55:00.517714  6824 net.cpp:454] conv6_reluconv_0_split <- conv6
I0208 08:55:00.517724  6824 net.cpp:411] conv6_reluconv_0_split -> conv6_reluconv_0_split_0
I0208 08:55:00.517733  6824 net.cpp:411] conv6_reluconv_0_split -> conv6_reluconv_0_split_1
I0208 08:55:00.517777  6824 net.cpp:150] Setting up conv6_reluconv_0_split
I0208 08:55:00.517786  6824 net.cpp:157] Top shape: 1 256 15 15 (57600)
I0208 08:55:00.517791  6824 net.cpp:157] Top shape: 1 256 15 15 (57600)
I0208 08:55:00.517796  6824 net.cpp:165] Memory required for data: 24502656
I0208 08:55:00.517799  6824 layer_factory.hpp:77] Creating layer rpn_conv/3x3
I0208 08:55:00.517810  6824 net.cpp:106] Creating Layer rpn_conv/3x3
I0208 08:55:00.517815  6824 net.cpp:454] rpn_conv/3x3 <- conv6_reluconv_0_split_0
I0208 08:55:00.517824  6824 net.cpp:411] rpn_conv/3x3 -> rpn/output
I0208 08:55:00.524693  6824 net.cpp:150] Setting up rpn_conv/3x3
I0208 08:55:00.524708  6824 net.cpp:157] Top shape: 1 256 15 15 (57600)
I0208 08:55:00.524713  6824 net.cpp:165] Memory required for data: 24733056
I0208 08:55:00.524722  6824 layer_factory.hpp:77] Creating layer rpn_relu/3x3
I0208 08:55:00.524731  6824 net.cpp:106] Creating Layer rpn_relu/3x3
I0208 08:55:00.524735  6824 net.cpp:454] rpn_relu/3x3 <- rpn/output
I0208 08:55:00.524745  6824 net.cpp:397] rpn_relu/3x3 -> rpn/output (in-place)
I0208 08:55:00.524912  6824 net.cpp:150] Setting up rpn_relu/3x3
I0208 08:55:00.524922  6824 net.cpp:157] Top shape: 1 256 15 15 (57600)
I0208 08:55:00.524926  6824 net.cpp:165] Memory required for data: 24963456
I0208 08:55:00.524940  6824 layer_factory.hpp:77] Creating layer rpn/output_rpn_relu/3x3_0_split
I0208 08:55:00.524947  6824 net.cpp:106] Creating Layer rpn/output_rpn_relu/3x3_0_split
I0208 08:55:00.524952  6824 net.cpp:454] rpn/output_rpn_relu/3x3_0_split <- rpn/output
I0208 08:55:00.524962  6824 net.cpp:411] rpn/output_rpn_relu/3x3_0_split -> rpn/output_rpn_relu/3x3_0_split_0
I0208 08:55:00.524971  6824 net.cpp:411] rpn/output_rpn_relu/3x3_0_split -> rpn/output_rpn_relu/3x3_0_split_1
I0208 08:55:00.525024  6824 net.cpp:150] Setting up rpn/output_rpn_relu/3x3_0_split
I0208 08:55:00.525032  6824 net.cpp:157] Top shape: 1 256 15 15 (57600)
I0208 08:55:00.525038  6824 net.cpp:157] Top shape: 1 256 15 15 (57600)
I0208 08:55:00.525051  6824 net.cpp:165] Memory required for data: 25424256
I0208 08:55:00.525055  6824 layer_factory.hpp:77] Creating layer rpn_cls_score
I0208 08:55:00.525068  6824 net.cpp:106] Creating Layer rpn_cls_score
I0208 08:55:00.525071  6824 net.cpp:454] rpn_cls_score <- rpn/output_rpn_relu/3x3_0_split_0
I0208 08:55:00.525079  6824 net.cpp:411] rpn_cls_score -> rpn_cls_score
I0208 08:55:00.526406  6824 net.cpp:150] Setting up rpn_cls_score
I0208 08:55:00.526417  6824 net.cpp:157] Top shape: 1 18 15 15 (4050)
I0208 08:55:00.526422  6824 net.cpp:165] Memory required for data: 25440456
I0208 08:55:00.526430  6824 layer_factory.hpp:77] Creating layer rpn_bbox_pred
I0208 08:55:00.526445  6824 net.cpp:106] Creating Layer rpn_bbox_pred
I0208 08:55:00.526450  6824 net.cpp:454] rpn_bbox_pred <- rpn/output_rpn_relu/3x3_0_split_1
I0208 08:55:00.526459  6824 net.cpp:411] rpn_bbox_pred -> rpn_bbox_pred
I0208 08:55:00.527696  6824 net.cpp:150] Setting up rpn_bbox_pred
I0208 08:55:00.527710  6824 net.cpp:157] Top shape: 1 36 15 15 (8100)
I0208 08:55:00.527714  6824 net.cpp:165] Memory required for data: 25472856
I0208 08:55:00.527740  6824 layer_factory.hpp:77] Creating layer rpn_cls_score_reshape
I0208 08:55:00.527751  6824 net.cpp:106] Creating Layer rpn_cls_score_reshape
I0208 08:55:00.527757  6824 net.cpp:454] rpn_cls_score_reshape <- rpn_cls_score
I0208 08:55:00.527767  6824 net.cpp:411] rpn_cls_score_reshape -> rpn_cls_score_reshape
I0208 08:55:00.527799  6824 net.cpp:150] Setting up rpn_cls_score_reshape
I0208 08:55:00.527817  6824 net.cpp:157] Top shape: 1 2 135 15 (4050)
I0208 08:55:00.527820  6824 net.cpp:165] Memory required for data: 25489056
I0208 08:55:00.527834  6824 layer_factory.hpp:77] Creating layer rpn_cls_prob
I0208 08:55:00.527843  6824 net.cpp:106] Creating Layer rpn_cls_prob
I0208 08:55:00.527848  6824 net.cpp:454] rpn_cls_prob <- rpn_cls_score_reshape
I0208 08:55:00.527855  6824 net.cpp:411] rpn_cls_prob -> rpn_cls_prob
I0208 08:55:00.528074  6824 net.cpp:150] Setting up rpn_cls_prob
I0208 08:55:00.528084  6824 net.cpp:157] Top shape: 1 2 135 15 (4050)
I0208 08:55:00.528087  6824 net.cpp:165] Memory required for data: 25505256
I0208 08:55:00.528092  6824 layer_factory.hpp:77] Creating layer rpn_cls_prob_reshape
I0208 08:55:00.528101  6824 net.cpp:106] Creating Layer rpn_cls_prob_reshape
I0208 08:55:00.528107  6824 net.cpp:454] rpn_cls_prob_reshape <- rpn_cls_prob
I0208 08:55:00.528115  6824 net.cpp:411] rpn_cls_prob_reshape -> rpn_cls_prob_reshape
I0208 08:55:00.528142  6824 net.cpp:150] Setting up rpn_cls_prob_reshape
I0208 08:55:00.528149  6824 net.cpp:157] Top shape: 1 18 15 15 (4050)
I0208 08:55:00.528153  6824 net.cpp:165] Memory required for data: 25521456
I0208 08:55:00.528157  6824 layer_factory.hpp:77] Creating layer proposal
I0208 08:55:00.549769  6824 net.cpp:106] Creating Layer proposal
I0208 08:55:00.549783  6824 net.cpp:454] proposal <- rpn_cls_prob_reshape
I0208 08:55:00.549793  6824 net.cpp:454] proposal <- rpn_bbox_pred
I0208 08:55:00.549799  6824 net.cpp:454] proposal <- im_info
I0208 08:55:00.549809  6824 net.cpp:411] proposal -> rois
I0208 08:55:00.550536  6824 net.cpp:150] Setting up proposal
I0208 08:55:00.550554  6824 net.cpp:157] Top shape: 1 5 (5)
I0208 08:55:00.550559  6824 net.cpp:165] Memory required for data: 25521476
I0208 08:55:00.550565  6824 layer_factory.hpp:77] Creating layer roi_pool_conv5
I0208 08:55:00.550576  6824 net.cpp:106] Creating Layer roi_pool_conv5
I0208 08:55:00.550585  6824 net.cpp:454] roi_pool_conv5 <- conv6_reluconv_0_split_1
I0208 08:55:00.550593  6824 net.cpp:454] roi_pool_conv5 <- rois
I0208 08:55:00.550603  6824 net.cpp:411] roi_pool_conv5 -> roi_pool_conv5
I0208 08:55:00.550618  6824 roi_pooling_layer.cpp:30] Spatial scale: 0.0625
I0208 08:55:00.550681  6824 net.cpp:150] Setting up roi_pool_conv5
I0208 08:55:00.550693  6824 net.cpp:157] Top shape: 1 256 6 6 (9216)
I0208 08:55:00.550698  6824 net.cpp:165] Memory required for data: 25558340
I0208 08:55:00.550705  6824 layer_factory.hpp:77] Creating layer fc6
I0208 08:55:00.550716  6824 net.cpp:106] Creating Layer fc6
I0208 08:55:00.550724  6824 net.cpp:454] fc6 <- roi_pool_conv5
I0208 08:55:00.550732  6824 net.cpp:411] fc6 -> fc6
I0208 08:55:00.617965  6824 net.cpp:150] Setting up fc6
I0208 08:55:00.618005  6824 net.cpp:157] Top shape: 1 4096 (4096)
I0208 08:55:00.618010  6824 net.cpp:165] Memory required for data: 25574724
I0208 08:55:00.618021  6824 layer_factory.hpp:77] Creating layer relu6
I0208 08:55:00.618052  6824 net.cpp:106] Creating Layer relu6
I0208 08:55:00.618059  6824 net.cpp:454] relu6 <- fc6
I0208 08:55:00.618067  6824 net.cpp:397] relu6 -> fc6 (in-place)
I0208 08:55:00.618513  6824 net.cpp:150] Setting up relu6
I0208 08:55:00.618526  6824 net.cpp:157] Top shape: 1 4096 (4096)
I0208 08:55:00.618530  6824 net.cpp:165] Memory required for data: 25591108
I0208 08:55:00.618535  6824 layer_factory.hpp:77] Creating layer drop6
I0208 08:55:00.618543  6824 net.cpp:106] Creating Layer drop6
I0208 08:55:00.618549  6824 net.cpp:454] drop6 <- fc6
I0208 08:55:00.618556  6824 net.cpp:397] drop6 -> fc6 (in-place)
I0208 08:55:00.618590  6824 net.cpp:150] Setting up drop6
I0208 08:55:00.618597  6824 net.cpp:157] Top shape: 1 4096 (4096)
I0208 08:55:00.618602  6824 net.cpp:165] Memory required for data: 25607492
I0208 08:55:00.618605  6824 layer_factory.hpp:77] Creating layer fc7
I0208 08:55:00.618613  6824 net.cpp:106] Creating Layer fc7
I0208 08:55:00.618618  6824 net.cpp:454] fc7 <- fc6
I0208 08:55:00.618626  6824 net.cpp:411] fc7 -> fc7
I0208 08:55:00.649101  6824 net.cpp:150] Setting up fc7
I0208 08:55:00.649132  6824 net.cpp:157] Top shape: 1 4096 (4096)
I0208 08:55:00.649135  6824 net.cpp:165] Memory required for data: 25623876
I0208 08:55:00.649147  6824 layer_factory.hpp:77] Creating layer relu7
I0208 08:55:00.649171  6824 net.cpp:106] Creating Layer relu7
I0208 08:55:00.649178  6824 net.cpp:454] relu7 <- fc7
I0208 08:55:00.649185  6824 net.cpp:397] relu7 -> fc7 (in-place)
I0208 08:55:00.649422  6824 net.cpp:150] Setting up relu7
I0208 08:55:00.649433  6824 net.cpp:157] Top shape: 1 4096 (4096)
I0208 08:55:00.649437  6824 net.cpp:165] Memory required for data: 25640260
I0208 08:55:00.649451  6824 layer_factory.hpp:77] Creating layer drop7
I0208 08:55:00.649459  6824 net.cpp:106] Creating Layer drop7
I0208 08:55:00.649464  6824 net.cpp:454] drop7 <- fc7
I0208 08:55:00.649480  6824 net.cpp:397] drop7 -> fc7 (in-place)
I0208 08:55:00.649513  6824 net.cpp:150] Setting up drop7
I0208 08:55:00.649520  6824 net.cpp:157] Top shape: 1 4096 (4096)
I0208 08:55:00.649533  6824 net.cpp:165] Memory required for data: 25656644
I0208 08:55:00.649536  6824 layer_factory.hpp:77] Creating layer fc7_drop7_0_split
I0208 08:55:00.649554  6824 net.cpp:106] Creating Layer fc7_drop7_0_split
I0208 08:55:00.649569  6824 net.cpp:454] fc7_drop7_0_split <- fc7
I0208 08:55:00.649585  6824 net.cpp:411] fc7_drop7_0_split -> fc7_drop7_0_split_0
I0208 08:55:00.649602  6824 net.cpp:411] fc7_drop7_0_split -> fc7_drop7_0_split_1
I0208 08:55:00.649653  6824 net.cpp:150] Setting up fc7_drop7_0_split
I0208 08:55:00.649660  6824 net.cpp:157] Top shape: 1 4096 (4096)
I0208 08:55:00.649675  6824 net.cpp:157] Top shape: 1 4096 (4096)
I0208 08:55:00.649679  6824 net.cpp:165] Memory required for data: 25689412
I0208 08:55:00.649684  6824 layer_factory.hpp:77] Creating layer cls_score
I0208 08:55:00.649693  6824 net.cpp:106] Creating Layer cls_score
I0208 08:55:00.649698  6824 net.cpp:454] cls_score <- fc7_drop7_0_split_0
I0208 08:55:00.649708  6824 net.cpp:411] cls_score -> cls_score
I0208 08:55:00.649802  6824 net.cpp:150] Setting up cls_score
I0208 08:55:00.649811  6824 net.cpp:157] Top shape: 1 2 (2)
I0208 08:55:00.649817  6824 net.cpp:165] Memory required for data: 25689420
I0208 08:55:00.649826  6824 layer_factory.hpp:77] Creating layer bbox_pred
I0208 08:55:00.649832  6824 net.cpp:106] Creating Layer bbox_pred
I0208 08:55:00.649837  6824 net.cpp:454] bbox_pred <- fc7_drop7_0_split_1
I0208 08:55:00.649844  6824 net.cpp:411] bbox_pred -> bbox_pred
I0208 08:55:00.650482  6824 net.cpp:150] Setting up bbox_pred
I0208 08:55:00.650494  6824 net.cpp:157] Top shape: 1 8 (8)
I0208 08:55:00.650498  6824 net.cpp:165] Memory required for data: 25689452
I0208 08:55:00.650506  6824 layer_factory.hpp:77] Creating layer cls_prob
I0208 08:55:00.650516  6824 net.cpp:106] Creating Layer cls_prob
I0208 08:55:00.650522  6824 net.cpp:454] cls_prob <- cls_score
I0208 08:55:00.650529  6824 net.cpp:411] cls_prob -> cls_prob
I0208 08:55:00.650954  6824 net.cpp:150] Setting up cls_prob
I0208 08:55:00.650966  6824 net.cpp:157] Top shape: 1 2 (2)
I0208 08:55:00.650970  6824 net.cpp:165] Memory required for data: 25689460
I0208 08:55:00.650975  6824 net.cpp:228] cls_prob does not need backward computation.
I0208 08:55:00.650980  6824 net.cpp:228] bbox_pred does not need backward computation.
I0208 08:55:00.650985  6824 net.cpp:228] cls_score does not need backward computation.
I0208 08:55:00.650990  6824 net.cpp:228] fc7_drop7_0_split does not need backward computation.
…
