…
stepsize: 50000
snapshot: 0
snapshot_prefix: "zf_faster_rcnn"
average_loss: 100
iter_size: 2
I0211 22:51:24.757897  5062 solver.cpp:81] Creating training net from train_net file: models/pascal_voc/ZF/faster_rcnn_end2end/train.prototxt
I0211 22:51:24.758363  5062 net.cpp:49] Initializing net from parameters: 
name: "ZF"
state {
  phase: TRAIN
}
layer {
  name: "input-data"
  type: "Python"
  top: "data"
  top: "im_info"
  top: "gt_boxes"
  python_param {
    module: "roi_data_layer.layer"
    layer: "RoIDataLayer"
    param_str: "\'num_classes\': 2"
  }
}
layer {
  name: "conv1"
  type: "Convolution"
  bottom: "data"
  top: "conv1"
  param {
    lr_mult: 1
  }
  param {
    lr_mult: 2
  }
  convolution_param {
    num_output: 96
    pad: 3
    kernel_size: 7
    stride: 2
  }
}
layer {
  name: "relu1"
  type: "ReLU"
  bottom: "conv1"
  top: "conv1"
}
layer {
  name: "norm1"
  type: "LRN"
  bottom: "conv1"
  top: "norm1"
  lrn_param {
    local_size: 3
    alpha: 5e-05
    beta: 0.75
    norm_region: WITHIN_CHANNEL
    engine: CAFFE
  }
}
layer {
  name: "pool1"
  type: "Pooling"
  bottom: "norm1"
  top: "pool1"
  pooling_param {
    pool: MAX
    kernel_size: 3
    stride: 2
    pad: 1
  }
}
layer {
  name: "conv2"
  type: "Convolution"
  bottom: "pool1"
  top: "conv2"
  param {
    lr_mult: 1
  }
  param {
    lr_mult: 2
  }
  convolution_param {
    num_output: 256
    pad: 2
    kernel_size: 5
    stride: 2
  }
}
layer {
  name: "relu2"
  type: "ReLU"
  bottom: "conv2"
  top: "conv2"
}
layer {
  name: "norm2"
  type: "LRN"
  bottom: "conv2"
  top: "norm2"
  lrn_param {
    local_size: 3
    alpha: 5e-05
    beta: 0.75
    norm_region: WITHIN_CHANNEL
    engine: CAFFE
  }
}
layer {
  name: "pool2"
  type: "Pooling"
  bottom: "norm2"
  top: "pool2"
  pooling_param {
    pool: MAX
    kernel_size: 3
    stride: 2
    pad: 1
  }
}
layer {
  name: "conv3"
  type: "Convolution"
  bottom: "pool2"
  top: "conv3"
  param {
    lr_mult: 1
  }
  param {
    lr_mult: 2
  }
  convolution_param {
    num_output: 384
    pad: 1
    kernel_size: 3
    stride: 1
  }
}
layer {
  name: "relu3"
  type: "ReLU"
  bottom: "conv3"
  top: "conv3"
}
layer {
  name: "conv4"
  type: "Convolution"
  bottom: "conv3"
  top: "conv4"
  param {
    lr_mult: 1
  }
  param {
    lr_mult: 2
  }
  convolution_param {
    num_output: 384
    pad: 1
    kernel_size: 3
    stride: 1
  }
}
layer {
  name: "relu4"
  type: "ReLU"
  bottom: "conv4"
  top: "conv4"
}
layer {
  name: "conv5"
  type: "Convolution"
  bottom: "conv4"
  top: "conv5"
  param {
    lr_mult: 1
  }
  param {
    lr_mult: 2
  }
  convolution_param {
    num_output: 256
    pad: 1
    kernel_size: 3
    stride: 1
  }
}
layer {
  name: "relu5"
  type: "ReLU"
  bottom: "conv5"
  top: "conv5"
}
layer {
  name: "concat"
  type: "Concat"
  bottom: "conv3"
  bottom: "conv4"
  bottom: "conv5"
  top: "concat"
  concat_param {
    axis: 1
  }
}
layer {
  name: "normconcat"
  type: "LRN"
  bottom: "concat"
  top: "concatfeature"
  lrn_param {
    local_size: 3
    alpha: 5e-05
    beta: 0.75
    norm_region: WITHIN_CHANNEL
    engine: CAFFE
  }
}
layer {
  name: "conv6"
  type: "Convolution"
  bottom: "concatfeature"
  top: "conv6"
  param {
    lr_mult: 1
  }
  param {
    lr_mult: 2
  }
  convolution_param {
    num_output: 256
    pad: 0
    kernel_size: 1
    stride: 1
    weight_filler {
      type: "xavier"
    }
    bias_filler {
      type: "constant"
    }
  }
}
layer {
  name: "reluconv"
  type: "ReLU"
  bottom: "conv6"
  top: "conv6"
}
layer {
  name: "rpn_conv/3x3"
  type: "Convolution"
  bottom: "conv6"
  top: "rpn/output"
  param {
    lr_mult: 1
  }
  param {
    lr_mult: 2
  }
  convolution_param {
    num_output: 256
    pad: 1
    kernel_size: 3
    stride: 1
    weight_filler {
      type: "gaussian"
      std: 0.01
    }
    bias_filler {
      type: "constant"
      value: 0
    }
  }
}
layer {
  name: "rpn_relu/3x3"
  type: "ReLU"
  bottom: "rpn/output"
  top: "rpn/output"
}
layer {
  name: "rpn_cls_score"
  type: "Convolution"
  bottom: "rpn/output"
  top: "rpn_cls_score"
  param {
    lr_mult: 1
  }
  param {
    lr_mult: 2
  }
  convolution_param {
    num_output: 12
    pad: 0
    kernel_size: 1
    stride: 1
    weight_filler {
      type: "gaussian"
      std: 0.01
    }
    bias_filler {
      type: "constant"
      value: 0
    }
  }
}
layer {
  name: "rpn_bbox_pred"
  type: "Convolution"
  bottom: "rpn/output"
  top: "rpn_bbox_pred"
  param {
    lr_mult: 1
  }
  param {
    lr_mult: 2
  }
  convolution_param {
    num_output: 24
    pad: 0
    kernel_size: 1
    stride: 1
    weight_filler {
      type: "gaussian"
      std: 0.01
    }
    bias_filler {
      type: "constant"
      value: 0
    }
  }
}
layer {
  name: "rpn_cls_score_reshape"
  type: "Reshape"
  bottom: "rpn_cls_score"
  top: "rpn_cls_score_reshape"
  reshape_param {
    shape {
      dim: 0
      dim: 2
      dim: -1
      dim: 0
    }
  }
}
layer {
  name: "rpn-data"
  type: "Python"
  bottom: "rpn_cls_score"
  bottom: "gt_boxes"
  bottom: "im_info"
  bottom: "data"
  top: "rpn_labels"
  top: "rpn_bbox_targets"
  top: "rpn_bbox_inside_weights"
  top: "rpn_bbox_outside_weights"
  python_param {
    module: "rpn.anchor_target_layer"
    layer: "AnchorTargetLayer"
    param_str: "\'feat_stride\': 16"
  }
}
layer {
  name: "rpn_loss_cls"
  type: "SoftmaxWithLoss"
  bottom: "rpn_cls_score_reshape"
  bottom: "rpn_labels"
  top: "rpn_cls_loss"
  loss_weight: 1
  propagate_down: true
  propagate_down: false
  loss_param {
    ignore_label: -1
    normalize: true
  }
}
layer {
  name: "rpn_loss_bbox"
  type: "SmoothL1Loss"
  bottom: "rpn_bbox_pred"
  bottom: "rpn_bbox_targets"
  bottom: "rpn_bbox_inside_weights"
  bottom: "rpn_bbox_outside_weights"
  top: "rpn_loss_bbox"
  loss_weight: 1
  smooth_l1_loss_param {
    sigma: 3
  }
}
layer {
  name: "rpn_cls_prob"
  type: "Softmax"
  bottom: "rpn_cls_score_reshape"
  top: "rpn_cls_prob"
}
layer {
  name: "rpn_cls_prob_reshape"
  type: "Reshape"
  bottom: "rpn_cls_prob"
  top: "rpn_cls_prob_reshape"
  reshape_param {
    shape {
      dim: 0
      dim: 12
      dim: -1
      dim: 0
    }
  }
}
layer {
  name: "proposal"
  type: "Python"
  bottom: "rpn_cls_prob_reshape"
  bottom: "rpn_bbox_pred"
  bottom: "im_info"
  top: "rpn_rois"
  python_param {
    module: "rpn.proposal_layer"
    layer: "ProposalLayer"
    param_str: "\'feat_stride\': 16"
  }
}
layer {
  name: "roi-data"
  type: "Python"
  bottom: "rpn_rois"
  bottom: "gt_boxes"
  top: "rois"
  top: "labels"
  top: "bbox_targets"
  top: "bbox_inside_weights"
  top: "bbox_outside_weights"
  python_param {
    module: "rpn.proposal_target_layer"
    layer: "ProposalTargetLayer"
    param_str: "\'num_classes\': 2"
  }
}
layer {
  name: "roi_pool_conv5"
  type: "ROIPooling"
  bottom: "conv6"
  bottom: "rois"
  top: "roi_pool_conv5"
  roi_pooling_param {
    pooled_h: 6
    pooled_w: 6
    spatial_scale: 0.0625
  }
}
layer {
  name: "fc6"
  type: "InnerProduct"
  bottom: "roi_pool_conv5"
  top: "fc6"
  param {
    lr_mult: 1
  }
  param {
    lr_mult: 2
  }
  inner_product_param {
    num_output: 4096
  }
}
layer {
  name: "relu6"
  type: "ReLU"
  bottom: "fc6"
  top: "fc6"
}
layer {
  name: "drop6"
  type: "Dropout"
  bottom: "fc6"
  top: "fc6"
  dropout_param {
    dropout_ratio: 0.5
    scale_train: false
  }
}
layer {
  name: "fc7"
  type: "InnerProduct"
  bottom: "fc6"
  top: "fc7"
  param {
    lr_mult: 1
  }
  param {
    lr_mult: 2
  }
  inner_product_param {
    num_output: 4096
  }
}
layer {
  name: "relu7"
  type: "ReLU"
  bottom: "fc7"
  top: "fc7"
}
layer {
  name: "drop7"
  type: "Dropout"
  bottom: "fc7"
  top: "fc7"
  dropout_param {
    dropout_ratio: 0.5
    scale_train: false
  }
}
layer {
  name: "cls_score"
  type: "InnerProduct"
  bottom: "fc7"
  top: "cls_score"
  param {
    lr_mult: 1
  }
  param {
    lr_mult: 2
  }
  inner_product_param {
    num_output: 2
    weight_filler {
      type: "gaussian"
      std: 0.01
    }
    bias_filler {
      type: "constant"
      value: 0
    }
  }
}
layer {
  name: "bbox_pred"
  type: "InnerProduct"
  bottom: "fc7"
  top: "bbox_pred"
  param {
    lr_mult: 1
  }
  param {
    lr_mult: 2
  }
  inner_product_param {
    num_output: 8
    weight_filler {
      type: "gaussian"
      std: 0.001
    }
    bias_filler {
      type: "constant"
      value: 0
    }
  }
}
layer {
  name: "loss_cls"
  type: "SoftmaxWithLoss"
  bottom: "cls_score"
  bottom: "labels"
  top: "cls_loss"
  loss_weight: 1
  propagate_down: true
  propagate_down: false
  loss_param {
    ignore_label: -1
    normalize: true
  }
}
layer {
  name: "loss_bbox"
  type: "SmoothL1Loss"
  bottom: "bbox_pred"
  bottom: "bbox_targets"
  bottom: "bbox_inside_weights"
  bottom: "bbox_outside_weights"
  top: "bbox_loss"
  loss_weight: 1
}
I0211 22:51:24.758591  5062 layer_factory.hpp:77] Creating layer input-data
I0211 22:51:24.810325  5062 net.cpp:106] Creating Layer input-data
I0211 22:51:24.810355  5062 net.cpp:411] input-data -> data
I0211 22:51:24.810366  5062 net.cpp:411] input-data -> im_info
I0211 22:51:24.810372  5062 net.cpp:411] input-data -> gt_boxes
RoiDataLayer: name_to_top: {'gt_boxes': 2, 'data': 0, 'im_info': 1}
I0211 22:51:24.825155  5062 net.cpp:150] Setting up input-data
I0211 22:51:24.825196  5062 net.cpp:157] Top shape: 1 3 300 500 (450000)
I0211 22:51:24.825201  5062 net.cpp:157] Top shape: 1 3 (3)
I0211 22:51:24.825206  5062 net.cpp:157] Top shape: 1 4 (4)
I0211 22:51:24.825208  5062 net.cpp:165] Memory required for data: 1800028
I0211 22:51:24.825215  5062 layer_factory.hpp:77] Creating layer data_input-data_0_split
I0211 22:51:24.825227  5062 net.cpp:106] Creating Layer data_input-data_0_split
I0211 22:51:24.825232  5062 net.cpp:454] data_input-data_0_split <- data
I0211 22:51:24.825243  5062 net.cpp:411] data_input-data_0_split -> data_input-data_0_split_0
I0211 22:51:24.825254  5062 net.cpp:411] data_input-data_0_split -> data_input-data_0_split_1
I0211 22:51:24.825284  5062 net.cpp:150] Setting up data_input-data_0_split
I0211 22:51:24.825289  5062 net.cpp:157] Top shape: 1 3 300 500 (450000)
I0211 22:51:24.825294  5062 net.cpp:157] Top shape: 1 3 300 500 (450000)
I0211 22:51:24.825295  5062 net.cpp:165] Memory required for data: 5400028
I0211 22:51:24.825299  5062 layer_factory.hpp:77] Creating layer im_info_input-data_1_split
I0211 22:51:24.825304  5062 net.cpp:106] Creating Layer im_info_input-data_1_split
I0211 22:51:24.825306  5062 net.cpp:454] im_info_input-data_1_split <- im_info
I0211 22:51:24.825314  5062 net.cpp:411] im_info_input-data_1_split -> im_info_input-data_1_split_0
I0211 22:51:24.825320  5062 net.cpp:411] im_info_input-data_1_split -> im_info_input-data_1_split_1
I0211 22:51:24.825341  5062 net.cpp:150] Setting up im_info_input-data_1_split
I0211 22:51:24.825346  5062 net.cpp:157] Top shape: 1 3 (3)
I0211 22:51:24.825350  5062 net.cpp:157] Top shape: 1 3 (3)
I0211 22:51:24.825351  5062 net.cpp:165] Memory required for data: 5400052
I0211 22:51:24.825353  5062 layer_factory.hpp:77] Creating layer gt_boxes_input-data_2_split
I0211 22:51:24.825359  5062 net.cpp:106] Creating Layer gt_boxes_input-data_2_split
I0211 22:51:24.825362  5062 net.cpp:454] gt_boxes_input-data_2_split <- gt_boxes
I0211 22:51:24.825366  5062 net.cpp:411] gt_boxes_input-data_2_split -> gt_boxes_input-data_2_split_0
I0211 22:51:24.825373  5062 net.cpp:411] gt_boxes_input-data_2_split -> gt_boxes_input-data_2_split_1
I0211 22:51:24.825397  5062 net.cpp:150] Setting up gt_boxes_input-data_2_split
I0211 22:51:24.825403  5062 net.cpp:157] Top shape: 1 4 (4)
I0211 22:51:24.825407  5062 net.cpp:157] Top shape: 1 4 (4)
I0211 22:51:24.825409  5062 net.cpp:165] Memory required for data: 5400084
I0211 22:51:24.825412  5062 layer_factory.hpp:77] Creating layer conv1
I0211 22:51:24.825423  5062 net.cpp:106] Creating Layer conv1
I0211 22:51:24.825428  5062 net.cpp:454] conv1 <- data_input-data_0_split_0
I0211 22:51:24.825434  5062 net.cpp:411] conv1 -> conv1
I0211 22:51:25.022370  5062 net.cpp:150] Setting up conv1
I0211 22:51:25.022400  5062 net.cpp:157] Top shape: 1 96 150 250 (3600000)
I0211 22:51:25.022404  5062 net.cpp:165] Memory required for data: 19800084
I0211 22:51:25.022426  5062 layer_factory.hpp:77] Creating layer relu1
I0211 22:51:25.022439  5062 net.cpp:106] Creating Layer relu1
I0211 22:51:25.022445  5062 net.cpp:454] relu1 <- conv1
I0211 22:51:25.022454  5062 net.cpp:397] relu1 -> conv1 (in-place)
I0211 22:51:25.022652  5062 net.cpp:150] Setting up relu1
I0211 22:51:25.022660  5062 net.cpp:157] Top shape: 1 96 150 250 (3600000)
I0211 22:51:25.022673  5062 net.cpp:165] Memory required for data: 34200084
I0211 22:51:25.022676  5062 layer_factory.hpp:77] Creating layer norm1
I0211 22:51:25.022692  5062 net.cpp:106] Creating Layer norm1
I0211 22:51:25.022697  5062 net.cpp:454] norm1 <- conv1
I0211 22:51:25.022702  5062 net.cpp:411] norm1 -> norm1
I0211 22:51:25.022804  5062 net.cpp:150] Setting up norm1
I0211 22:51:25.022810  5062 net.cpp:157] Top shape: 1 96 150 250 (3600000)
I0211 22:51:25.022822  5062 net.cpp:165] Memory required for data: 48600084
I0211 22:51:25.022825  5062 layer_factory.hpp:77] Creating layer pool1
I0211 22:51:25.022830  5062 net.cpp:106] Creating Layer pool1
I0211 22:51:25.022843  5062 net.cpp:454] pool1 <- norm1
I0211 22:51:25.022847  5062 net.cpp:411] pool1 -> pool1
I0211 22:51:25.022872  5062 net.cpp:150] Setting up pool1
I0211 22:51:25.022877  5062 net.cpp:157] Top shape: 1 96 76 126 (919296)
I0211 22:51:25.022881  5062 net.cpp:165] Memory required for data: 52277268
I0211 22:51:25.022883  5062 layer_factory.hpp:77] Creating layer conv2
I0211 22:51:25.022893  5062 net.cpp:106] Creating Layer conv2
I0211 22:51:25.022905  5062 net.cpp:454] conv2 <- pool1
I0211 22:51:25.022910  5062 net.cpp:411] conv2 -> conv2
I0211 22:51:25.025425  5062 net.cpp:150] Setting up conv2
I0211 22:51:25.025442  5062 net.cpp:157] Top shape: 1 256 38 63 (612864)
I0211 22:51:25.025445  5062 net.cpp:165] Memory required for data: 54728724
I0211 22:51:25.025465  5062 layer_factory.hpp:77] Creating layer relu2
I0211 22:51:25.025471  5062 net.cpp:106] Creating Layer relu2
I0211 22:51:25.025476  5062 net.cpp:454] relu2 <- conv2
I0211 22:51:25.025480  5062 net.cpp:397] relu2 -> conv2 (in-place)
I0211 22:51:25.025837  5062 net.cpp:150] Setting up relu2
I0211 22:51:25.025847  5062 net.cpp:157] Top shape: 1 256 38 63 (612864)
I0211 22:51:25.025851  5062 net.cpp:165] Memory required for data: 57180180
I0211 22:51:25.025863  5062 layer_factory.hpp:77] Creating layer norm2
I0211 22:51:25.025869  5062 net.cpp:106] Creating Layer norm2
I0211 22:51:25.025873  5062 net.cpp:454] norm2 <- conv2
I0211 22:51:25.025878  5062 net.cpp:411] norm2 -> norm2
I0211 22:51:25.025969  5062 net.cpp:150] Setting up norm2
I0211 22:51:25.025974  5062 net.cpp:157] Top shape: 1 256 38 63 (612864)
I0211 22:51:25.025976  5062 net.cpp:165] Memory required for data: 59631636
I0211 22:51:25.025979  5062 layer_factory.hpp:77] Creating layer pool2
I0211 22:51:25.025984  5062 net.cpp:106] Creating Layer pool2
I0211 22:51:25.025986  5062 net.cpp:454] pool2 <- norm2
I0211 22:51:25.025990  5062 net.cpp:411] pool2 -> pool2
I0211 22:51:25.026034  5062 net.cpp:150] Setting up pool2
I0211 22:51:25.026039  5062 net.cpp:157] Top shape: 1 256 20 32 (163840)
I0211 22:51:25.026053  5062 net.cpp:165] Memory required for data: 60286996
I0211 22:51:25.026057  5062 layer_factory.hpp:77] Creating layer conv3
I0211 22:51:25.026063  5062 net.cpp:106] Creating Layer conv3
I0211 22:51:25.026065  5062 net.cpp:454] conv3 <- pool2
I0211 22:51:25.026069  5062 net.cpp:411] conv3 -> conv3
I0211 22:51:25.028908  5062 net.cpp:150] Setting up conv3
I0211 22:51:25.028929  5062 net.cpp:157] Top shape: 1 384 20 32 (245760)
I0211 22:51:25.028934  5062 net.cpp:165] Memory required for data: 61270036
I0211 22:51:25.028944  5062 layer_factory.hpp:77] Creating layer relu3
I0211 22:51:25.028954  5062 net.cpp:106] Creating Layer relu3
I0211 22:51:25.028957  5062 net.cpp:454] relu3 <- conv3
I0211 22:51:25.028962  5062 net.cpp:397] relu3 -> conv3 (in-place)
I0211 22:51:25.029357  5062 net.cpp:150] Setting up relu3
I0211 22:51:25.029367  5062 net.cpp:157] Top shape: 1 384 20 32 (245760)
I0211 22:51:25.029369  5062 net.cpp:165] Memory required for data: 62253076
I0211 22:51:25.029372  5062 layer_factory.hpp:77] Creating layer conv3_relu3_0_split
I0211 22:51:25.029378  5062 net.cpp:106] Creating Layer conv3_relu3_0_split
I0211 22:51:25.029381  5062 net.cpp:454] conv3_relu3_0_split <- conv3
I0211 22:51:25.029397  5062 net.cpp:411] conv3_relu3_0_split -> conv3_relu3_0_split_0
I0211 22:51:25.029405  5062 net.cpp:411] conv3_relu3_0_split -> conv3_relu3_0_split_1
I0211 22:51:25.029448  5062 net.cpp:150] Setting up conv3_relu3_0_split
I0211 22:51:25.029453  5062 net.cpp:157] Top shape: 1 384 20 32 (245760)
I0211 22:51:25.029458  5062 net.cpp:157] Top shape: 1 384 20 32 (245760)
I0211 22:51:25.029469  5062 net.cpp:165] Memory required for data: 64219156
I0211 22:51:25.029472  5062 layer_factory.hpp:77] Creating layer conv4
I0211 22:51:25.029479  5062 net.cpp:106] Creating Layer conv4
I0211 22:51:25.029484  5062 net.cpp:454] conv4 <- conv3_relu3_0_split_0
I0211 22:51:25.029487  5062 net.cpp:411] conv4 -> conv4
I0211 22:51:25.032785  5062 net.cpp:150] Setting up conv4
I0211 22:51:25.032812  5062 net.cpp:157] Top shape: 1 384 20 32 (245760)
I0211 22:51:25.032816  5062 net.cpp:165] Memory required for data: 65202196
I0211 22:51:25.032824  5062 layer_factory.hpp:77] Creating layer relu4
I0211 22:51:25.032838  5062 net.cpp:106] Creating Layer relu4
I0211 22:51:25.032842  5062 net.cpp:454] relu4 <- conv4
I0211 22:51:25.032848  5062 net.cpp:397] relu4 -> conv4 (in-place)
I0211 22:51:25.033030  5062 net.cpp:150] Setting up relu4
I0211 22:51:25.033037  5062 net.cpp:157] Top shape: 1 384 20 32 (245760)
I0211 22:51:25.033041  5062 net.cpp:165] Memory required for data: 66185236
I0211 22:51:25.033043  5062 layer_factory.hpp:77] Creating layer conv4_relu4_0_split
I0211 22:51:25.033058  5062 net.cpp:106] Creating Layer conv4_relu4_0_split
I0211 22:51:25.033061  5062 net.cpp:454] conv4_relu4_0_split <- conv4
I0211 22:51:25.033066  5062 net.cpp:411] conv4_relu4_0_split -> conv4_relu4_0_split_0
I0211 22:51:25.033073  5062 net.cpp:411] conv4_relu4_0_split -> conv4_relu4_0_split_1
I0211 22:51:25.033121  5062 net.cpp:150] Setting up conv4_relu4_0_split
I0211 22:51:25.033128  5062 net.cpp:157] Top shape: 1 384 20 32 (245760)
I0211 22:51:25.033130  5062 net.cpp:157] Top shape: 1 384 20 32 (245760)
I0211 22:51:25.033133  5062 net.cpp:165] Memory required for data: 68151316
I0211 22:51:25.033145  5062 layer_factory.hpp:77] Creating layer conv5
I0211 22:51:25.033154  5062 net.cpp:106] Creating Layer conv5
I0211 22:51:25.033159  5062 net.cpp:454] conv5 <- conv4_relu4_0_split_0
I0211 22:51:25.033165  5062 net.cpp:411] conv5 -> conv5
I0211 22:51:25.036597  5062 net.cpp:150] Setting up conv5
I0211 22:51:25.036633  5062 net.cpp:157] Top shape: 1 256 20 32 (163840)
I0211 22:51:25.036636  5062 net.cpp:165] Memory required for data: 68806676
I0211 22:51:25.036656  5062 layer_factory.hpp:77] Creating layer relu5
I0211 22:51:25.036666  5062 net.cpp:106] Creating Layer relu5
I0211 22:51:25.036671  5062 net.cpp:454] relu5 <- conv5
I0211 22:51:25.036679  5062 net.cpp:397] relu5 -> conv5 (in-place)
I0211 22:51:25.037076  5062 net.cpp:150] Setting up relu5
I0211 22:51:25.037087  5062 net.cpp:157] Top shape: 1 256 20 32 (163840)
I0211 22:51:25.037089  5062 net.cpp:165] Memory required for data: 69462036
I0211 22:51:25.037092  5062 layer_factory.hpp:77] Creating layer concat
I0211 22:51:25.037099  5062 net.cpp:106] Creating Layer concat
I0211 22:51:25.037102  5062 net.cpp:454] concat <- conv3_relu3_0_split_1
I0211 22:51:25.037117  5062 net.cpp:454] concat <- conv4_relu4_0_split_1
I0211 22:51:25.037120  5062 net.cpp:454] concat <- conv5
I0211 22:51:25.037125  5062 net.cpp:411] concat -> concat
I0211 22:51:25.037155  5062 net.cpp:150] Setting up concat
I0211 22:51:25.037161  5062 net.cpp:157] Top shape: 1 1024 20 32 (655360)
I0211 22:51:25.037164  5062 net.cpp:165] Memory required for data: 72083476
I0211 22:51:25.037166  5062 layer_factory.hpp:77] Creating layer normconcat
I0211 22:51:25.037173  5062 net.cpp:106] Creating Layer normconcat
I0211 22:51:25.037176  5062 net.cpp:454] normconcat <- concat
I0211 22:51:25.037180  5062 net.cpp:411] normconcat -> concatfeature
I0211 22:51:25.037261  5062 net.cpp:150] Setting up normconcat
I0211 22:51:25.037266  5062 net.cpp:157] Top shape: 1 1024 20 32 (655360)
I0211 22:51:25.037269  5062 net.cpp:165] Memory required for data: 74704916
I0211 22:51:25.037271  5062 layer_factory.hpp:77] Creating layer conv6
I0211 22:51:25.037281  5062 net.cpp:106] Creating Layer conv6
I0211 22:51:25.037283  5062 net.cpp:454] conv6 <- concatfeature
I0211 22:51:25.037288  5062 net.cpp:411] conv6 -> conv6
I0211 22:51:25.040307  5062 net.cpp:150] Setting up conv6
I0211 22:51:25.040330  5062 net.cpp:157] Top shape: 1 256 20 32 (163840)
I0211 22:51:25.040333  5062 net.cpp:165] Memory required for data: 75360276
I0211 22:51:25.040339  5062 layer_factory.hpp:77] Creating layer reluconv
I0211 22:51:25.040344  5062 net.cpp:106] Creating Layer reluconv
I0211 22:51:25.040347  5062 net.cpp:454] reluconv <- conv6
I0211 22:51:25.040351  5062 net.cpp:397] reluconv -> conv6 (in-place)
I0211 22:51:25.042488  5062 net.cpp:150] Setting up reluconv
I0211 22:51:25.042510  5062 net.cpp:157] Top shape: 1 256 20 32 (163840)
I0211 22:51:25.042512  5062 net.cpp:165] Memory required for data: 76015636
I0211 22:51:25.042515  5062 layer_factory.hpp:77] Creating layer conv6_reluconv_0_split
I0211 22:51:25.042521  5062 net.cpp:106] Creating Layer conv6_reluconv_0_split
I0211 22:51:25.042524  5062 net.cpp:454] conv6_reluconv_0_split <- conv6
I0211 22:51:25.042528  5062 net.cpp:411] conv6_reluconv_0_split -> conv6_reluconv_0_split_0
I0211 22:51:25.042536  5062 net.cpp:411] conv6_reluconv_0_split -> conv6_reluconv_0_split_1
I0211 22:51:25.042580  5062 net.cpp:150] Setting up conv6_reluconv_0_split
I0211 22:51:25.042587  5062 net.cpp:157] Top shape: 1 256 20 32 (163840)
I0211 22:51:25.042590  5062 net.cpp:157] Top shape: 1 256 20 32 (163840)
I0211 22:51:25.042593  5062 net.cpp:165] Memory required for data: 77326356
I0211 22:51:25.042595  5062 layer_factory.hpp:77] Creating layer rpn_conv/3x3
I0211 22:51:25.042605  5062 net.cpp:106] Creating Layer rpn_conv/3x3
I0211 22:51:25.042609  5062 net.cpp:454] rpn_conv/3x3 <- conv6_reluconv_0_split_0
I0211 22:51:25.042614  5062 net.cpp:411] rpn_conv/3x3 -> rpn/output
I0211 22:51:25.049392  5062 net.cpp:150] Setting up rpn_conv/3x3
I0211 22:51:25.049413  5062 net.cpp:157] Top shape: 1 256 20 32 (163840)
I0211 22:51:25.049415  5062 net.cpp:165] Memory required for data: 77981716
I0211 22:51:25.049423  5062 layer_factory.hpp:77] Creating layer rpn_relu/3x3
I0211 22:51:25.049430  5062 net.cpp:106] Creating Layer rpn_relu/3x3
I0211 22:51:25.049435  5062 net.cpp:454] rpn_relu/3x3 <- rpn/output
I0211 22:51:25.049440  5062 net.cpp:397] rpn_relu/3x3 -> rpn/output (in-place)
I0211 22:51:25.049599  5062 net.cpp:150] Setting up rpn_relu/3x3
I0211 22:51:25.049633  5062 net.cpp:157] Top shape: 1 256 20 32 (163840)
I0211 22:51:25.049638  5062 net.cpp:165] Memory required for data: 78637076
I0211 22:51:25.049640  5062 layer_factory.hpp:77] Creating layer rpn/output_rpn_relu/3x3_0_split
I0211 22:51:25.049645  5062 net.cpp:106] Creating Layer rpn/output_rpn_relu/3x3_0_split
I0211 22:51:25.049649  5062 net.cpp:454] rpn/output_rpn_relu/3x3_0_split <- rpn/output
I0211 22:51:25.049654  5062 net.cpp:411] rpn/output_rpn_relu/3x3_0_split -> rpn/output_rpn_relu/3x3_0_split_0
I0211 22:51:25.049659  5062 net.cpp:411] rpn/output_rpn_relu/3x3_0_split -> rpn/output_rpn_relu/3x3_0_split_1
I0211 22:51:25.049711  5062 net.cpp:150] Setting up rpn/output_rpn_relu/3x3_0_split
I0211 22:51:25.049717  5062 net.cpp:157] Top shape: 1 256 20 32 (163840)
I0211 22:51:25.049731  5062 net.cpp:157] Top shape: 1 256 20 32 (163840)
I0211 22:51:25.049733  5062 net.cpp:165] Memory required for data: 79947796
I0211 22:51:25.049736  5062 layer_factory.hpp:77] Creating layer rpn_cls_score
I0211 22:51:25.049746  5062 net.cpp:106] Creating Layer rpn_cls_score
I0211 22:51:25.049748  5062 net.cpp:454] rpn_cls_score <- rpn/output_rpn_relu/3x3_0_split_0
I0211 22:51:25.049754  5062 net.cpp:411] rpn_cls_score -> rpn_cls_score
I0211 22:51:25.052558  5062 net.cpp:150] Setting up rpn_cls_score
I0211 22:51:25.052572  5062 net.cpp:157] Top shape: 1 12 20 32 (7680)
I0211 22:51:25.052574  5062 net.cpp:165] Memory required for data: 79978516
I0211 22:51:25.052580  5062 layer_factory.hpp:77] Creating layer rpn_cls_score_rpn_cls_score_0_split
I0211 22:51:25.052587  5062 net.cpp:106] Creating Layer rpn_cls_score_rpn_cls_score_0_split
I0211 22:51:25.052590  5062 net.cpp:454] rpn_cls_score_rpn_cls_score_0_split <- rpn_cls_score
I0211 22:51:25.052595  5062 net.cpp:411] rpn_cls_score_rpn_cls_score_0_split -> rpn_cls_score_rpn_cls_score_0_split_0
I0211 22:51:25.052603  5062 net.cpp:411] rpn_cls_score_rpn_cls_score_0_split -> rpn_cls_score_rpn_cls_score_0_split_1
I0211 22:51:25.052665  5062 net.cpp:150] Setting up rpn_cls_score_rpn_cls_score_0_split
I0211 22:51:25.052672  5062 net.cpp:157] Top shape: 1 12 20 32 (7680)
I0211 22:51:25.052687  5062 net.cpp:157] Top shape: 1 12 20 32 (7680)
I0211 22:51:25.052690  5062 net.cpp:165] Memory required for data: 80039956
I0211 22:51:25.052692  5062 layer_factory.hpp:77] Creating layer rpn_bbox_pred
I0211 22:51:25.052709  5062 net.cpp:106] Creating Layer rpn_bbox_pred
I0211 22:51:25.052712  5062 net.cpp:454] rpn_bbox_pred <- rpn/output_rpn_relu/3x3_0_split_1
I0211 22:51:25.052717  5062 net.cpp:411] rpn_bbox_pred -> rpn_bbox_pred
I0211 22:51:25.054052  5062 net.cpp:150] Setting up rpn_bbox_pred
I0211 22:51:25.054075  5062 net.cpp:157] Top shape: 1 24 20 32 (15360)
I0211 22:51:25.054078  5062 net.cpp:165] Memory required for data: 80101396
I0211 22:51:25.054090  5062 layer_factory.hpp:77] Creating layer rpn_bbox_pred_rpn_bbox_pred_0_split
I0211 22:51:25.054095  5062 net.cpp:106] Creating Layer rpn_bbox_pred_rpn_bbox_pred_0_split
I0211 22:51:25.054098  5062 net.cpp:454] rpn_bbox_pred_rpn_bbox_pred_0_split <- rpn_bbox_pred
I0211 22:51:25.054105  5062 net.cpp:411] rpn_bbox_pred_rpn_bbox_pred_0_split -> rpn_bbox_pred_rpn_bbox_pred_0_split_0
I0211 22:51:25.054116  5062 net.cpp:411] rpn_bbox_pred_rpn_bbox_pred_0_split -> rpn_bbox_pred_rpn_bbox_pred_0_split_1
I0211 22:51:25.054152  5062 net.cpp:150] Setting up rpn_bbox_pred_rpn_bbox_pred_0_split
I0211 22:51:25.054157  5062 net.cpp:157] Top shape: 1 24 20 32 (15360)
I0211 22:51:25.054160  5062 net.cpp:157] Top shape: 1 24 20 32 (15360)
I0211 22:51:25.054163  5062 net.cpp:165] Memory required for data: 80224276
I0211 22:51:25.054165  5062 layer_factory.hpp:77] Creating layer rpn_cls_score_reshape
I0211 22:51:25.054179  5062 net.cpp:106] Creating Layer rpn_cls_score_reshape
I0211 22:51:25.054183  5062 net.cpp:454] rpn_cls_score_reshape <- rpn_cls_score_rpn_cls_score_0_split_0
I0211 22:51:25.054188  5062 net.cpp:411] rpn_cls_score_reshape -> rpn_cls_score_reshape
I0211 22:51:25.054208  5062 net.cpp:150] Setting up rpn_cls_score_reshape
I0211 22:51:25.054214  5062 net.cpp:157] Top shape: 1 2 120 32 (7680)
I0211 22:51:25.054216  5062 net.cpp:165] Memory required for data: 80254996
I0211 22:51:25.054219  5062 layer_factory.hpp:77] Creating layer rpn_cls_score_reshape_rpn_cls_score_reshape_0_split
I0211 22:51:25.054224  5062 net.cpp:106] Creating Layer rpn_cls_score_reshape_rpn_cls_score_reshape_0_split
I0211 22:51:25.054227  5062 net.cpp:454] rpn_cls_score_reshape_rpn_cls_score_reshape_0_split <- rpn_cls_score_reshape
I0211 22:51:25.054231  5062 net.cpp:411] rpn_cls_score_reshape_rpn_cls_score_reshape_0_split -> rpn_cls_score_reshape_rpn_cls_score_reshape_0_split_0
I0211 22:51:25.054236  5062 net.cpp:411] rpn_cls_score_reshape_rpn_cls_score_reshape_0_split -> rpn_cls_score_reshape_rpn_cls_score_reshape_0_split_1
I0211 22:51:25.054267  5062 net.cpp:150] Setting up rpn_cls_score_reshape_rpn_cls_score_reshape_0_split
I0211 22:51:25.054272  5062 net.cpp:157] Top shape: 1 2 120 32 (7680)
I0211 22:51:25.054275  5062 net.cpp:157] Top shape: 1 2 120 32 (7680)
I0211 22:51:25.054278  5062 net.cpp:165] Memory required for data: 80316436
I0211 22:51:25.054280  5062 layer_factory.hpp:77] Creating layer rpn-data
I0211 22:51:25.056860  5062 net.cpp:106] Creating Layer rpn-data
I0211 22:51:25.056874  5062 net.cpp:454] rpn-data <- rpn_cls_score_rpn_cls_score_0_split_1
I0211 22:51:25.056880  5062 net.cpp:454] rpn-data <- gt_boxes_input-data_2_split_0
I0211 22:51:25.056884  5062 net.cpp:454] rpn-data <- im_info_input-data_1_split_0
I0211 22:51:25.056887  5062 net.cpp:454] rpn-data <- data_input-data_0_split_1
I0211 22:51:25.056892  5062 net.cpp:411] rpn-data -> rpn_labels
I0211 22:51:25.056898  5062 net.cpp:411] rpn-data -> rpn_bbox_targets
I0211 22:51:25.056905  5062 net.cpp:411] rpn-data -> rpn_bbox_inside_weights
I0211 22:51:25.056910  5062 net.cpp:411] rpn-data -> rpn_bbox_outside_weights
I0211 22:51:25.057575  5062 net.cpp:150] Setting up rpn-data
I0211 22:51:25.057586  5062 net.cpp:157] Top shape: 1 1 120 32 (3840)
I0211 22:51:25.057590  5062 net.cpp:157] Top shape: 1 24 20 32 (15360)
I0211 22:51:25.057593  5062 net.cpp:157] Top shape: 1 24 20 32 (15360)
I0211 22:51:25.057596  5062 net.cpp:157] Top shape: 1 24 20 32 (15360)
I0211 22:51:25.057600  5062 net.cpp:165] Memory required for data: 80516116
I0211 22:51:25.057602  5062 layer_factory.hpp:77] Creating layer rpn_loss_cls
I0211 22:51:25.057628  5062 net.cpp:106] Creating Layer rpn_loss_cls
I0211 22:51:25.057632  5062 net.cpp:454] rpn_loss_cls <- rpn_cls_score_reshape_rpn_cls_score_reshape_0_split_0
I0211 22:51:25.057636  5062 net.cpp:454] rpn_loss_cls <- rpn_labels
…
I0211 22:51:25.058279  5062 net.cpp:157] Top shape: (1)
I0211 22:51:25.058282  5062 net.cpp:160]     with loss weight 1
I0211 22:51:25.058285  5062 net.cpp:165] Memory required for data: 80516124
I0211 22:51:25.058288  5062 layer_factory.hpp:77] Creating layer rpn_cls_prob
I0211 22:51:25.058292  5062 net.cpp:106] Creating Layer rpn_cls_prob
I0211 22:51:25.058295  5062 net.cpp:454] rpn_cls_prob <- rpn_cls_score_reshape_rpn_cls_score_reshape_0_split_1
I0211 22:51:25.058300  5062 net.cpp:411] rpn_cls_prob -> rpn_cls_prob
I0211 22:51:25.058740  5062 net.cpp:150] Setting up rpn_cls_prob
I0211 22:51:25.058750  5062 net.cpp:157] Top shape: 1 2 120 32 (7680)
I0211 22:51:25.058753  5062 net.cpp:165] Memory required for data: 80546844
I0211 22:51:25.058756  5062 layer_factory.hpp:77] Creating layer rpn_cls_prob_reshape
I0211 22:51:25.058763  5062 net.cpp:106] Creating Layer rpn_cls_prob_reshape
I0211 22:51:25.058765  5062 net.cpp:454] rpn_cls_prob_reshape <- rpn_cls_prob
I0211 22:51:25.058770  5062 net.cpp:411] rpn_cls_prob_reshape -> rpn_cls_prob_reshape
I0211 22:51:25.058802  5062 net.cpp:150] Setting up rpn_cls_prob_reshape
I0211 22:51:25.058809  5062 net.cpp:157] Top shape: 1 12 20 32 (7680)
I0211 22:51:25.058810  5062 net.cpp:165] Memory required for data: 80577564
I0211 22:51:25.058814  5062 layer_factory.hpp:77] Creating layer proposal
I0211 22:51:25.060179  5062 net.cpp:106] Creating Layer proposal
I0211 22:51:25.060189  5062 net.cpp:454] proposal <- rpn_cls_prob_reshape
I0211 22:51:25.060194  5062 net.cpp:454] proposal <- rpn_bbox_pred_rpn_bbox_pred_0_split_1
I0211 22:51:25.060197  5062 net.cpp:454] proposal <- im_info_input-data_1_split_1
I0211 22:51:25.060202  5062 net.cpp:411] proposal -> rpn_rois
I0211 22:51:25.060798  5062 net.cpp:150] Setting up proposal
I0211 22:51:25.060809  5062 net.cpp:157] Top shape: 1 5 (5)
I0211 22:51:25.060812  5062 net.cpp:165] Memory required for data: 80577584
I0211 22:51:25.060816  5062 layer_factory.hpp:77] Creating layer roi-data
I0211 22:51:25.061790  5062 net.cpp:106] Creating Layer roi-data
I0211 22:51:25.061800  5062 net.cpp:454] roi-data <- rpn_rois
I0211 22:51:25.061805  5062 net.cpp:454] roi-data <- gt_boxes_input-data_2_split_1
I0211 22:51:25.061810  5062 net.cpp:411] roi-data -> rois
I0211 22:51:25.061816  5062 net.cpp:411] roi-data -> labels
I0211 22:51:25.061821  5062 net.cpp:411] roi-data -> bbox_targets
I0211 22:51:25.061826  5062 net.cpp:411] roi-data -> bbox_inside_weights
I0211 22:51:25.061831  5062 net.cpp:411] roi-data -> bbox_outside_weights
I0211 22:51:25.062160  5062 net.cpp:150] Setting up roi-data
I0211 22:51:25.062170  5062 net.cpp:157] Top shape: 1 5 (5)
I0211 22:51:25.062173  5062 net.cpp:157] Top shape: 1 1 (1)
I0211 22:51:25.062175  5062 net.cpp:157] Top shape: 1 8 (8)
I0211 22:51:25.062178  5062 net.cpp:157] Top shape: 1 8 (8)
I0211 22:51:25.062182  5062 net.cpp:157] Top shape: 1 8 (8)
I0211 22:51:25.062185  5062 net.cpp:165] Memory required for data: 80577704
I0211 22:51:25.062187  5062 layer_factory.hpp:77] Creating layer roi_pool_conv5
I0211 22:51:25.062193  5062 net.cpp:106] Creating Layer roi_pool_conv5
I0211 22:51:25.062196  5062 net.cpp:454] roi_pool_conv5 <- conv6_reluconv_0_split_1
I0211 22:51:25.062201  5062 net.cpp:454] roi_pool_conv5 <- rois
I0211 22:51:25.062216  5062 net.cpp:411] roi_pool_conv5 -> roi_pool_conv5
I0211 22:51:25.062224  5062 roi_pooling_layer.cpp:30] Spatial scale: 0.0625
I0211 22:51:25.062268  5062 net.cpp:150] Setting up roi_pool_conv5
I0211 22:51:25.062273  5062 net.cpp:157] Top shape: 1 256 6 6 (9216)
I0211 22:51:25.062274  5062 net.cpp:165] Memory required for data: 80614568
I0211 22:51:25.062288  5062 layer_factory.hpp:77] Creating layer fc6
I0211 22:51:25.062294  5062 net.cpp:106] Creating Layer fc6
I0211 22:51:25.062305  5062 net.cpp:454] fc6 <- roi_pool_conv5
I0211 22:51:25.062309  5062 net.cpp:411] fc6 -> fc6
I0211 22:51:25.138525  5062 net.cpp:150] Setting up fc6
I0211 22:51:25.138559  5062 net.cpp:157] Top shape: 1 4096 (4096)
I0211 22:51:25.138562  5062 net.cpp:165] Memory required for data: 80630952
I0211 22:51:25.138576  5062 layer_factory.hpp:77] Creating layer relu6
I0211 22:51:25.138586  5062 net.cpp:106] Creating Layer relu6
I0211 22:51:25.138590  5062 net.cpp:454] relu6 <- fc6
I0211 22:51:25.138597  5062 net.cpp:397] relu6 -> fc6 (in-place)
I0211 22:51:25.138862  5062 net.cpp:150] Setting up relu6
I0211 22:51:25.138870  5062 net.cpp:157] Top shape: 1 4096 (4096)
I0211 22:51:25.138872  5062 net.cpp:165] Memory required for data: 80647336
I0211 22:51:25.138875  5062 layer_factory.hpp:77] Creating layer drop6
I0211 22:51:25.138881  5062 net.cpp:106] Creating Layer drop6
I0211 22:51:25.138883  5062 net.cpp:454] drop6 <- fc6
I0211 22:51:25.138887  5062 net.cpp:397] drop6 -> fc6 (in-place)
I0211 22:51:25.138928  5062 net.cpp:150] Setting up drop6
I0211 22:51:25.138934  5062 net.cpp:157] Top shape: 1 4096 (4096)
I0211 22:51:25.138945  5062 net.cpp:165] Memory required for data: 80663720
I0211 22:51:25.138948  5062 layer_factory.hpp:77] Creating layer fc7
I0211 22:51:25.138963  5062 net.cpp:106] Creating Layer fc7
I0211 22:51:25.138967  5062 net.cpp:454] fc7 <- fc6
I0211 22:51:25.138972  5062 net.cpp:411] fc7 -> fc7
I0211 22:51:25.173009  5062 net.cpp:150] Setting up fc7
I0211 22:51:25.173064  5062 net.cpp:157] Top shape: 1 4096 (4096)
I0211 22:51:25.173069  5062 net.cpp:165] Memory required for data: 80680104
I0211 22:51:25.173084  5062 layer_factory.hpp:77] Creating layer relu7
I0211 22:51:25.173096  5062 net.cpp:106] Creating Layer relu7
I0211 22:51:25.173102  5062 net.cpp:454] relu7 <- fc7
I0211 22:51:25.173110  5062 net.cpp:397] relu7 -> fc7 (in-place)
I0211 22:51:25.174245  5062 net.cpp:150] Setting up relu7
I0211 22:51:25.174255  5062 net.cpp:157] Top shape: 1 4096 (4096)
I0211 22:51:25.174258  5062 net.cpp:165] Memory required for data: 80696488
I0211 22:51:25.174262  5062 layer_factory.hpp:77] Creating layer drop7
I0211 22:51:25.174268  5062 net.cpp:106] Creating Layer drop7
I0211 22:51:25.174270  5062 net.cpp:454] drop7 <- fc7
I0211 22:51:25.174276  5062 net.cpp:397] drop7 -> fc7 (in-place)
I0211 22:51:25.174304  5062 net.cpp:150] Setting up drop7
I0211 22:51:25.174311  5062 net.cpp:157] Top shape: 1 4096 (4096)
I0211 22:51:25.174314  5062 net.cpp:165] Memory required for data: 80712872
I0211 22:51:25.174316  5062 layer_factory.hpp:77] Creating layer fc7_drop7_0_split
I0211 22:51:25.174321  5062 net.cpp:106] Creating Layer fc7_drop7_0_split
I0211 22:51:25.174326  5062 net.cpp:454] fc7_drop7_0_split <- fc7
I0211 22:51:25.174334  5062 net.cpp:411] fc7_drop7_0_split -> fc7_drop7_0_split_0
I0211 22:51:25.174342  5062 net.cpp:411] fc7_drop7_0_split -> fc7_drop7_0_split_1
I0211 22:51:25.174387  5062 net.cpp:150] Setting up fc7_drop7_0_split
I0211 22:51:25.174392  5062 net.cpp:157] Top shape: 1 4096 (4096)
I0211 22:51:25.174396  5062 net.cpp:157] Top shape: 1 4096 (4096)
I0211 22:51:25.174398  5062 net.cpp:165] Memory required for data: 80745640
I0211 22:51:25.174401  5062 layer_factory.hpp:77] Creating layer cls_score
I0211 22:51:25.174408  5062 net.cpp:106] Creating Layer cls_score
I0211 22:51:25.174412  5062 net.cpp:454] cls_score <- fc7_drop7_0_split_0
I0211 22:51:25.174417  5062 net.cpp:411] cls_score -> cls_score
I0211 22:51:25.174579  5062 net.cpp:150] Setting up cls_score
I0211 22:51:25.174585  5062 net.cpp:157] Top shape: 1 2 (2)
I0211 22:51:25.174587  5062 net.cpp:165] Memory required for data: 80745648
I0211 22:51:25.174592  5062 layer_factory.hpp:77] Creating layer bbox_pred
I0211 22:51:25.174598  5062 net.cpp:106] Creating Layer bbox_pred
I0211 22:51:25.174602  5062 net.cpp:454] bbox_pred <- fc7_drop7_0_split_1
I0211 22:51:25.174605  5062 net.cpp:411] bbox_pred -> bbox_pred
I0211 22:51:25.174985  5062 net.cpp:150] Setting up bbox_pred
I0211 22:51:25.174993  5062 net.cpp:157] Top shape: 1 8 (8)
I0211 22:51:25.174994  5062 net.cpp:165] Memory required for data: 80745680
I0211 22:51:25.174999  5062 layer_factory.hpp:77] Creating layer loss_cls
I0211 22:51:25.175016  5062 net.cpp:106] Creating Layer loss_cls
I0211 22:51:25.175019  5062 net.cpp:454] loss_cls <- cls_score
I0211 22:51:25.175024  5062 net.cpp:454] loss_cls <- labels
I0211 22:51:25.175032  5062 net.cpp:411] loss_cls -> cls_loss
…
           'RPN_POST_NMS_TOP_N': 2000,
           'RPN_PRE_NMS_TOP_N': 12000,
           'SCALES': [300],
           'SNAPSHOT_INFIX': '',
           'SNAPSHOT_ITERS': 5000,
           'USE_FLIPPED': True,
           'USE_PREFETCH': False},
 'USE_GPU_NMS': True}
WARNING: Logging before InitGoogleLogging() is written to STDERR
I0212 07:53:54.050303  8790 net.cpp:49] Initializing net from parameters: 
name: "ZF"
input: "data"
input: "im_info"
state {
  phase: TEST
}
input_shape {
  dim: 1
  dim: 3
  dim: 224
  dim: 224
}
input_shape {
  dim: 1
  dim: 3
}
layer {
  name: "conv1"
  type: "Convolution"
  bottom: "data"
  top: "conv1"
  convolution_param {
    num_output: 96
    pad: 3
    kernel_size: 7
    stride: 2
  }
}
layer {
  name: "relu1"
  type: "ReLU"
  bottom: "conv1"
  top: "conv1"
}
layer {
  name: "norm1"
  type: "LRN"
  bottom: "conv1"
  top: "norm1"
  lrn_param {
    local_size: 3
    alpha: 5e-05
    beta: 0.75
    norm_region: WITHIN_CHANNEL
    engine: CAFFE
  }
}
layer {
  name: "pool1"
  type: "Pooling"
  bottom: "norm1"
  top: "pool1"
  pooling_param {
    pool: MAX
    kernel_size: 3
    stride: 2
    pad: 1
  }
}
layer {
  name: "conv2"
  type: "Convolution"
  bottom: "pool1"
  top: "conv2"
  convolution_param {
    num_output: 256
    pad: 2
    kernel_size: 5
    stride: 2
  }
}
layer {
  name: "relu2"
  type: "ReLU"
  bottom: "conv2"
  top: "conv2"
}
layer {
  name: "norm2"
  type: "LRN"
  bottom: "conv2"
  top: "norm2"
  lrn_param {
    local_size: 3
    alpha: 5e-05
    beta: 0.75
    norm_region: WITHIN_CHANNEL
    engine: CAFFE
  }
}
layer {
  name: "pool2"
  type: "Pooling"
  bottom: "norm2"
  top: "pool2"
  pooling_param {
    pool: MAX
    kernel_size: 3
    stride: 2
    pad: 1
  }
}
layer {
  name: "conv3"
  type: "Convolution"
  bottom: "pool2"
  top: "conv3"
  convolution_param {
    num_output: 384
    pad: 1
    kernel_size: 3
    stride: 1
  }
}
layer {
  name: "relu3"
  type: "ReLU"
  bottom: "conv3"
  top: "conv3"
}
layer {
  name: "conv4"
  type: "Convolution"
  bottom: "conv3"
  top: "conv4"
  convolution_param {
    num_output: 384
    pad: 1
    kernel_size: 3
    stride: 1
  }
}
layer {
  name: "relu4"
  type: "ReLU"
  bottom: "conv4"
  top: "conv4"
}
layer {
  name: "conv5"
  type: "Convolution"
  bottom: "conv4"
  top: "conv5"
  convolution_param {
    num_output: 256
    pad: 1
    kernel_size: 3
    stride: 1
  }
}
layer {
  name: "relu5"
  type: "ReLU"
  bottom: "conv5"
  top: "conv5"
}
layer {
  name: "concat"
  type: "Concat"
  bottom: "conv3"
  bottom: "conv4"
  bottom: "conv5"
  top: "concat"
  concat_param {
    axis: 1
  }
}
layer {
  name: "normconcat"
  type: "LRN"
  bottom: "concat"
  top: "concatfeature"
  lrn_param {
    local_size: 3
    alpha: 5e-05
    beta: 0.75
    norm_region: WITHIN_CHANNEL
    engine: CAFFE
  }
}
layer {
  name: "conv6"
  type: "Convolution"
  bottom: "concatfeature"
  top: "conv6"
  param {
    lr_mult: 1
  }
  param {
    lr_mult: 2
  }
  convolution_param {
    num_output: 256
    pad: 0
    kernel_size: 1
    stride: 1
    weight_filler {
      type: "xavier"
    }
    bias_filler {
      type: "constant"
    }
  }
}
layer {
  name: "reluconv"
  type: "ReLU"
  bottom: "conv6"
  top: "conv6"
}
layer {
  name: "rpn_conv/3x3"
  type: "Convolution"
  bottom: "conv6"
  top: "rpn/output"
  convolution_param {
    num_output: 256
    pad: 1
    kernel_size: 3
    stride: 1
    weight_filler {
      type: "gaussian"
      std: 0.01
    }
    bias_filler {
      type: "constant"
      value: 0
    }
  }
}
layer {
  name: "rpn_relu/3x3"
  type: "ReLU"
  bottom: "rpn/output"
  top: "rpn/output"
}
layer {
  name: "rpn_cls_score"
  type: "Convolution"
  bottom: "rpn/output"
  top: "rpn_cls_score"
  convolution_param {
    num_output: 12
    pad: 0
    kernel_size: 1
    stride: 1
    weight_filler {
      type: "gaussian"
      std: 0.01
    }
    bias_filler {
      type: "constant"
      value: 0
    }
  }
}
layer {
  name: "rpn_bbox_pred"
  type: "Convolution"
  bottom: "rpn/output"
  top: "rpn_bbox_pred"
  convolution_param {
    num_output: 24
    pad: 0
    kernel_size: 1
    stride: 1
    weight_filler {
      type: "gaussian"
      std: 0.01
    }
    bias_filler {
      type: "constant"
      value: 0
    }
  }
}
layer {
  name: "rpn_cls_score_reshape"
  type: "Reshape"
  bottom: "rpn_cls_score"
  top: "rpn_cls_score_reshape"
  reshape_param {
    shape {
      dim: 0
      dim: 2
      dim: -1
      dim: 0
    }
  }
}
layer {
  name: "rpn_cls_prob"
  type: "Softmax"
  bottom: "rpn_cls_score_reshape"
  top: "rpn_cls_prob"
}
layer {
  name: "rpn_cls_prob_reshape"
  type: "Reshape"
  bottom: "rpn_cls_prob"
  top: "rpn_cls_prob_reshape"
  reshape_param {
    shape {
      dim: 0
      dim: 12
      dim: -1
      dim: 0
    }
  }
}
layer {
  name: "proposal"
  type: "Python"
  bottom: "rpn_cls_prob_reshape"
  bottom: "rpn_bbox_pred"
  bottom: "im_info"
  top: "rois"
  python_param {
    module: "rpn.proposal_layer"
    layer: "ProposalLayer"
    param_str: "\'feat_stride\': 16"
  }
}
layer {
  name: "roi_pool_conv5"
  type: "ROIPooling"
  bottom: "conv6"
  bottom: "rois"
  top: "roi_pool_conv5"
  roi_pooling_param {
    pooled_h: 6
    pooled_w: 6
    spatial_scale: 0.0625
  }
}
layer {
  name: "fc6"
  type: "InnerProduct"
  bottom: "roi_pool_conv5"
  top: "fc6"
  inner_product_param {
    num_output: 4096
  }
}
layer {
  name: "relu6"
  type: "ReLU"
  bottom: "fc6"
  top: "fc6"
}
layer {
  name: "drop6"
  type: "Dropout"
  bottom: "fc6"
  top: "fc6"
  dropout_param {
    dropout_ratio: 0.5
    scale_train: false
  }
}
layer {
  name: "fc7"
  type: "InnerProduct"
  bottom: "fc6"
  top: "fc7"
  inner_product_param {
    num_output: 4096
  }
}
layer {
  name: "relu7"
  type: "ReLU"
  bottom: "fc7"
  top: "fc7"
}
layer {
  name: "drop7"
  type: "Dropout"
  bottom: "fc7"
  top: "fc7"
  dropout_param {
    dropout_ratio: 0.5
    scale_train: false
  }
}
layer {
  name: "cls_score"
  type: "InnerProduct"
  bottom: "fc7"
  top: "cls_score"
  inner_product_param {
    num_output: 2
  }
}
layer {
  name: "bbox_pred"
  type: "InnerProduct"
  bottom: "fc7"
  top: "bbox_pred"
  inner_product_param {
    num_output: 8
  }
}
layer {
  name: "cls_prob"
  type: "Softmax"
  bottom: "cls_score"
  top: "cls_prob"
  loss_param {
    ignore_label: -1
    normalize: true
  }
}
I0212 07:53:54.050608  8790 net.cpp:413] Input 0 -> data
I0212 07:53:54.085073  8790 net.cpp:413] Input 1 -> im_info
I0212 07:53:54.085155  8790 layer_factory.hpp:77] Creating layer conv1
I0212 07:53:54.085180  8790 net.cpp:106] Creating Layer conv1
I0212 07:53:54.085189  8790 net.cpp:454] conv1 <- data
I0212 07:53:54.085201  8790 net.cpp:411] conv1 -> conv1
I0212 07:53:54.482997  8790 net.cpp:150] Setting up conv1
I0212 07:53:54.483043  8790 net.cpp:157] Top shape: 1 96 112 112 (1204224)
I0212 07:53:54.483052  8790 net.cpp:165] Memory required for data: 4816896
I0212 07:53:54.483077  8790 layer_factory.hpp:77] Creating layer relu1
I0212 07:53:54.483094  8790 net.cpp:106] Creating Layer relu1
I0212 07:53:54.483101  8790 net.cpp:454] relu1 <- conv1
I0212 07:53:54.483114  8790 net.cpp:397] relu1 -> conv1 (in-place)
I0212 07:53:54.483476  8790 net.cpp:150] Setting up relu1
I0212 07:53:54.483496  8790 net.cpp:157] Top shape: 1 96 112 112 (1204224)
I0212 07:53:54.483502  8790 net.cpp:165] Memory required for data: 9633792
I0212 07:53:54.483508  8790 layer_factory.hpp:77] Creating layer norm1
I0212 07:53:54.483523  8790 net.cpp:106] Creating Layer norm1
I0212 07:53:54.483530  8790 net.cpp:454] norm1 <- conv1
I0212 07:53:54.483541  8790 net.cpp:411] norm1 -> norm1
I0212 07:53:54.483736  8790 net.cpp:150] Setting up norm1
I0212 07:53:54.483752  8790 net.cpp:157] Top shape: 1 96 112 112 (1204224)
I0212 07:53:54.483757  8790 net.cpp:165] Memory required for data: 14450688
I0212 07:53:54.483762  8790 layer_factory.hpp:77] Creating layer pool1
I0212 07:53:54.483772  8790 net.cpp:106] Creating Layer pool1
I0212 07:53:54.483777  8790 net.cpp:454] pool1 <- norm1
I0212 07:53:54.483788  8790 net.cpp:411] pool1 -> pool1
I0212 07:53:54.483855  8790 net.cpp:150] Setting up pool1
I0212 07:53:54.483865  8790 net.cpp:157] Top shape: 1 96 57 57 (311904)
I0212 07:53:54.483870  8790 net.cpp:165] Memory required for data: 15698304
I0212 07:53:54.483875  8790 layer_factory.hpp:77] Creating layer conv2
I0212 07:53:54.483892  8790 net.cpp:106] Creating Layer conv2
I0212 07:53:54.483898  8790 net.cpp:454] conv2 <- pool1
I0212 07:53:54.483907  8790 net.cpp:411] conv2 -> conv2
I0212 07:53:54.488893  8790 net.cpp:150] Setting up conv2
I0212 07:53:54.488924  8790 net.cpp:157] Top shape: 1 256 29 29 (215296)
I0212 07:53:54.488930  8790 net.cpp:165] Memory required for data: 16559488
I0212 07:53:54.488950  8790 layer_factory.hpp:77] Creating layer relu2
I0212 07:53:54.488962  8790 net.cpp:106] Creating Layer relu2
I0212 07:53:54.488970  8790 net.cpp:454] relu2 <- conv2
I0212 07:53:54.488982  8790 net.cpp:397] relu2 -> conv2 (in-place)
I0212 07:53:54.489665  8790 net.cpp:150] Setting up relu2
I0212 07:53:54.489689  8790 net.cpp:157] Top shape: 1 256 29 29 (215296)
I0212 07:53:54.489694  8790 net.cpp:165] Memory required for data: 17420672
I0212 07:53:54.489701  8790 layer_factory.hpp:77] Creating layer norm2
I0212 07:53:54.489713  8790 net.cpp:106] Creating Layer norm2
I0212 07:53:54.489720  8790 net.cpp:454] norm2 <- conv2
I0212 07:53:54.489732  8790 net.cpp:411] norm2 -> norm2
I0212 07:53:54.489923  8790 net.cpp:150] Setting up norm2
I0212 07:53:54.489938  8790 net.cpp:157] Top shape: 1 256 29 29 (215296)
I0212 07:53:54.489943  8790 net.cpp:165] Memory required for data: 18281856
I0212 07:53:54.489948  8790 layer_factory.hpp:77] Creating layer pool2
I0212 07:53:54.489958  8790 net.cpp:106] Creating Layer pool2
I0212 07:53:54.489964  8790 net.cpp:454] pool2 <- norm2
I0212 07:53:54.489974  8790 net.cpp:411] pool2 -> pool2
I0212 07:53:54.490036  8790 net.cpp:150] Setting up pool2
I0212 07:53:54.490047  8790 net.cpp:157] Top shape: 1 256 15 15 (57600)
I0212 07:53:54.490052  8790 net.cpp:165] Memory required for data: 18512256
I0212 07:53:54.490058  8790 layer_factory.hpp:77] Creating layer conv3
I0212 07:53:54.490075  8790 net.cpp:106] Creating Layer conv3
I0212 07:53:54.490082  8790 net.cpp:454] conv3 <- pool2
I0212 07:53:54.490089  8790 net.cpp:411] conv3 -> conv3
I0212 07:53:54.495080  8790 net.cpp:150] Setting up conv3
I0212 07:53:54.495121  8790 net.cpp:157] Top shape: 1 384 15 15 (86400)
I0212 07:53:54.495128  8790 net.cpp:165] Memory required for data: 18857856
I0212 07:53:54.495149  8790 layer_factory.hpp:77] Creating layer relu3
I0212 07:53:54.495163  8790 net.cpp:106] Creating Layer relu3
I0212 07:53:54.495170  8790 net.cpp:454] relu3 <- conv3
I0212 07:53:54.495183  8790 net.cpp:397] relu3 -> conv3 (in-place)
I0212 07:53:54.495834  8790 net.cpp:150] Setting up relu3
I0212 07:53:54.495857  8790 net.cpp:157] Top shape: 1 384 15 15 (86400)
I0212 07:53:54.495863  8790 net.cpp:165] Memory required for data: 19203456
I0212 07:53:54.495870  8790 layer_factory.hpp:77] Creating layer conv3_relu3_0_split
I0212 07:53:54.495887  8790 net.cpp:106] Creating Layer conv3_relu3_0_split
I0212 07:53:54.495893  8790 net.cpp:454] conv3_relu3_0_split <- conv3
I0212 07:53:54.495903  8790 net.cpp:411] conv3_relu3_0_split -> conv3_relu3_0_split_0
I0212 07:53:54.495915  8790 net.cpp:411] conv3_relu3_0_split -> conv3_relu3_0_split_1
I0212 07:53:54.495996  8790 net.cpp:150] Setting up conv3_relu3_0_split
I0212 07:53:54.496008  8790 net.cpp:157] Top shape: 1 384 15 15 (86400)
I0212 07:53:54.496016  8790 net.cpp:157] Top shape: 1 384 15 15 (86400)
I0212 07:53:54.496021  8790 net.cpp:165] Memory required for data: 19894656
I0212 07:53:54.496026  8790 layer_factory.hpp:77] Creating layer conv4
I0212 07:53:54.496042  8790 net.cpp:106] Creating Layer conv4
I0212 07:53:54.496048  8790 net.cpp:454] conv4 <- conv3_relu3_0_split_0
I0212 07:53:54.496062  8790 net.cpp:411] conv4 -> conv4
I0212 07:53:54.503043  8790 net.cpp:150] Setting up conv4
I0212 07:53:54.503087  8790 net.cpp:157] Top shape: 1 384 15 15 (86400)
I0212 07:53:54.503094  8790 net.cpp:165] Memory required for data: 20240256
I0212 07:53:54.503110  8790 layer_factory.hpp:77] Creating layer relu4
I0212 07:53:54.503125  8790 net.cpp:106] Creating Layer relu4
I0212 07:53:54.503132  8790 net.cpp:454] relu4 <- conv4
I0212 07:53:54.503147  8790 net.cpp:397] relu4 -> conv4 (in-place)
I0212 07:53:54.503511  8790 net.cpp:150] Setting up relu4
I0212 07:53:54.503531  8790 net.cpp:157] Top shape: 1 384 15 15 (86400)
I0212 07:53:54.503537  8790 net.cpp:165] Memory required for data: 20585856
I0212 07:53:54.503543  8790 layer_factory.hpp:77] Creating layer conv4_relu4_0_split
I0212 07:53:54.503554  8790 net.cpp:106] Creating Layer conv4_relu4_0_split
I0212 07:53:54.503561  8790 net.cpp:454] conv4_relu4_0_split <- conv4
I0212 07:53:54.503572  8790 net.cpp:411] conv4_relu4_0_split -> conv4_relu4_0_split_0
I0212 07:53:54.503585  8790 net.cpp:411] conv4_relu4_0_split -> conv4_relu4_0_split_1
I0212 07:53:54.503666  8790 net.cpp:150] Setting up conv4_relu4_0_split
I0212 07:53:54.503679  8790 net.cpp:157] Top shape: 1 384 15 15 (86400)
I0212 07:53:54.503686  8790 net.cpp:157] Top shape: 1 384 15 15 (86400)
I0212 07:53:54.503691  8790 net.cpp:165] Memory required for data: 21277056
I0212 07:53:54.503696  8790 layer_factory.hpp:77] Creating layer conv5
I0212 07:53:54.503711  8790 net.cpp:106] Creating Layer conv5
I0212 07:53:54.503717  8790 net.cpp:454] conv5 <- conv4_relu4_0_split_0
I0212 07:53:54.503726  8790 net.cpp:411] conv5 -> conv5
I0212 07:53:54.509090  8790 net.cpp:150] Setting up conv5
I0212 07:53:54.509124  8790 net.cpp:157] Top shape: 1 256 15 15 (57600)
I0212 07:53:54.509130  8790 net.cpp:165] Memory required for data: 21507456
I0212 07:53:54.509153  8790 layer_factory.hpp:77] Creating layer relu5
I0212 07:53:54.509166  8790 net.cpp:106] Creating Layer relu5
I0212 07:53:54.509173  8790 net.cpp:454] relu5 <- conv5
I0212 07:53:54.509183  8790 net.cpp:397] relu5 -> conv5 (in-place)
I0212 07:53:54.509884  8790 net.cpp:150] Setting up relu5
I0212 07:53:54.509909  8790 net.cpp:157] Top shape: 1 256 15 15 (57600)
I0212 07:53:54.509917  8790 net.cpp:165] Memory required for data: 21737856
I0212 07:53:54.509922  8790 layer_factory.hpp:77] Creating layer concat
I0212 07:53:54.509943  8790 net.cpp:106] Creating Layer concat
I0212 07:53:54.509951  8790 net.cpp:454] concat <- conv3_relu3_0_split_1
I0212 07:53:54.509959  8790 net.cpp:454] concat <- conv4_relu4_0_split_1
I0212 07:53:54.509966  8790 net.cpp:454] concat <- conv5
I0212 07:53:54.509975  8790 net.cpp:411] concat -> concat
I0212 07:53:54.510036  8790 net.cpp:150] Setting up concat
I0212 07:53:54.510048  8790 net.cpp:157] Top shape: 1 1024 15 15 (230400)
I0212 07:53:54.510053  8790 net.cpp:165] Memory required for data: 22659456
I0212 07:53:54.510058  8790 layer_factory.hpp:77] Creating layer normconcat
I0212 07:53:54.510072  8790 net.cpp:106] Creating Layer normconcat
I0212 07:53:54.510078  8790 net.cpp:454] normconcat <- concat
I0212 07:53:54.510087  8790 net.cpp:411] normconcat -> concatfeature
I0212 07:53:54.510278  8790 net.cpp:150] Setting up normconcat
I0212 07:53:54.510293  8790 net.cpp:157] Top shape: 1 1024 15 15 (230400)
I0212 07:53:54.510298  8790 net.cpp:165] Memory required for data: 23581056
I0212 07:53:54.510303  8790 layer_factory.hpp:77] Creating layer conv6
I0212 07:53:54.510323  8790 net.cpp:106] Creating Layer conv6
I0212 07:53:54.510329  8790 net.cpp:454] conv6 <- concatfeature
I0212 07:53:54.510339  8790 net.cpp:411] conv6 -> conv6
I0212 07:53:54.517199  8790 net.cpp:150] Setting up conv6
I0212 07:53:54.517233  8790 net.cpp:157] Top shape: 1 256 15 15 (57600)
I0212 07:53:54.517241  8790 net.cpp:165] Memory required for data: 23811456
I0212 07:53:54.517254  8790 layer_factory.hpp:77] Creating layer reluconv
I0212 07:53:54.517269  8790 net.cpp:106] Creating Layer reluconv
I0212 07:53:54.517277  8790 net.cpp:454] reluconv <- conv6
I0212 07:53:54.517285  8790 net.cpp:397] reluconv -> conv6 (in-place)
I0212 07:53:54.517979  8790 net.cpp:150] Setting up reluconv
I0212 07:53:54.518003  8790 net.cpp:157] Top shape: 1 256 15 15 (57600)
I0212 07:53:54.518009  8790 net.cpp:165] Memory required for data: 24041856
I0212 07:53:54.518016  8790 layer_factory.hpp:77] Creating layer conv6_reluconv_0_split
I0212 07:53:54.518029  8790 net.cpp:106] Creating Layer conv6_reluconv_0_split
I0212 07:53:54.518035  8790 net.cpp:454] conv6_reluconv_0_split <- conv6
I0212 07:53:54.518049  8790 net.cpp:411] conv6_reluconv_0_split -> conv6_reluconv_0_split_0
I0212 07:53:54.518061  8790 net.cpp:411] conv6_reluconv_0_split -> conv6_reluconv_0_split_1
I0212 07:53:54.518144  8790 net.cpp:150] Setting up conv6_reluconv_0_split
I0212 07:53:54.518157  8790 net.cpp:157] Top shape: 1 256 15 15 (57600)
I0212 07:53:54.518164  8790 net.cpp:157] Top shape: 1 256 15 15 (57600)
I0212 07:53:54.518169  8790 net.cpp:165] Memory required for data: 24502656
I0212 07:53:54.518174  8790 layer_factory.hpp:77] Creating layer rpn_conv/3x3
I0212 07:53:54.518193  8790 net.cpp:106] Creating Layer rpn_conv/3x3
I0212 07:53:54.518201  8790 net.cpp:454] rpn_conv/3x3 <- conv6_reluconv_0_split_0
I0212 07:53:54.518214  8790 net.cpp:411] rpn_conv/3x3 -> rpn/output
I0212 07:53:54.533674  8790 net.cpp:150] Setting up rpn_conv/3x3
I0212 07:53:54.533702  8790 net.cpp:157] Top shape: 1 256 15 15 (57600)
I0212 07:53:54.533710  8790 net.cpp:165] Memory required for data: 24733056
I0212 07:53:54.533722  8790 layer_factory.hpp:77] Creating layer rpn_relu/3x3
I0212 07:53:54.533733  8790 net.cpp:106] Creating Layer rpn_relu/3x3
I0212 07:53:54.533740  8790 net.cpp:454] rpn_relu/3x3 <- rpn/output
I0212 07:53:54.533752  8790 net.cpp:397] rpn_relu/3x3 -> rpn/output (in-place)
I0212 07:53:54.534099  8790 net.cpp:150] Setting up rpn_relu/3x3
I0212 07:53:54.534117  8790 net.cpp:157] Top shape: 1 256 15 15 (57600)
I0212 07:53:54.534122  8790 net.cpp:165] Memory required for data: 24963456
I0212 07:53:54.534129  8790 layer_factory.hpp:77] Creating layer rpn/output_rpn_relu/3x3_0_split
I0212 07:53:54.534139  8790 net.cpp:106] Creating Layer rpn/output_rpn_relu/3x3_0_split
I0212 07:53:54.534147  8790 net.cpp:454] rpn/output_rpn_relu/3x3_0_split <- rpn/output
I0212 07:53:54.534157  8790 net.cpp:411] rpn/output_rpn_relu/3x3_0_split -> rpn/output_rpn_relu/3x3_0_split_0
I0212 07:53:54.534169  8790 net.cpp:411] rpn/output_rpn_relu/3x3_0_split -> rpn/output_rpn_relu/3x3_0_split_1
I0212 07:53:54.534253  8790 net.cpp:150] Setting up rpn/output_rpn_relu/3x3_0_split
I0212 07:53:54.534265  8790 net.cpp:157] Top shape: 1 256 15 15 (57600)
I0212 07:53:54.534272  8790 net.cpp:157] Top shape: 1 256 15 15 (57600)
I0212 07:53:54.534277  8790 net.cpp:165] Memory required for data: 25424256
I0212 07:53:54.534282  8790 layer_factory.hpp:77] Creating layer rpn_cls_score
I0212 07:53:54.534303  8790 net.cpp:106] Creating Layer rpn_cls_score
I0212 07:53:54.534309  8790 net.cpp:454] rpn_cls_score <- rpn/output_rpn_relu/3x3_0_split_0
I0212 07:53:54.534319  8790 net.cpp:411] rpn_cls_score -> rpn_cls_score
I0212 07:53:54.537698  8790 net.cpp:150] Setting up rpn_cls_score
I0212 07:53:54.537724  8790 net.cpp:157] Top shape: 1 12 15 15 (2700)
I0212 07:53:54.537729  8790 net.cpp:165] Memory required for data: 25435056
I0212 07:53:54.537742  8790 layer_factory.hpp:77] Creating layer rpn_bbox_pred
I0212 07:53:54.537760  8790 net.cpp:106] Creating Layer rpn_bbox_pred
I0212 07:53:54.537768  8790 net.cpp:454] rpn_bbox_pred <- rpn/output_rpn_relu/3x3_0_split_1
I0212 07:53:54.537782  8790 net.cpp:411] rpn_bbox_pred -> rpn_bbox_pred
I0212 07:53:54.540081  8790 net.cpp:150] Setting up rpn_bbox_pred
I0212 07:53:54.540107  8790 net.cpp:157] Top shape: 1 24 15 15 (5400)
I0212 07:53:54.540112  8790 net.cpp:165] Memory required for data: 25456656
I0212 07:53:54.540132  8790 layer_factory.hpp:77] Creating layer rpn_cls_score_reshape
I0212 07:53:54.540149  8790 net.cpp:106] Creating Layer rpn_cls_score_reshape
I0212 07:53:54.540156  8790 net.cpp:454] rpn_cls_score_reshape <- rpn_cls_score
I0212 07:53:54.540169  8790 net.cpp:411] rpn_cls_score_reshape -> rpn_cls_score_reshape
I0212 07:53:54.540223  8790 net.cpp:150] Setting up rpn_cls_score_reshape
I0212 07:53:54.540235  8790 net.cpp:157] Top shape: 1 2 90 15 (2700)
I0212 07:53:54.540241  8790 net.cpp:165] Memory required for data: 25467456
I0212 07:53:54.540246  8790 layer_factory.hpp:77] Creating layer rpn_cls_prob
I0212 07:53:54.540259  8790 net.cpp:106] Creating Layer rpn_cls_prob
I0212 07:53:54.540266  8790 net.cpp:454] rpn_cls_prob <- rpn_cls_score_reshape
I0212 07:53:54.540274  8790 net.cpp:411] rpn_cls_prob -> rpn_cls_prob
I0212 07:53:54.540729  8790 net.cpp:150] Setting up rpn_cls_prob
I0212 07:53:54.540748  8790 net.cpp:157] Top shape: 1 2 90 15 (2700)
I0212 07:53:54.540753  8790 net.cpp:165] Memory required for data: 25478256
I0212 07:53:54.540760  8790 layer_factory.hpp:77] Creating layer rpn_cls_prob_reshape
I0212 07:53:54.540771  8790 net.cpp:106] Creating Layer rpn_cls_prob_reshape
I0212 07:53:54.540777  8790 net.cpp:454] rpn_cls_prob_reshape <- rpn_cls_prob
I0212 07:53:54.540791  8790 net.cpp:411] rpn_cls_prob_reshape -> rpn_cls_prob_reshape
I0212 07:53:54.540839  8790 net.cpp:150] Setting up rpn_cls_prob_reshape
I0212 07:53:54.540851  8790 net.cpp:157] Top shape: 1 12 15 15 (2700)
I0212 07:53:54.540856  8790 net.cpp:165] Memory required for data: 25489056
I0212 07:53:54.540863  8790 layer_factory.hpp:77] Creating layer proposal
I0212 07:53:54.554388  8790 net.cpp:106] Creating Layer proposal
I0212 07:53:54.554414  8790 net.cpp:454] proposal <- rpn_cls_prob_reshape
I0212 07:53:54.554425  8790 net.cpp:454] proposal <- rpn_bbox_pred
I0212 07:53:54.554432  8790 net.cpp:454] proposal <- im_info
I0212 07:53:54.554443  8790 net.cpp:411] proposal -> rois
I0212 07:53:54.555593  8790 net.cpp:150] Setting up proposal
I0212 07:53:54.555619  8790 net.cpp:157] Top shape: 1 5 (5)
I0212 07:53:54.555625  8790 net.cpp:165] Memory required for data: 25489076
I0212 07:53:54.555632  8790 layer_factory.hpp:77] Creating layer roi_pool_conv5
I0212 07:53:54.555645  8790 net.cpp:106] Creating Layer roi_pool_conv5
I0212 07:53:54.555652  8790 net.cpp:454] roi_pool_conv5 <- conv6_reluconv_0_split_1
I0212 07:53:54.555661  8790 net.cpp:454] roi_pool_conv5 <- rois
I0212 07:53:54.555670  8790 net.cpp:411] roi_pool_conv5 -> roi_pool_conv5
I0212 07:53:54.555685  8790 roi_pooling_layer.cpp:30] Spatial scale: 0.0625
I0212 07:53:54.555783  8790 net.cpp:150] Setting up roi_pool_conv5
I0212 07:53:54.555794  8790 net.cpp:157] Top shape: 1 256 6 6 (9216)
I0212 07:53:54.555800  8790 net.cpp:165] Memory required for data: 25525940
I0212 07:53:54.555805  8790 layer_factory.hpp:77] Creating layer fc6
I0212 07:53:54.555816  8790 net.cpp:106] Creating Layer fc6
I0212 07:53:54.555822  8790 net.cpp:454] fc6 <- roi_pool_conv5
I0212 07:53:54.555831  8790 net.cpp:411] fc6 -> fc6
I0212 07:53:54.665258  8790 net.cpp:150] Setting up fc6
I0212 07:53:54.665304  8790 net.cpp:157] Top shape: 1 4096 (4096)
I0212 07:53:54.665311  8790 net.cpp:165] Memory required for data: 25542324
I0212 07:53:54.665328  8790 layer_factory.hpp:77] Creating layer relu6
I0212 07:53:54.665356  8790 net.cpp:106] Creating Layer relu6
I0212 07:53:54.665364  8790 net.cpp:454] relu6 <- fc6
I0212 07:53:54.665374  8790 net.cpp:397] relu6 -> fc6 (in-place)
I0212 07:53:54.666231  8790 net.cpp:150] Setting up relu6
I0212 07:53:54.666255  8790 net.cpp:157] Top shape: 1 4096 (4096)
I0212 07:53:54.666261  8790 net.cpp:165] Memory required for data: 25558708
I0212 07:53:54.666268  8790 layer_factory.hpp:77] Creating layer drop6
I0212 07:53:54.666285  8790 net.cpp:106] Creating Layer drop6
I0212 07:53:54.666292  8790 net.cpp:454] drop6 <- fc6
I0212 07:53:54.666301  8790 net.cpp:397] drop6 -> fc6 (in-place)
I0212 07:53:54.666360  8790 net.cpp:150] Setting up drop6
I0212 07:53:54.666371  8790 net.cpp:157] Top shape: 1 4096 (4096)
I0212 07:53:54.666376  8790 net.cpp:165] Memory required for data: 25575092
I0212 07:53:54.666381  8790 layer_factory.hpp:77] Creating layer fc7
I0212 07:53:54.666393  8790 net.cpp:106] Creating Layer fc7
I0212 07:53:54.666398  8790 net.cpp:454] fc7 <- fc6
I0212 07:53:54.666409  8790 net.cpp:411] fc7 -> fc7
I0212 07:53:54.715446  8790 net.cpp:150] Setting up fc7
I0212 07:53:54.715490  8790 net.cpp:157] Top shape: 1 4096 (4096)
I0212 07:53:54.715497  8790 net.cpp:165] Memory required for data: 25591476
I0212 07:53:54.715513  8790 layer_factory.hpp:77] Creating layer relu7
I0212 07:53:54.715529  8790 net.cpp:106] Creating Layer relu7
I0212 07:53:54.715536  8790 net.cpp:454] relu7 <- fc7
I0212 07:53:54.715546  8790 net.cpp:397] relu7 -> fc7 (in-place)
I0212 07:53:54.715946  8790 net.cpp:150] Setting up relu7
I0212 07:53:54.715965  8790 net.cpp:157] Top shape: 1 4096 (4096)
I0212 07:53:54.715970  8790 net.cpp:165] Memory required for data: 25607860
I0212 07:53:54.715975  8790 layer_factory.hpp:77] Creating layer drop7
I0212 07:53:54.715991  8790 net.cpp:106] Creating Layer drop7
I0212 07:53:54.715996  8790 net.cpp:454] drop7 <- fc7
I0212 07:53:54.716006  8790 net.cpp:397] drop7 -> fc7 (in-place)
I0212 07:53:54.716059  8790 net.cpp:150] Setting up drop7
I0212 07:53:54.716070  8790 net.cpp:157] Top shape: 1 4096 (4096)
I0212 07:53:54.716075  8790 net.cpp:165] Memory required for data: 25624244
I0212 07:53:54.716080  8790 layer_factory.hpp:77] Creating layer fc7_drop7_0_split
I0212 07:53:54.716090  8790 net.cpp:106] Creating Layer fc7_drop7_0_split
I0212 07:53:54.716095  8790 net.cpp:454] fc7_drop7_0_split <- fc7
I0212 07:53:54.716106  8790 net.cpp:411] fc7_drop7_0_split -> fc7_drop7_0_split_0
I0212 07:53:54.716127  8790 net.cpp:411] fc7_drop7_0_split -> fc7_drop7_0_split_1
I0212 07:53:54.716204  8790 net.cpp:150] Setting up fc7_drop7_0_split
I0212 07:53:54.716215  8790 net.cpp:157] Top shape: 1 4096 (4096)
I0212 07:53:54.716223  8790 net.cpp:157] Top shape: 1 4096 (4096)
I0212 07:53:54.716226  8790 net.cpp:165] Memory required for data: 25657012
I0212 07:53:54.716233  8790 layer_factory.hpp:77] Creating layer cls_score
I0212 07:53:54.716243  8790 net.cpp:106] Creating Layer cls_score
I0212 07:53:54.716249  8790 net.cpp:454] cls_score <- fc7_drop7_0_split_0
I0212 07:53:54.716259  8790 net.cpp:411] cls_score -> cls_score
I0212 07:53:54.716459  8790 net.cpp:150] Setting up cls_score
I0212 07:53:54.716471  8790 net.cpp:157] Top shape: 1 2 (2)
I0212 07:53:54.716476  8790 net.cpp:165] Memory required for data: 25657020
I0212 07:53:54.716486  8790 layer_factory.hpp:77] Creating layer bbox_pred
I0212 07:53:54.716497  8790 net.cpp:106] Creating Layer bbox_pred
I0212 07:53:54.716503  8790 net.cpp:454] bbox_pred <- fc7_drop7_0_split_1
I0212 07:53:54.716511  8790 net.cpp:411] bbox_pred -> bbox_pred
I0212 07:53:54.717641  8790 net.cpp:150] Setting up bbox_pred
I0212 07:53:54.717664  8790 net.cpp:157] Top shape: 1 8 (8)
I0212 07:53:54.717669  8790 net.cpp:165] Memory required for data: 25657052
I0212 07:53:54.717680  8790 layer_factory.hpp:77] Creating layer cls_prob
I0212 07:53:54.717694  8790 net.cpp:106] Creating Layer cls_prob
I0212 07:53:54.717700  8790 net.cpp:454] cls_prob <- cls_score
I0212 07:53:54.717711  8790 net.cpp:411] cls_prob -> cls_prob
I0212 07:53:54.718518  8790 net.cpp:150] Setting up cls_prob
I0212 07:53:54.718544  8790 net.cpp:157] Top shape: 1 2 (2)
I0212 07:53:54.718550  8790 net.cpp:165] Memory required for data: 25657060
I0212 07:53:54.718557  8790 net.cpp:228] cls_prob does not need backward computation.
I0212 07:53:54.718564  8790 net.cpp:228] bbox_pred does not need backward computation.
I0212 07:53:54.718570  8790 net.cpp:228] cls_score does not need backward computation.
I0212 07:53:54.718576  8790 net.cpp:228] fc7_drop7_0_split does not need backward computation.
…
