…
stepsize: 50000
snapshot: 0
snapshot_prefix: "zf_faster_rcnn"
average_loss: 100
iter_size: 2
I0515 23:00:19.960949 13288 solver.cpp:81] Creating training net from train_net file: models/pascal_voc/ZF/faster_rcnn_end2end/train.prototxt
I0515 23:00:19.961429 13288 net.cpp:49] Initializing net from parameters: 
name: "ZF"
state {
  phase: TRAIN
}
layer {
  name: "input-data"
  type: "Python"
  top: "data"
  top: "im_info"
  top: "gt_boxes"
  python_param {
    module: "roi_data_layer.layer"
    layer: "RoIDataLayer"
    param_str: "\'num_classes\': 2"
  }
}
layer {
  name: "conv1"
  type: "Convolution"
  bottom: "data"
  top: "conv1"
  param {
    lr_mult: 1
  }
  param {
    lr_mult: 2
  }
  convolution_param {
    num_output: 96
    pad: 3
    kernel_size: 7
    stride: 2
  }
}
layer {
  name: "relu1"
  type: "ReLU"
  bottom: "conv1"
  top: "conv1"
}
layer {
  name: "norm1"
  type: "LRN"
  bottom: "conv1"
  top: "norm1"
  lrn_param {
    local_size: 3
    alpha: 5e-05
    beta: 0.75
    norm_region: WITHIN_CHANNEL
    engine: CAFFE
  }
}
layer {
  name: "pool1"
  type: "Pooling"
  bottom: "norm1"
  top: "pool1"
  pooling_param {
    pool: MAX
    kernel_size: 3
    stride: 2
    pad: 1
  }
}
layer {
  name: "conv2"
  type: "Convolution"
  bottom: "pool1"
  top: "conv2"
  param {
    lr_mult: 1
  }
  param {
    lr_mult: 2
  }
  convolution_param {
    num_output: 256
    pad: 2
    kernel_size: 5
    stride: 2
  }
}
layer {
  name: "relu2"
  type: "ReLU"
  bottom: "conv2"
  top: "conv2"
}
layer {
  name: "norm2"
  type: "LRN"
  bottom: "conv2"
  top: "norm2"
  lrn_param {
    local_size: 3
    alpha: 5e-05
    beta: 0.75
    norm_region: WITHIN_CHANNEL
    engine: CAFFE
  }
}
layer {
  name: "pool2"
  type: "Pooling"
  bottom: "norm2"
  top: "pool2"
  pooling_param {
    pool: MAX
    kernel_size: 3
    stride: 2
    pad: 1
  }
}
layer {
  name: "conv3"
  type: "Convolution"
  bottom: "pool2"
  top: "conv3"
  param {
    lr_mult: 1
  }
  param {
    lr_mult: 2
  }
  convolution_param {
    num_output: 384
    pad: 1
    kernel_size: 3
    stride: 1
  }
}
layer {
  name: "relu3"
  type: "ReLU"
  bottom: "conv3"
  top: "conv3"
}
layer {
  name: "conv4"
  type: "Convolution"
  bottom: "conv3"
  top: "conv4"
  param {
    lr_mult: 1
  }
  param {
    lr_mult: 2
  }
  convolution_param {
    num_output: 384
    pad: 1
    kernel_size: 3
    stride: 1
  }
}
layer {
  name: "relu4"
  type: "ReLU"
  bottom: "conv4"
  top: "conv4"
}
layer {
  name: "conv5"
  type: "Convolution"
  bottom: "conv4"
  top: "conv5"
  param {
    lr_mult: 1
  }
  param {
    lr_mult: 2
  }
  convolution_param {
    num_output: 256
    pad: 1
    kernel_size: 3
    stride: 1
  }
}
layer {
  name: "relu5"
  type: "ReLU"
  bottom: "conv5"
  top: "conv5"
}
layer {
  name: "rpn_conv/3x3"
  type: "Convolution"
  bottom: "conv5"
  top: "rpn/output"
  param {
    lr_mult: 1
  }
  param {
    lr_mult: 2
  }
  convolution_param {
    num_output: 256
    pad: 1
    kernel_size: 3
    stride: 1
    weight_filler {
      type: "gaussian"
      std: 0.01
    }
    bias_filler {
      type: "constant"
      value: 0
    }
  }
}
layer {
  name: "rpn_relu/3x3"
  type: "ReLU"
  bottom: "rpn/output"
  top: "rpn/output"
}
layer {
  name: "rpn_cls_score"
  type: "Convolution"
  bottom: "rpn/output"
  top: "rpn_cls_score"
  param {
    lr_mult: 1
  }
  param {
    lr_mult: 2
  }
  convolution_param {
    num_output: 18
    pad: 0
    kernel_size: 1
    stride: 1
    weight_filler {
      type: "gaussian"
      std: 0.01
    }
    bias_filler {
      type: "constant"
      value: 0
    }
  }
}
layer {
  name: "rpn_bbox_pred"
  type: "Convolution"
  bottom: "rpn/output"
  top: "rpn_bbox_pred"
  param {
    lr_mult: 1
  }
  param {
    lr_mult: 2
  }
  convolution_param {
    num_output: 36
    pad: 0
    kernel_size: 1
    stride: 1
    weight_filler {
      type: "gaussian"
      std: 0.01
    }
    bias_filler {
      type: "constant"
      value: 0
    }
  }
}
layer {
  name: "rpn_cls_score_reshape"
  type: "Reshape"
  bottom: "rpn_cls_score"
  top: "rpn_cls_score_reshape"
  reshape_param {
    shape {
      dim: 0
      dim: 2
      dim: -1
      dim: 0
    }
  }
}
layer {
  name: "rpn-data"
  type: "Python"
  bottom: "rpn_cls_score"
  bottom: "gt_boxes"
  bottom: "im_info"
  bottom: "data"
  top: "rpn_labels"
  top: "rpn_bbox_targets"
  top: "rpn_bbox_inside_weights"
  top: "rpn_bbox_outside_weights"
  python_param {
    module: "rpn.anchor_target_layer"
    layer: "AnchorTargetLayer"
    param_str: "\'feat_stride\': 16"
  }
}
layer {
  name: "rpn_loss_cls"
  type: "SoftmaxWithLoss"
  bottom: "rpn_cls_score_reshape"
  bottom: "rpn_labels"
  top: "rpn_cls_loss"
  loss_weight: 1
  propagate_down: true
  propagate_down: false
  loss_param {
    ignore_label: -1
    normalize: true
  }
}
layer {
  name: "rpn_loss_bbox"
  type: "SmoothL1Loss"
  bottom: "rpn_bbox_pred"
  bottom: "rpn_bbox_targets"
  bottom: "rpn_bbox_inside_weights"
  bottom: "rpn_bbox_outside_weights"
  top: "rpn_loss_bbox"
  loss_weight: 1
  smooth_l1_loss_param {
    sigma: 3
  }
}
layer {
  name: "rpn_cls_prob"
  type: "Softmax"
  bottom: "rpn_cls_score_reshape"
  top: "rpn_cls_prob"
}
layer {
  name: "rpn_cls_prob_reshape"
  type: "Reshape"
  bottom: "rpn_cls_prob"
  top: "rpn_cls_prob_reshape"
  reshape_param {
    shape {
      dim: 0
      dim: 18
      dim: -1
      dim: 0
    }
  }
}
layer {
  name: "proposal"
  type: "Python"
  bottom: "rpn_cls_prob_reshape"
  bottom: "rpn_bbox_pred"
  bottom: "im_info"
  top: "rpn_rois"
  python_param {
    module: "rpn.proposal_layer"
    layer: "ProposalLayer"
    param_str: "\'feat_stride\': 16"
  }
}
layer {
  name: "roi-data"
  type: "Python"
  bottom: "rpn_rois"
  bottom: "gt_boxes"
  top: "rois"
  top: "labels"
  top: "bbox_targets"
  top: "bbox_inside_weights"
  top: "bbox_outside_weights"
  python_param {
    module: "rpn.proposal_target_layer"
    layer: "ProposalTargetLayer"
    param_str: "\'num_classes\': 2"
  }
}
layer {
  name: "roi_pool_conv5"
  type: "ROIPooling"
  bottom: "conv5"
  bottom: "rois"
  top: "roi_pool_conv5"
  roi_pooling_param {
    pooled_h: 6
    pooled_w: 6
    spatial_scale: 0.0625
  }
}
layer {
  name: "fc6"
  type: "InnerProduct"
  bottom: "roi_pool_conv5"
  top: "fc6"
  param {
    lr_mult: 1
  }
  param {
    lr_mult: 2
  }
  inner_product_param {
    num_output: 4096
  }
}
layer {
  name: "relu6"
  type: "ReLU"
  bottom: "fc6"
  top: "fc6"
}
layer {
  name: "drop6"
  type: "Dropout"
  bottom: "fc6"
  top: "fc6"
  dropout_param {
    dropout_ratio: 0.5
    scale_train: false
  }
}
layer {
  name: "fc7"
  type: "InnerProduct"
  bottom: "fc6"
  top: "fc7"
  param {
    lr_mult: 1
  }
  param {
    lr_mult: 2
  }
  inner_product_param {
    num_output: 4096
  }
}
layer {
  name: "relu7"
  type: "ReLU"
  bottom: "fc7"
  top: "fc7"
}
layer {
  name: "drop7"
  type: "Dropout"
  bottom: "fc7"
  top: "fc7"
  dropout_param {
    dropout_ratio: 0.5
    scale_train: false
  }
}
layer {
  name: "cls_score"
  type: "InnerProduct"
  bottom: "fc7"
  top: "cls_score"
  param {
    lr_mult: 1
  }
  param {
    lr_mult: 2
  }
  inner_product_param {
    num_output: 2
    weight_filler {
      type: "gaussian"
      std: 0.01
    }
    bias_filler {
      type: "constant"
      value: 0
    }
  }
}
layer {
  name: "bbox_pred"
  type: "InnerProduct"
  bottom: "fc7"
  top: "bbox_pred"
  param {
    lr_mult: 1
  }
  param {
    lr_mult: 2
  }
  inner_product_param {
    num_output: 8
    weight_filler {
      type: "gaussian"
      std: 0.001
    }
    bias_filler {
      type: "constant"
      value: 0
    }
  }
}
layer {
  name: "loss_cls"
  type: "SoftmaxWithLoss"
  bottom: "cls_score"
  bottom: "labels"
  top: "cls_loss"
  loss_weight: 1
  propagate_down: true
  propagate_down: false
  loss_param {
    ignore_label: -1
    normalize: true
  }
}
layer {
  name: "loss_bbox"
  type: "SmoothL1Loss"
  bottom: "bbox_pred"
  bottom: "bbox_targets"
  bottom: "bbox_inside_weights"
  bottom: "bbox_outside_weights"
  top: "bbox_loss"
  loss_weight: 1
}
I0515 23:00:19.961633 13288 layer_factory.hpp:77] Creating layer input-data
I0515 23:00:20.018853 13288 net.cpp:106] Creating Layer input-data
I0515 23:00:20.018877 13288 net.cpp:411] input-data -> data
I0515 23:00:20.018887 13288 net.cpp:411] input-data -> im_info
I0515 23:00:20.018892 13288 net.cpp:411] input-data -> gt_boxes
RoiDataLayer: name_to_top: {'gt_boxes': 2, 'data': 0, 'im_info': 1}
I0515 23:00:22.599071 13288 net.cpp:150] Setting up input-data
I0515 23:00:22.599108 13288 net.cpp:157] Top shape: 1 3 600 1000 (1800000)
I0515 23:00:22.599124 13288 net.cpp:157] Top shape: 1 3 (3)
I0515 23:00:22.599128 13288 net.cpp:157] Top shape: 1 4 (4)
I0515 23:00:22.599133 13288 net.cpp:165] Memory required for data: 7200028
I0515 23:00:22.599144 13288 layer_factory.hpp:77] Creating layer data_input-data_0_split
I0515 23:00:22.599164 13288 net.cpp:106] Creating Layer data_input-data_0_split
I0515 23:00:22.599169 13288 net.cpp:454] data_input-data_0_split <- data
I0515 23:00:22.599176 13288 net.cpp:411] data_input-data_0_split -> data_input-data_0_split_0
I0515 23:00:22.599186 13288 net.cpp:411] data_input-data_0_split -> data_input-data_0_split_1
I0515 23:00:22.599220 13288 net.cpp:150] Setting up data_input-data_0_split
I0515 23:00:22.599225 13288 net.cpp:157] Top shape: 1 3 600 1000 (1800000)
I0515 23:00:22.599227 13288 net.cpp:157] Top shape: 1 3 600 1000 (1800000)
I0515 23:00:22.599231 13288 net.cpp:165] Memory required for data: 21600028
I0515 23:00:22.599232 13288 layer_factory.hpp:77] Creating layer im_info_input-data_1_split
I0515 23:00:22.599237 13288 net.cpp:106] Creating Layer im_info_input-data_1_split
I0515 23:00:22.599241 13288 net.cpp:454] im_info_input-data_1_split <- im_info
I0515 23:00:22.599244 13288 net.cpp:411] im_info_input-data_1_split -> im_info_input-data_1_split_0
I0515 23:00:22.599249 13288 net.cpp:411] im_info_input-data_1_split -> im_info_input-data_1_split_1
I0515 23:00:22.599287 13288 net.cpp:150] Setting up im_info_input-data_1_split
I0515 23:00:22.599294 13288 net.cpp:157] Top shape: 1 3 (3)
I0515 23:00:22.599298 13288 net.cpp:157] Top shape: 1 3 (3)
I0515 23:00:22.599301 13288 net.cpp:165] Memory required for data: 21600052
I0515 23:00:22.599305 13288 layer_factory.hpp:77] Creating layer gt_boxes_input-data_2_split
I0515 23:00:22.599313 13288 net.cpp:106] Creating Layer gt_boxes_input-data_2_split
I0515 23:00:22.599318 13288 net.cpp:454] gt_boxes_input-data_2_split <- gt_boxes
I0515 23:00:22.599323 13288 net.cpp:411] gt_boxes_input-data_2_split -> gt_boxes_input-data_2_split_0
I0515 23:00:22.599330 13288 net.cpp:411] gt_boxes_input-data_2_split -> gt_boxes_input-data_2_split_1
I0515 23:00:22.599371 13288 net.cpp:150] Setting up gt_boxes_input-data_2_split
I0515 23:00:22.599378 13288 net.cpp:157] Top shape: 1 4 (4)
I0515 23:00:22.599381 13288 net.cpp:157] Top shape: 1 4 (4)
I0515 23:00:22.599383 13288 net.cpp:165] Memory required for data: 21600084
I0515 23:00:22.599386 13288 layer_factory.hpp:77] Creating layer conv1
I0515 23:00:22.599400 13288 net.cpp:106] Creating Layer conv1
I0515 23:00:22.599406 13288 net.cpp:454] conv1 <- data_input-data_0_split_0
I0515 23:00:22.599413 13288 net.cpp:411] conv1 -> conv1
I0515 23:00:23.324517 13288 net.cpp:150] Setting up conv1
I0515 23:00:23.324548 13288 net.cpp:157] Top shape: 1 96 300 500 (14400000)
I0515 23:00:23.324551 13288 net.cpp:165] Memory required for data: 79200084
I0515 23:00:23.324566 13288 layer_factory.hpp:77] Creating layer relu1
I0515 23:00:23.324579 13288 net.cpp:106] Creating Layer relu1
I0515 23:00:23.324582 13288 net.cpp:454] relu1 <- conv1
I0515 23:00:23.324589 13288 net.cpp:397] relu1 -> conv1 (in-place)
I0515 23:00:23.325137 13288 net.cpp:150] Setting up relu1
I0515 23:00:23.325147 13288 net.cpp:157] Top shape: 1 96 300 500 (14400000)
I0515 23:00:23.325150 13288 net.cpp:165] Memory required for data: 136800084
I0515 23:00:23.325153 13288 layer_factory.hpp:77] Creating layer norm1
I0515 23:00:23.325161 13288 net.cpp:106] Creating Layer norm1
I0515 23:00:23.325165 13288 net.cpp:454] norm1 <- conv1
I0515 23:00:23.325171 13288 net.cpp:411] norm1 -> norm1
I0515 23:00:23.325270 13288 net.cpp:150] Setting up norm1
I0515 23:00:23.325278 13288 net.cpp:157] Top shape: 1 96 300 500 (14400000)
I0515 23:00:23.325279 13288 net.cpp:165] Memory required for data: 194400084
I0515 23:00:23.325282 13288 layer_factory.hpp:77] Creating layer pool1
I0515 23:00:23.325287 13288 net.cpp:106] Creating Layer pool1
I0515 23:00:23.325291 13288 net.cpp:454] pool1 <- norm1
I0515 23:00:23.325296 13288 net.cpp:411] pool1 -> pool1
I0515 23:00:23.325335 13288 net.cpp:150] Setting up pool1
I0515 23:00:23.325347 13288 net.cpp:157] Top shape: 1 96 151 251 (3638496)
I0515 23:00:23.325351 13288 net.cpp:165] Memory required for data: 208954068
I0515 23:00:23.325354 13288 layer_factory.hpp:77] Creating layer conv2
I0515 23:00:23.325371 13288 net.cpp:106] Creating Layer conv2
I0515 23:00:23.325376 13288 net.cpp:454] conv2 <- pool1
I0515 23:00:23.325383 13288 net.cpp:411] conv2 -> conv2
I0515 23:00:23.327836 13288 net.cpp:150] Setting up conv2
I0515 23:00:23.327867 13288 net.cpp:157] Top shape: 1 256 76 126 (2451456)
I0515 23:00:23.327869 13288 net.cpp:165] Memory required for data: 218759892
I0515 23:00:23.327881 13288 layer_factory.hpp:77] Creating layer relu2
I0515 23:00:23.327893 13288 net.cpp:106] Creating Layer relu2
I0515 23:00:23.327895 13288 net.cpp:454] relu2 <- conv2
I0515 23:00:23.327901 13288 net.cpp:397] relu2 -> conv2 (in-place)
I0515 23:00:23.328410 13288 net.cpp:150] Setting up relu2
I0515 23:00:23.328419 13288 net.cpp:157] Top shape: 1 256 76 126 (2451456)
I0515 23:00:23.328421 13288 net.cpp:165] Memory required for data: 228565716
I0515 23:00:23.328424 13288 layer_factory.hpp:77] Creating layer norm2
I0515 23:00:23.328433 13288 net.cpp:106] Creating Layer norm2
I0515 23:00:23.328434 13288 net.cpp:454] norm2 <- conv2
I0515 23:00:23.328440 13288 net.cpp:411] norm2 -> norm2
I0515 23:00:23.328547 13288 net.cpp:150] Setting up norm2
I0515 23:00:23.328555 13288 net.cpp:157] Top shape: 1 256 76 126 (2451456)
I0515 23:00:23.328557 13288 net.cpp:165] Memory required for data: 238371540
I0515 23:00:23.328560 13288 layer_factory.hpp:77] Creating layer pool2
I0515 23:00:23.328565 13288 net.cpp:106] Creating Layer pool2
I0515 23:00:23.328567 13288 net.cpp:454] pool2 <- norm2
I0515 23:00:23.328572 13288 net.cpp:411] pool2 -> pool2
I0515 23:00:23.328608 13288 net.cpp:150] Setting up pool2
I0515 23:00:23.328618 13288 net.cpp:157] Top shape: 1 256 39 64 (638976)
I0515 23:00:23.328621 13288 net.cpp:165] Memory required for data: 240927444
I0515 23:00:23.328624 13288 layer_factory.hpp:77] Creating layer conv3
I0515 23:00:23.328631 13288 net.cpp:106] Creating Layer conv3
I0515 23:00:23.328634 13288 net.cpp:454] conv3 <- pool2
I0515 23:00:23.328642 13288 net.cpp:411] conv3 -> conv3
I0515 23:00:23.333705 13288 net.cpp:150] Setting up conv3
I0515 23:00:23.333736 13288 net.cpp:157] Top shape: 1 384 39 64 (958464)
I0515 23:00:23.333739 13288 net.cpp:165] Memory required for data: 244761300
I0515 23:00:23.333753 13288 layer_factory.hpp:77] Creating layer relu3
I0515 23:00:23.333763 13288 net.cpp:106] Creating Layer relu3
I0515 23:00:23.333767 13288 net.cpp:454] relu3 <- conv3
I0515 23:00:23.333775 13288 net.cpp:397] relu3 -> conv3 (in-place)
I0515 23:00:23.333973 13288 net.cpp:150] Setting up relu3
I0515 23:00:23.333981 13288 net.cpp:157] Top shape: 1 384 39 64 (958464)
I0515 23:00:23.333983 13288 net.cpp:165] Memory required for data: 248595156
I0515 23:00:23.333986 13288 layer_factory.hpp:77] Creating layer conv4
I0515 23:00:23.333997 13288 net.cpp:106] Creating Layer conv4
I0515 23:00:23.333999 13288 net.cpp:454] conv4 <- conv3
I0515 23:00:23.334004 13288 net.cpp:411] conv4 -> conv4
I0515 23:00:23.339362 13288 net.cpp:150] Setting up conv4
I0515 23:00:23.339395 13288 net.cpp:157] Top shape: 1 384 39 64 (958464)
I0515 23:00:23.339397 13288 net.cpp:165] Memory required for data: 252429012
I0515 23:00:23.339408 13288 layer_factory.hpp:77] Creating layer relu4
I0515 23:00:23.339422 13288 net.cpp:106] Creating Layer relu4
I0515 23:00:23.339426 13288 net.cpp:454] relu4 <- conv4
I0515 23:00:23.339433 13288 net.cpp:397] relu4 -> conv4 (in-place)
I0515 23:00:23.339638 13288 net.cpp:150] Setting up relu4
I0515 23:00:23.339648 13288 net.cpp:157] Top shape: 1 384 39 64 (958464)
I0515 23:00:23.339651 13288 net.cpp:165] Memory required for data: 256262868
I0515 23:00:23.339654 13288 layer_factory.hpp:77] Creating layer conv5
I0515 23:00:23.339668 13288 net.cpp:106] Creating Layer conv5
I0515 23:00:23.339671 13288 net.cpp:454] conv5 <- conv4
I0515 23:00:23.339679 13288 net.cpp:411] conv5 -> conv5
I0515 23:00:23.343524 13288 net.cpp:150] Setting up conv5
I0515 23:00:23.343551 13288 net.cpp:157] Top shape: 1 256 39 64 (638976)
I0515 23:00:23.343554 13288 net.cpp:165] Memory required for data: 258818772
I0515 23:00:23.343567 13288 layer_factory.hpp:77] Creating layer relu5
I0515 23:00:23.343578 13288 net.cpp:106] Creating Layer relu5
I0515 23:00:23.343582 13288 net.cpp:454] relu5 <- conv5
I0515 23:00:23.343588 13288 net.cpp:397] relu5 -> conv5 (in-place)
I0515 23:00:23.343763 13288 net.cpp:150] Setting up relu5
I0515 23:00:23.343771 13288 net.cpp:157] Top shape: 1 256 39 64 (638976)
I0515 23:00:23.343773 13288 net.cpp:165] Memory required for data: 261374676
I0515 23:00:23.343776 13288 layer_factory.hpp:77] Creating layer conv5_relu5_0_split
I0515 23:00:23.343785 13288 net.cpp:106] Creating Layer conv5_relu5_0_split
I0515 23:00:23.343787 13288 net.cpp:454] conv5_relu5_0_split <- conv5
I0515 23:00:23.343796 13288 net.cpp:411] conv5_relu5_0_split -> conv5_relu5_0_split_0
I0515 23:00:23.343803 13288 net.cpp:411] conv5_relu5_0_split -> conv5_relu5_0_split_1
I0515 23:00:23.343842 13288 net.cpp:150] Setting up conv5_relu5_0_split
I0515 23:00:23.343849 13288 net.cpp:157] Top shape: 1 256 39 64 (638976)
I0515 23:00:23.343852 13288 net.cpp:157] Top shape: 1 256 39 64 (638976)
I0515 23:00:23.343854 13288 net.cpp:165] Memory required for data: 266486484
I0515 23:00:23.343858 13288 layer_factory.hpp:77] Creating layer rpn_conv/3x3
I0515 23:00:23.343873 13288 net.cpp:106] Creating Layer rpn_conv/3x3
I0515 23:00:23.343878 13288 net.cpp:454] rpn_conv/3x3 <- conv5_relu5_0_split_0
I0515 23:00:23.343884 13288 net.cpp:411] rpn_conv/3x3 -> rpn/output
I0515 23:00:23.350536 13288 net.cpp:150] Setting up rpn_conv/3x3
I0515 23:00:23.350561 13288 net.cpp:157] Top shape: 1 256 39 64 (638976)
I0515 23:00:23.350564 13288 net.cpp:165] Memory required for data: 269042388
I0515 23:00:23.350574 13288 layer_factory.hpp:77] Creating layer rpn_relu/3x3
I0515 23:00:23.350581 13288 net.cpp:106] Creating Layer rpn_relu/3x3
I0515 23:00:23.350585 13288 net.cpp:454] rpn_relu/3x3 <- rpn/output
I0515 23:00:23.350590 13288 net.cpp:397] rpn_relu/3x3 -> rpn/output (in-place)
I0515 23:00:23.350771 13288 net.cpp:150] Setting up rpn_relu/3x3
I0515 23:00:23.350781 13288 net.cpp:157] Top shape: 1 256 39 64 (638976)
I0515 23:00:23.350783 13288 net.cpp:165] Memory required for data: 271598292
I0515 23:00:23.350786 13288 layer_factory.hpp:77] Creating layer rpn/output_rpn_relu/3x3_0_split
I0515 23:00:23.350793 13288 net.cpp:106] Creating Layer rpn/output_rpn_relu/3x3_0_split
I0515 23:00:23.350796 13288 net.cpp:454] rpn/output_rpn_relu/3x3_0_split <- rpn/output
I0515 23:00:23.350803 13288 net.cpp:411] rpn/output_rpn_relu/3x3_0_split -> rpn/output_rpn_relu/3x3_0_split_0
I0515 23:00:23.350811 13288 net.cpp:411] rpn/output_rpn_relu/3x3_0_split -> rpn/output_rpn_relu/3x3_0_split_1
I0515 23:00:23.350857 13288 net.cpp:150] Setting up rpn/output_rpn_relu/3x3_0_split
I0515 23:00:23.350864 13288 net.cpp:157] Top shape: 1 256 39 64 (638976)
I0515 23:00:23.350867 13288 net.cpp:157] Top shape: 1 256 39 64 (638976)
I0515 23:00:23.350870 13288 net.cpp:165] Memory required for data: 276710100
I0515 23:00:23.350872 13288 layer_factory.hpp:77] Creating layer rpn_cls_score
I0515 23:00:23.350885 13288 net.cpp:106] Creating Layer rpn_cls_score
I0515 23:00:23.350889 13288 net.cpp:454] rpn_cls_score <- rpn/output_rpn_relu/3x3_0_split_0
I0515 23:00:23.350898 13288 net.cpp:411] rpn_cls_score -> rpn_cls_score
I0515 23:00:23.352039 13288 net.cpp:150] Setting up rpn_cls_score
I0515 23:00:23.352054 13288 net.cpp:157] Top shape: 1 18 39 64 (44928)
I0515 23:00:23.352058 13288 net.cpp:165] Memory required for data: 276889812
I0515 23:00:23.352068 13288 layer_factory.hpp:77] Creating layer rpn_cls_score_rpn_cls_score_0_split
I0515 23:00:23.352156 13288 net.cpp:106] Creating Layer rpn_cls_score_rpn_cls_score_0_split
I0515 23:00:23.352166 13288 net.cpp:454] rpn_cls_score_rpn_cls_score_0_split <- rpn_cls_score
I0515 23:00:23.352175 13288 net.cpp:411] rpn_cls_score_rpn_cls_score_0_split -> rpn_cls_score_rpn_cls_score_0_split_0
I0515 23:00:23.352183 13288 net.cpp:411] rpn_cls_score_rpn_cls_score_0_split -> rpn_cls_score_rpn_cls_score_0_split_1
I0515 23:00:23.352241 13288 net.cpp:150] Setting up rpn_cls_score_rpn_cls_score_0_split
I0515 23:00:23.352247 13288 net.cpp:157] Top shape: 1 18 39 64 (44928)
I0515 23:00:23.352252 13288 net.cpp:157] Top shape: 1 18 39 64 (44928)
I0515 23:00:23.352254 13288 net.cpp:165] Memory required for data: 277249236
I0515 23:00:23.352257 13288 layer_factory.hpp:77] Creating layer rpn_bbox_pred
I0515 23:00:23.352272 13288 net.cpp:106] Creating Layer rpn_bbox_pred
I0515 23:00:23.352280 13288 net.cpp:454] rpn_bbox_pred <- rpn/output_rpn_relu/3x3_0_split_1
I0515 23:00:23.352288 13288 net.cpp:411] rpn_bbox_pred -> rpn_bbox_pred
I0515 23:00:23.353992 13288 net.cpp:150] Setting up rpn_bbox_pred
I0515 23:00:23.354014 13288 net.cpp:157] Top shape: 1 36 39 64 (89856)
I0515 23:00:23.354017 13288 net.cpp:165] Memory required for data: 277608660
I0515 23:00:23.354027 13288 layer_factory.hpp:77] Creating layer rpn_bbox_pred_rpn_bbox_pred_0_split
I0515 23:00:23.354037 13288 net.cpp:106] Creating Layer rpn_bbox_pred_rpn_bbox_pred_0_split
I0515 23:00:23.354040 13288 net.cpp:454] rpn_bbox_pred_rpn_bbox_pred_0_split <- rpn_bbox_pred
I0515 23:00:23.354050 13288 net.cpp:411] rpn_bbox_pred_rpn_bbox_pred_0_split -> rpn_bbox_pred_rpn_bbox_pred_0_split_0
I0515 23:00:23.354061 13288 net.cpp:411] rpn_bbox_pred_rpn_bbox_pred_0_split -> rpn_bbox_pred_rpn_bbox_pred_0_split_1
I0515 23:00:23.354097 13288 net.cpp:150] Setting up rpn_bbox_pred_rpn_bbox_pred_0_split
I0515 23:00:23.354102 13288 net.cpp:157] Top shape: 1 36 39 64 (89856)
I0515 23:00:23.354106 13288 net.cpp:157] Top shape: 1 36 39 64 (89856)
I0515 23:00:23.354109 13288 net.cpp:165] Memory required for data: 278327508
I0515 23:00:23.354110 13288 layer_factory.hpp:77] Creating layer rpn_cls_score_reshape
I0515 23:00:23.354121 13288 net.cpp:106] Creating Layer rpn_cls_score_reshape
I0515 23:00:23.354125 13288 net.cpp:454] rpn_cls_score_reshape <- rpn_cls_score_rpn_cls_score_0_split_0
I0515 23:00:23.354131 13288 net.cpp:411] rpn_cls_score_reshape -> rpn_cls_score_reshape
I0515 23:00:23.354161 13288 net.cpp:150] Setting up rpn_cls_score_reshape
I0515 23:00:23.354171 13288 net.cpp:157] Top shape: 1 2 351 64 (44928)
I0515 23:00:23.354173 13288 net.cpp:165] Memory required for data: 278507220
I0515 23:00:23.354177 13288 layer_factory.hpp:77] Creating layer rpn_cls_score_reshape_rpn_cls_score_reshape_0_split
I0515 23:00:23.354183 13288 net.cpp:106] Creating Layer rpn_cls_score_reshape_rpn_cls_score_reshape_0_split
I0515 23:00:23.354187 13288 net.cpp:454] rpn_cls_score_reshape_rpn_cls_score_reshape_0_split <- rpn_cls_score_reshape
I0515 23:00:23.354195 13288 net.cpp:411] rpn_cls_score_reshape_rpn_cls_score_reshape_0_split -> rpn_cls_score_reshape_rpn_cls_score_reshape_0_split_0
I0515 23:00:23.354204 13288 net.cpp:411] rpn_cls_score_reshape_rpn_cls_score_reshape_0_split -> rpn_cls_score_reshape_rpn_cls_score_reshape_0_split_1
I0515 23:00:23.354243 13288 net.cpp:150] Setting up rpn_cls_score_reshape_rpn_cls_score_reshape_0_split
I0515 23:00:23.354265 13288 net.cpp:157] Top shape: 1 2 351 64 (44928)
I0515 23:00:23.354270 13288 net.cpp:157] Top shape: 1 2 351 64 (44928)
I0515 23:00:23.354274 13288 net.cpp:165] Memory required for data: 278866644
I0515 23:00:23.354275 13288 layer_factory.hpp:77] Creating layer rpn-data
I0515 23:00:23.363102 13288 net.cpp:106] Creating Layer rpn-data
I0515 23:00:23.363127 13288 net.cpp:454] rpn-data <- rpn_cls_score_rpn_cls_score_0_split_1
I0515 23:00:23.363135 13288 net.cpp:454] rpn-data <- gt_boxes_input-data_2_split_0
I0515 23:00:23.363142 13288 net.cpp:454] rpn-data <- im_info_input-data_1_split_0
I0515 23:00:23.363145 13288 net.cpp:454] rpn-data <- data_input-data_0_split_1
I0515 23:00:23.363152 13288 net.cpp:411] rpn-data -> rpn_labels
I0515 23:00:23.363170 13288 net.cpp:411] rpn-data -> rpn_bbox_targets
I0515 23:00:23.363181 13288 net.cpp:411] rpn-data -> rpn_bbox_inside_weights
I0515 23:00:23.363191 13288 net.cpp:411] rpn-data -> rpn_bbox_outside_weights
I0515 23:00:23.365063 13288 net.cpp:150] Setting up rpn-data
I0515 23:00:23.365095 13288 net.cpp:157] Top shape: 1 1 351 64 (22464)
I0515 23:00:23.365100 13288 net.cpp:157] Top shape: 1 36 39 64 (89856)
I0515 23:00:23.365104 13288 net.cpp:157] Top shape: 1 36 39 64 (89856)
I0515 23:00:23.365108 13288 net.cpp:157] Top shape: 1 36 39 64 (89856)
I0515 23:00:23.365110 13288 net.cpp:165] Memory required for data: 280034772
I0515 23:00:23.365118 13288 layer_factory.hpp:77] Creating layer rpn_loss_cls
I0515 23:00:23.365129 13288 net.cpp:106] Creating Layer rpn_loss_cls
I0515 23:00:23.365134 13288 net.cpp:454] rpn_loss_cls <- rpn_cls_score_reshape_rpn_cls_score_reshape_0_split_0
I0515 23:00:23.365141 13288 net.cpp:454] rpn_loss_cls <- rpn_labels
…
I0515 23:00:23.366307 13288 net.cpp:157] Top shape: (1)
I0515 23:00:23.366310 13288 net.cpp:160]     with loss weight 1
I0515 23:00:23.366315 13288 net.cpp:165] Memory required for data: 280034780
I0515 23:00:23.366318 13288 layer_factory.hpp:77] Creating layer rpn_cls_prob
I0515 23:00:23.366324 13288 net.cpp:106] Creating Layer rpn_cls_prob
I0515 23:00:23.366328 13288 net.cpp:454] rpn_cls_prob <- rpn_cls_score_reshape_rpn_cls_score_reshape_0_split_1
I0515 23:00:23.366333 13288 net.cpp:411] rpn_cls_prob -> rpn_cls_prob
I0515 23:00:23.367108 13288 net.cpp:150] Setting up rpn_cls_prob
I0515 23:00:23.367121 13288 net.cpp:157] Top shape: 1 2 351 64 (44928)
I0515 23:00:23.367125 13288 net.cpp:165] Memory required for data: 280214492
I0515 23:00:23.367127 13288 layer_factory.hpp:77] Creating layer rpn_cls_prob_reshape
I0515 23:00:23.367141 13288 net.cpp:106] Creating Layer rpn_cls_prob_reshape
I0515 23:00:23.367144 13288 net.cpp:454] rpn_cls_prob_reshape <- rpn_cls_prob
I0515 23:00:23.367151 13288 net.cpp:411] rpn_cls_prob_reshape -> rpn_cls_prob_reshape
I0515 23:00:23.367183 13288 net.cpp:150] Setting up rpn_cls_prob_reshape
I0515 23:00:23.367194 13288 net.cpp:157] Top shape: 1 18 39 64 (44928)
I0515 23:00:23.367198 13288 net.cpp:165] Memory required for data: 280394204
I0515 23:00:23.367202 13288 layer_factory.hpp:77] Creating layer proposal
I0515 23:00:23.369423 13288 net.cpp:106] Creating Layer proposal
I0515 23:00:23.369442 13288 net.cpp:454] proposal <- rpn_cls_prob_reshape
I0515 23:00:23.369451 13288 net.cpp:454] proposal <- rpn_bbox_pred_rpn_bbox_pred_0_split_1
I0515 23:00:23.369457 13288 net.cpp:454] proposal <- im_info_input-data_1_split_1
I0515 23:00:23.369465 13288 net.cpp:411] proposal -> rpn_rois
I0515 23:00:23.382828 13288 net.cpp:150] Setting up proposal
I0515 23:00:23.382865 13288 net.cpp:157] Top shape: 1 5 (5)
I0515 23:00:23.382869 13288 net.cpp:165] Memory required for data: 280394224
I0515 23:00:23.382879 13288 layer_factory.hpp:77] Creating layer roi-data
I0515 23:00:23.384362 13288 net.cpp:106] Creating Layer roi-data
I0515 23:00:23.384377 13288 net.cpp:454] roi-data <- rpn_rois
I0515 23:00:23.384387 13288 net.cpp:454] roi-data <- gt_boxes_input-data_2_split_1
I0515 23:00:23.384395 13288 net.cpp:411] roi-data -> rois
I0515 23:00:23.384413 13288 net.cpp:411] roi-data -> labels
I0515 23:00:23.384423 13288 net.cpp:411] roi-data -> bbox_targets
I0515 23:00:23.384433 13288 net.cpp:411] roi-data -> bbox_inside_weights
I0515 23:00:23.384443 13288 net.cpp:411] roi-data -> bbox_outside_weights
I0515 23:00:23.384934 13288 net.cpp:150] Setting up roi-data
I0515 23:00:23.384948 13288 net.cpp:157] Top shape: 1 5 (5)
I0515 23:00:23.384953 13288 net.cpp:157] Top shape: 1 1 (1)
I0515 23:00:23.384958 13288 net.cpp:157] Top shape: 1 8 (8)
I0515 23:00:23.384963 13288 net.cpp:157] Top shape: 1 8 (8)
I0515 23:00:23.384968 13288 net.cpp:157] Top shape: 1 8 (8)
I0515 23:00:23.384970 13288 net.cpp:165] Memory required for data: 280394344
I0515 23:00:23.384975 13288 layer_factory.hpp:77] Creating layer roi_pool_conv5
I0515 23:00:23.384984 13288 net.cpp:106] Creating Layer roi_pool_conv5
I0515 23:00:23.385006 13288 net.cpp:454] roi_pool_conv5 <- conv5_relu5_0_split_1
I0515 23:00:23.385015 13288 net.cpp:454] roi_pool_conv5 <- rois
I0515 23:00:23.385022 13288 net.cpp:411] roi_pool_conv5 -> roi_pool_conv5
I0515 23:00:23.385031 13288 roi_pooling_layer.cpp:30] Spatial scale: 0.0625
I0515 23:00:23.385088 13288 net.cpp:150] Setting up roi_pool_conv5
I0515 23:00:23.385095 13288 net.cpp:157] Top shape: 1 256 6 6 (9216)
I0515 23:00:23.385099 13288 net.cpp:165] Memory required for data: 280431208
I0515 23:00:23.385103 13288 layer_factory.hpp:77] Creating layer fc6
I0515 23:00:23.385112 13288 net.cpp:106] Creating Layer fc6
I0515 23:00:23.385116 13288 net.cpp:454] fc6 <- roi_pool_conv5
I0515 23:00:23.385123 13288 net.cpp:411] fc6 -> fc6
I0515 23:00:23.469825 13288 net.cpp:150] Setting up fc6
I0515 23:00:23.469882 13288 net.cpp:157] Top shape: 1 4096 (4096)
I0515 23:00:23.469884 13288 net.cpp:165] Memory required for data: 280447592
I0515 23:00:23.469913 13288 layer_factory.hpp:77] Creating layer relu6
I0515 23:00:23.469929 13288 net.cpp:106] Creating Layer relu6
I0515 23:00:23.469936 13288 net.cpp:454] relu6 <- fc6
I0515 23:00:23.469946 13288 net.cpp:397] relu6 -> fc6 (in-place)
I0515 23:00:23.470240 13288 net.cpp:150] Setting up relu6
I0515 23:00:23.470255 13288 net.cpp:157] Top shape: 1 4096 (4096)
I0515 23:00:23.470258 13288 net.cpp:165] Memory required for data: 280463976
I0515 23:00:23.470263 13288 layer_factory.hpp:77] Creating layer drop6
I0515 23:00:23.470273 13288 net.cpp:106] Creating Layer drop6
I0515 23:00:23.470276 13288 net.cpp:454] drop6 <- fc6
I0515 23:00:23.470283 13288 net.cpp:397] drop6 -> fc6 (in-place)
I0515 23:00:23.470312 13288 net.cpp:150] Setting up drop6
I0515 23:00:23.470319 13288 net.cpp:157] Top shape: 1 4096 (4096)
I0515 23:00:23.470321 13288 net.cpp:165] Memory required for data: 280480360
I0515 23:00:23.470325 13288 layer_factory.hpp:77] Creating layer fc7
I0515 23:00:23.470332 13288 net.cpp:106] Creating Layer fc7
I0515 23:00:23.470338 13288 net.cpp:454] fc7 <- fc6
I0515 23:00:23.470343 13288 net.cpp:411] fc7 -> fc7
I0515 23:00:23.509681 13288 net.cpp:150] Setting up fc7
I0515 23:00:23.509740 13288 net.cpp:157] Top shape: 1 4096 (4096)
I0515 23:00:23.509743 13288 net.cpp:165] Memory required for data: 280496744
I0515 23:00:23.509762 13288 layer_factory.hpp:77] Creating layer relu7
I0515 23:00:23.509778 13288 net.cpp:106] Creating Layer relu7
I0515 23:00:23.509784 13288 net.cpp:454] relu7 <- fc7
I0515 23:00:23.509794 13288 net.cpp:397] relu7 -> fc7 (in-place)
I0515 23:00:23.510066 13288 net.cpp:150] Setting up relu7
I0515 23:00:23.510080 13288 net.cpp:157] Top shape: 1 4096 (4096)
I0515 23:00:23.510084 13288 net.cpp:165] Memory required for data: 280513128
I0515 23:00:23.510088 13288 layer_factory.hpp:77] Creating layer drop7
I0515 23:00:23.510097 13288 net.cpp:106] Creating Layer drop7
I0515 23:00:23.510100 13288 net.cpp:454] drop7 <- fc7
I0515 23:00:23.510107 13288 net.cpp:397] drop7 -> fc7 (in-place)
I0515 23:00:23.510135 13288 net.cpp:150] Setting up drop7
I0515 23:00:23.510184 13288 net.cpp:157] Top shape: 1 4096 (4096)
I0515 23:00:23.510203 13288 net.cpp:165] Memory required for data: 280529512
I0515 23:00:23.510213 13288 layer_factory.hpp:77] Creating layer fc7_drop7_0_split
I0515 23:00:23.510232 13288 net.cpp:106] Creating Layer fc7_drop7_0_split
I0515 23:00:23.510242 13288 net.cpp:454] fc7_drop7_0_split <- fc7
I0515 23:00:23.510259 13288 net.cpp:411] fc7_drop7_0_split -> fc7_drop7_0_split_0
I0515 23:00:23.510279 13288 net.cpp:411] fc7_drop7_0_split -> fc7_drop7_0_split_1
I0515 23:00:23.510390 13288 net.cpp:150] Setting up fc7_drop7_0_split
I0515 23:00:23.510406 13288 net.cpp:157] Top shape: 1 4096 (4096)
I0515 23:00:23.510417 13288 net.cpp:157] Top shape: 1 4096 (4096)
I0515 23:00:23.510426 13288 net.cpp:165] Memory required for data: 280562280
I0515 23:00:23.510434 13288 layer_factory.hpp:77] Creating layer cls_score
I0515 23:00:23.510452 13288 net.cpp:106] Creating Layer cls_score
I0515 23:00:23.510488 13288 net.cpp:454] cls_score <- fc7_drop7_0_split_0
I0515 23:00:23.510509 13288 net.cpp:411] cls_score -> cls_score
I0515 23:00:23.510879 13288 net.cpp:150] Setting up cls_score
I0515 23:00:23.510897 13288 net.cpp:157] Top shape: 1 2 (2)
I0515 23:00:23.510905 13288 net.cpp:165] Memory required for data: 280562288
I0515 23:00:23.510922 13288 layer_factory.hpp:77] Creating layer bbox_pred
I0515 23:00:23.510941 13288 net.cpp:106] Creating Layer bbox_pred
I0515 23:00:23.510951 13288 net.cpp:454] bbox_pred <- fc7_drop7_0_split_1
I0515 23:00:23.510967 13288 net.cpp:411] bbox_pred -> bbox_pred
I0515 23:00:23.511751 13288 net.cpp:150] Setting up bbox_pred
I0515 23:00:23.511771 13288 net.cpp:157] Top shape: 1 8 (8)
I0515 23:00:23.511778 13288 net.cpp:165] Memory required for data: 280562320
I0515 23:00:23.511795 13288 layer_factory.hpp:77] Creating layer loss_cls
I0515 23:00:23.511812 13288 net.cpp:106] Creating Layer loss_cls
I0515 23:00:23.511826 13288 net.cpp:454] loss_cls <- cls_score
I0515 23:00:23.511838 13288 net.cpp:454] loss_cls <- labels
I0515 23:00:23.511885 13288 net.cpp:411] loss_cls -> cls_loss
…
           'RPN_POST_NMS_TOP_N': 2000,
           'RPN_PRE_NMS_TOP_N': 12000,
           'SCALES': [600],
           'SNAPSHOT_INFIX': '',
           'SNAPSHOT_ITERS': 10000,
           'USE_FLIPPED': True,
           'USE_PREFETCH': False},
 'USE_GPU_NMS': True}
WARNING: Logging before InitGoogleLogging() is written to STDERR
I0516 04:37:23.052284 14293 net.cpp:49] Initializing net from parameters: 
name: "ZF"
input: "data"
input: "im_info"
state {
  phase: TEST
}
input_shape {
  dim: 1
  dim: 3
  dim: 224
  dim: 224
}
input_shape {
  dim: 1
  dim: 3
}
layer {
  name: "conv1"
  type: "Convolution"
  bottom: "data"
  top: "conv1"
  convolution_param {
    num_output: 96
    pad: 3
    kernel_size: 7
    stride: 2
  }
}
layer {
  name: "relu1"
  type: "ReLU"
  bottom: "conv1"
  top: "conv1"
}
layer {
  name: "norm1"
  type: "LRN"
  bottom: "conv1"
  top: "norm1"
  lrn_param {
    local_size: 3
    alpha: 5e-05
    beta: 0.75
    norm_region: WITHIN_CHANNEL
    engine: CAFFE
  }
}
layer {
  name: "pool1"
  type: "Pooling"
  bottom: "norm1"
  top: "pool1"
  pooling_param {
    pool: MAX
    kernel_size: 3
    stride: 2
    pad: 1
  }
}
layer {
  name: "conv2"
  type: "Convolution"
  bottom: "pool1"
  top: "conv2"
  convolution_param {
    num_output: 256
    pad: 2
    kernel_size: 5
    stride: 2
  }
}
layer {
  name: "relu2"
  type: "ReLU"
  bottom: "conv2"
  top: "conv2"
}
layer {
  name: "norm2"
  type: "LRN"
  bottom: "conv2"
  top: "norm2"
  lrn_param {
    local_size: 3
    alpha: 5e-05
    beta: 0.75
    norm_region: WITHIN_CHANNEL
    engine: CAFFE
  }
}
layer {
  name: "pool2"
  type: "Pooling"
  bottom: "norm2"
  top: "pool2"
  pooling_param {
    pool: MAX
    kernel_size: 3
    stride: 2
    pad: 1
  }
}
layer {
  name: "conv3"
  type: "Convolution"
  bottom: "pool2"
  top: "conv3"
  convolution_param {
    num_output: 384
    pad: 1
    kernel_size: 3
    stride: 1
  }
}
layer {
  name: "relu3"
  type: "ReLU"
  bottom: "conv3"
  top: "conv3"
}
layer {
  name: "conv4"
  type: "Convolution"
  bottom: "conv3"
  top: "conv4"
  convolution_param {
    num_output: 384
    pad: 1
    kernel_size: 3
    stride: 1
  }
}
layer {
  name: "relu4"
  type: "ReLU"
  bottom: "conv4"
  top: "conv4"
}
layer {
  name: "conv5"
  type: "Convolution"
  bottom: "conv4"
  top: "conv5"
  convolution_param {
    num_output: 256
    pad: 1
    kernel_size: 3
    stride: 1
  }
}
layer {
  name: "relu5"
  type: "ReLU"
  bottom: "conv5"
  top: "conv5"
}
layer {
  name: "rpn_conv/3x3"
  type: "Convolution"
  bottom: "conv5"
  top: "rpn/output"
  convolution_param {
    num_output: 256
    pad: 1
    kernel_size: 3
    stride: 1
    weight_filler {
      type: "gaussian"
      std: 0.01
    }
    bias_filler {
      type: "constant"
      value: 0
    }
  }
}
layer {
  name: "rpn_relu/3x3"
  type: "ReLU"
  bottom: "rpn/output"
  top: "rpn/output"
}
layer {
  name: "rpn_cls_score"
  type: "Convolution"
  bottom: "rpn/output"
  top: "rpn_cls_score"
  convolution_param {
    num_output: 18
    pad: 0
    kernel_size: 1
    stride: 1
    weight_filler {
      type: "gaussian"
      std: 0.01
    }
    bias_filler {
      type: "constant"
      value: 0
    }
  }
}
layer {
  name: "rpn_bbox_pred"
  type: "Convolution"
  bottom: "rpn/output"
  top: "rpn_bbox_pred"
  convolution_param {
    num_output: 36
    pad: 0
    kernel_size: 1
    stride: 1
    weight_filler {
      type: "gaussian"
      std: 0.01
    }
    bias_filler {
      type: "constant"
      value: 0
    }
  }
}
layer {
  name: "rpn_cls_score_reshape"
  type: "Reshape"
  bottom: "rpn_cls_score"
  top: "rpn_cls_score_reshape"
  reshape_param {
    shape {
      dim: 0
      dim: 2
      dim: -1
      dim: 0
    }
  }
}
layer {
  name: "rpn_cls_prob"
  type: "Softmax"
  bottom: "rpn_cls_score_reshape"
  top: "rpn_cls_prob"
}
layer {
  name: "rpn_cls_prob_reshape"
  type: "Reshape"
  bottom: "rpn_cls_prob"
  top: "rpn_cls_prob_reshape"
  reshape_param {
    shape {
      dim: 0
      dim: 18
      dim: -1
      dim: 0
    }
  }
}
layer {
  name: "proposal"
  type: "Python"
  bottom: "rpn_cls_prob_reshape"
  bottom: "rpn_bbox_pred"
  bottom: "im_info"
  top: "rois"
  python_param {
    module: "rpn.proposal_layer"
    layer: "ProposalLayer"
    param_str: "\'feat_stride\': 16"
  }
}
layer {
  name: "roi_pool_conv5"
  type: "ROIPooling"
  bottom: "conv5"
  bottom: "rois"
  top: "roi_pool_conv5"
  roi_pooling_param {
    pooled_h: 6
    pooled_w: 6
    spatial_scale: 0.0625
  }
}
layer {
  name: "fc6"
  type: "InnerProduct"
  bottom: "roi_pool_conv5"
  top: "fc6"
  inner_product_param {
    num_output: 4096
  }
}
layer {
  name: "relu6"
  type: "ReLU"
  bottom: "fc6"
  top: "fc6"
}
layer {
  name: "drop6"
  type: "Dropout"
  bottom: "fc6"
  top: "fc6"
  dropout_param {
    dropout_ratio: 0.5
    scale_train: false
  }
}
layer {
  name: "fc7"
  type: "InnerProduct"
  bottom: "fc6"
  top: "fc7"
  inner_product_param {
    num_output: 4096
  }
}
layer {
  name: "relu7"
  type: "ReLU"
  bottom: "fc7"
  top: "fc7"
}
layer {
  name: "drop7"
  type: "Dropout"
  bottom: "fc7"
  top: "fc7"
  dropout_param {
    dropout_ratio: 0.5
    scale_train: false
  }
}
layer {
  name: "cls_score"
  type: "InnerProduct"
  bottom: "fc7"
  top: "cls_score"
  inner_product_param {
    num_output: 2
  }
}
layer {
  name: "bbox_pred"
  type: "InnerProduct"
  bottom: "fc7"
  top: "bbox_pred"
  inner_product_param {
    num_output: 8
  }
}
layer {
  name: "cls_prob"
  type: "Softmax"
  bottom: "cls_score"
  top: "cls_prob"
  loss_param {
    ignore_label: -1
    normalize: true
  }
}
I0516 04:37:23.052570 14293 net.cpp:413] Input 0 -> data
I0516 04:37:25.655820 14293 net.cpp:413] Input 1 -> im_info
I0516 04:37:25.655887 14293 layer_factory.hpp:77] Creating layer conv1
I0516 04:37:25.655906 14293 net.cpp:106] Creating Layer conv1
I0516 04:37:25.655910 14293 net.cpp:454] conv1 <- data
I0516 04:37:25.655915 14293 net.cpp:411] conv1 -> conv1
I0516 04:37:26.378770 14293 net.cpp:150] Setting up conv1
I0516 04:37:26.378800 14293 net.cpp:157] Top shape: 1 96 112 112 (1204224)
I0516 04:37:26.378803 14293 net.cpp:165] Memory required for data: 4816896
I0516 04:37:26.378818 14293 layer_factory.hpp:77] Creating layer relu1
I0516 04:37:26.378829 14293 net.cpp:106] Creating Layer relu1
I0516 04:37:26.378834 14293 net.cpp:454] relu1 <- conv1
I0516 04:37:26.378839 14293 net.cpp:397] relu1 -> conv1 (in-place)
I0516 04:37:26.379371 14293 net.cpp:150] Setting up relu1
I0516 04:37:26.379381 14293 net.cpp:157] Top shape: 1 96 112 112 (1204224)
I0516 04:37:26.379384 14293 net.cpp:165] Memory required for data: 9633792
I0516 04:37:26.379387 14293 layer_factory.hpp:77] Creating layer norm1
I0516 04:37:26.379396 14293 net.cpp:106] Creating Layer norm1
I0516 04:37:26.379400 14293 net.cpp:454] norm1 <- conv1
I0516 04:37:26.379407 14293 net.cpp:411] norm1 -> norm1
I0516 04:37:26.379513 14293 net.cpp:150] Setting up norm1
I0516 04:37:26.379521 14293 net.cpp:157] Top shape: 1 96 112 112 (1204224)
I0516 04:37:26.379523 14293 net.cpp:165] Memory required for data: 14450688
I0516 04:37:26.379526 14293 layer_factory.hpp:77] Creating layer pool1
I0516 04:37:26.379532 14293 net.cpp:106] Creating Layer pool1
I0516 04:37:26.379535 14293 net.cpp:454] pool1 <- norm1
I0516 04:37:26.379542 14293 net.cpp:411] pool1 -> pool1
I0516 04:37:26.379577 14293 net.cpp:150] Setting up pool1
I0516 04:37:26.379585 14293 net.cpp:157] Top shape: 1 96 57 57 (311904)
I0516 04:37:26.379587 14293 net.cpp:165] Memory required for data: 15698304
I0516 04:37:26.379590 14293 layer_factory.hpp:77] Creating layer conv2
I0516 04:37:26.379597 14293 net.cpp:106] Creating Layer conv2
I0516 04:37:26.379601 14293 net.cpp:454] conv2 <- pool1
I0516 04:37:26.379607 14293 net.cpp:411] conv2 -> conv2
I0516 04:37:26.382414 14293 net.cpp:150] Setting up conv2
I0516 04:37:26.382450 14293 net.cpp:157] Top shape: 1 256 29 29 (215296)
I0516 04:37:26.382452 14293 net.cpp:165] Memory required for data: 16559488
I0516 04:37:26.382468 14293 layer_factory.hpp:77] Creating layer relu2
I0516 04:37:26.382479 14293 net.cpp:106] Creating Layer relu2
I0516 04:37:26.382483 14293 net.cpp:454] relu2 <- conv2
I0516 04:37:26.382488 14293 net.cpp:397] relu2 -> conv2 (in-place)
I0516 04:37:26.383090 14293 net.cpp:150] Setting up relu2
I0516 04:37:26.383101 14293 net.cpp:157] Top shape: 1 256 29 29 (215296)
I0516 04:37:26.383105 14293 net.cpp:165] Memory required for data: 17420672
I0516 04:37:26.383107 14293 layer_factory.hpp:77] Creating layer norm2
I0516 04:37:26.383117 14293 net.cpp:106] Creating Layer norm2
I0516 04:37:26.383121 14293 net.cpp:454] norm2 <- conv2
I0516 04:37:26.383127 14293 net.cpp:411] norm2 -> norm2
I0516 04:37:26.383232 14293 net.cpp:150] Setting up norm2
I0516 04:37:26.383240 14293 net.cpp:157] Top shape: 1 256 29 29 (215296)
I0516 04:37:26.383242 14293 net.cpp:165] Memory required for data: 18281856
I0516 04:37:26.383245 14293 layer_factory.hpp:77] Creating layer pool2
I0516 04:37:26.383250 14293 net.cpp:106] Creating Layer pool2
I0516 04:37:26.383253 14293 net.cpp:454] pool2 <- norm2
I0516 04:37:26.383260 14293 net.cpp:411] pool2 -> pool2
I0516 04:37:26.383301 14293 net.cpp:150] Setting up pool2
I0516 04:37:26.383329 14293 net.cpp:157] Top shape: 1 256 15 15 (57600)
I0516 04:37:26.383343 14293 net.cpp:165] Memory required for data: 18512256
I0516 04:37:26.383349 14293 layer_factory.hpp:77] Creating layer conv3
I0516 04:37:26.383363 14293 net.cpp:106] Creating Layer conv3
I0516 04:37:26.383368 14293 net.cpp:454] conv3 <- pool2
I0516 04:37:26.383373 14293 net.cpp:411] conv3 -> conv3
I0516 04:37:26.386718 14293 net.cpp:150] Setting up conv3
I0516 04:37:26.386767 14293 net.cpp:157] Top shape: 1 384 15 15 (86400)
I0516 04:37:26.386770 14293 net.cpp:165] Memory required for data: 18857856
I0516 04:37:26.386792 14293 layer_factory.hpp:77] Creating layer relu3
I0516 04:37:26.386807 14293 net.cpp:106] Creating Layer relu3
I0516 04:37:26.386812 14293 net.cpp:454] relu3 <- conv3
I0516 04:37:26.386819 14293 net.cpp:397] relu3 -> conv3 (in-place)
I0516 04:37:26.387004 14293 net.cpp:150] Setting up relu3
I0516 04:37:26.387014 14293 net.cpp:157] Top shape: 1 384 15 15 (86400)
I0516 04:37:26.387017 14293 net.cpp:165] Memory required for data: 19203456
I0516 04:37:26.387022 14293 layer_factory.hpp:77] Creating layer conv4
I0516 04:37:26.387032 14293 net.cpp:106] Creating Layer conv4
I0516 04:37:26.387035 14293 net.cpp:454] conv4 <- conv3
I0516 04:37:26.387043 14293 net.cpp:411] conv4 -> conv4
I0516 04:37:26.391572 14293 net.cpp:150] Setting up conv4
I0516 04:37:26.391602 14293 net.cpp:157] Top shape: 1 384 15 15 (86400)
I0516 04:37:26.391605 14293 net.cpp:165] Memory required for data: 19549056
I0516 04:37:26.391618 14293 layer_factory.hpp:77] Creating layer relu4
I0516 04:37:26.391633 14293 net.cpp:106] Creating Layer relu4
I0516 04:37:26.391638 14293 net.cpp:454] relu4 <- conv4
I0516 04:37:26.391651 14293 net.cpp:397] relu4 -> conv4 (in-place)
I0516 04:37:26.391835 14293 net.cpp:150] Setting up relu4
I0516 04:37:26.391846 14293 net.cpp:157] Top shape: 1 384 15 15 (86400)
I0516 04:37:26.391849 14293 net.cpp:165] Memory required for data: 19894656
I0516 04:37:26.391854 14293 layer_factory.hpp:77] Creating layer conv5
I0516 04:37:26.391865 14293 net.cpp:106] Creating Layer conv5
I0516 04:37:26.391870 14293 net.cpp:454] conv5 <- conv4
I0516 04:37:26.391878 14293 net.cpp:411] conv5 -> conv5
I0516 04:37:26.395349 14293 net.cpp:150] Setting up conv5
I0516 04:37:26.395378 14293 net.cpp:157] Top shape: 1 256 15 15 (57600)
I0516 04:37:26.395381 14293 net.cpp:165] Memory required for data: 20125056
I0516 04:37:26.395401 14293 layer_factory.hpp:77] Creating layer relu5
I0516 04:37:26.395414 14293 net.cpp:106] Creating Layer relu5
I0516 04:37:26.395419 14293 net.cpp:454] relu5 <- conv5
I0516 04:37:26.395432 14293 net.cpp:397] relu5 -> conv5 (in-place)
I0516 04:37:26.395586 14293 net.cpp:150] Setting up relu5
I0516 04:37:26.395596 14293 net.cpp:157] Top shape: 1 256 15 15 (57600)
I0516 04:37:26.395599 14293 net.cpp:165] Memory required for data: 20355456
I0516 04:37:26.395602 14293 layer_factory.hpp:77] Creating layer conv5_relu5_0_split
I0516 04:37:26.395612 14293 net.cpp:106] Creating Layer conv5_relu5_0_split
I0516 04:37:26.395615 14293 net.cpp:454] conv5_relu5_0_split <- conv5
I0516 04:37:26.395622 14293 net.cpp:411] conv5_relu5_0_split -> conv5_relu5_0_split_0
I0516 04:37:26.395632 14293 net.cpp:411] conv5_relu5_0_split -> conv5_relu5_0_split_1
I0516 04:37:26.395679 14293 net.cpp:150] Setting up conv5_relu5_0_split
I0516 04:37:26.395687 14293 net.cpp:157] Top shape: 1 256 15 15 (57600)
I0516 04:37:26.395692 14293 net.cpp:157] Top shape: 1 256 15 15 (57600)
I0516 04:37:26.395695 14293 net.cpp:165] Memory required for data: 20816256
I0516 04:37:26.395699 14293 layer_factory.hpp:77] Creating layer rpn_conv/3x3
I0516 04:37:26.395714 14293 net.cpp:106] Creating Layer rpn_conv/3x3
I0516 04:37:26.395733 14293 net.cpp:454] rpn_conv/3x3 <- conv5_relu5_0_split_0
I0516 04:37:26.395750 14293 net.cpp:411] rpn_conv/3x3 -> rpn/output
I0516 04:37:26.402467 14293 net.cpp:150] Setting up rpn_conv/3x3
I0516 04:37:26.402493 14293 net.cpp:157] Top shape: 1 256 15 15 (57600)
I0516 04:37:26.402496 14293 net.cpp:165] Memory required for data: 21046656
I0516 04:37:26.402508 14293 layer_factory.hpp:77] Creating layer rpn_relu/3x3
I0516 04:37:26.402525 14293 net.cpp:106] Creating Layer rpn_relu/3x3
I0516 04:37:26.402531 14293 net.cpp:454] rpn_relu/3x3 <- rpn/output
I0516 04:37:26.402539 14293 net.cpp:397] rpn_relu/3x3 -> rpn/output (in-place)
I0516 04:37:26.402742 14293 net.cpp:150] Setting up rpn_relu/3x3
I0516 04:37:26.402752 14293 net.cpp:157] Top shape: 1 256 15 15 (57600)
I0516 04:37:26.402755 14293 net.cpp:165] Memory required for data: 21277056
I0516 04:37:26.402760 14293 layer_factory.hpp:77] Creating layer rpn/output_rpn_relu/3x3_0_split
I0516 04:37:26.402766 14293 net.cpp:106] Creating Layer rpn/output_rpn_relu/3x3_0_split
I0516 04:37:26.402770 14293 net.cpp:454] rpn/output_rpn_relu/3x3_0_split <- rpn/output
I0516 04:37:26.402777 14293 net.cpp:411] rpn/output_rpn_relu/3x3_0_split -> rpn/output_rpn_relu/3x3_0_split_0
I0516 04:37:26.402787 14293 net.cpp:411] rpn/output_rpn_relu/3x3_0_split -> rpn/output_rpn_relu/3x3_0_split_1
I0516 04:37:26.402833 14293 net.cpp:150] Setting up rpn/output_rpn_relu/3x3_0_split
I0516 04:37:26.402840 14293 net.cpp:157] Top shape: 1 256 15 15 (57600)
I0516 04:37:26.402845 14293 net.cpp:157] Top shape: 1 256 15 15 (57600)
I0516 04:37:26.402848 14293 net.cpp:165] Memory required for data: 21737856
I0516 04:37:26.402851 14293 layer_factory.hpp:77] Creating layer rpn_cls_score
I0516 04:37:26.402863 14293 net.cpp:106] Creating Layer rpn_cls_score
I0516 04:37:26.402882 14293 net.cpp:454] rpn_cls_score <- rpn/output_rpn_relu/3x3_0_split_0
I0516 04:37:26.402894 14293 net.cpp:411] rpn_cls_score -> rpn_cls_score
I0516 04:37:26.404271 14293 net.cpp:150] Setting up rpn_cls_score
I0516 04:37:26.404281 14293 net.cpp:157] Top shape: 1 18 15 15 (4050)
I0516 04:37:26.404284 14293 net.cpp:165] Memory required for data: 21754056
I0516 04:37:26.404289 14293 layer_factory.hpp:77] Creating layer rpn_bbox_pred
I0516 04:37:26.404299 14293 net.cpp:106] Creating Layer rpn_bbox_pred
I0516 04:37:26.404301 14293 net.cpp:454] rpn_bbox_pred <- rpn/output_rpn_relu/3x3_0_split_1
I0516 04:37:26.404307 14293 net.cpp:411] rpn_bbox_pred -> rpn_bbox_pred
I0516 04:37:26.405761 14293 net.cpp:150] Setting up rpn_bbox_pred
I0516 04:37:26.405787 14293 net.cpp:157] Top shape: 1 36 15 15 (8100)
I0516 04:37:26.405791 14293 net.cpp:165] Memory required for data: 21786456
I0516 04:37:26.405802 14293 layer_factory.hpp:77] Creating layer rpn_cls_score_reshape
I0516 04:37:26.405818 14293 net.cpp:106] Creating Layer rpn_cls_score_reshape
I0516 04:37:26.405822 14293 net.cpp:454] rpn_cls_score_reshape <- rpn_cls_score
I0516 04:37:26.405833 14293 net.cpp:411] rpn_cls_score_reshape -> rpn_cls_score_reshape
I0516 04:37:26.405867 14293 net.cpp:150] Setting up rpn_cls_score_reshape
I0516 04:37:26.405874 14293 net.cpp:157] Top shape: 1 2 135 15 (4050)
I0516 04:37:26.405877 14293 net.cpp:165] Memory required for data: 21802656
I0516 04:37:26.405881 14293 layer_factory.hpp:77] Creating layer rpn_cls_prob
I0516 04:37:26.405889 14293 net.cpp:106] Creating Layer rpn_cls_prob
I0516 04:37:26.405894 14293 net.cpp:454] rpn_cls_prob <- rpn_cls_score_reshape
I0516 04:37:26.405899 14293 net.cpp:411] rpn_cls_prob -> rpn_cls_prob
I0516 04:37:26.406096 14293 net.cpp:150] Setting up rpn_cls_prob
I0516 04:37:26.406105 14293 net.cpp:157] Top shape: 1 2 135 15 (4050)
I0516 04:37:26.406106 14293 net.cpp:165] Memory required for data: 21818856
I0516 04:37:26.406110 14293 layer_factory.hpp:77] Creating layer rpn_cls_prob_reshape
I0516 04:37:26.406114 14293 net.cpp:106] Creating Layer rpn_cls_prob_reshape
I0516 04:37:26.406117 14293 net.cpp:454] rpn_cls_prob_reshape <- rpn_cls_prob
I0516 04:37:26.406126 14293 net.cpp:411] rpn_cls_prob_reshape -> rpn_cls_prob_reshape
I0516 04:37:26.406153 14293 net.cpp:150] Setting up rpn_cls_prob_reshape
I0516 04:37:26.406158 14293 net.cpp:157] Top shape: 1 18 15 15 (4050)
I0516 04:37:26.406162 14293 net.cpp:165] Memory required for data: 21835056
I0516 04:37:26.406163 14293 layer_factory.hpp:77] Creating layer proposal
I0516 04:37:26.407179 14293 net.cpp:106] Creating Layer proposal
I0516 04:37:26.407191 14293 net.cpp:454] proposal <- rpn_cls_prob_reshape
I0516 04:37:26.407197 14293 net.cpp:454] proposal <- rpn_bbox_pred
I0516 04:37:26.407200 14293 net.cpp:454] proposal <- im_info
I0516 04:37:26.407205 14293 net.cpp:411] proposal -> rois
I0516 04:37:26.407901 14293 net.cpp:150] Setting up proposal
I0516 04:37:26.407914 14293 net.cpp:157] Top shape: 1 5 (5)
I0516 04:37:26.407917 14293 net.cpp:165] Memory required for data: 21835076
I0516 04:37:26.407922 14293 layer_factory.hpp:77] Creating layer roi_pool_conv5
I0516 04:37:26.407932 14293 net.cpp:106] Creating Layer roi_pool_conv5
I0516 04:37:26.407937 14293 net.cpp:454] roi_pool_conv5 <- conv5_relu5_0_split_1
I0516 04:37:26.407943 14293 net.cpp:454] roi_pool_conv5 <- rois
I0516 04:37:26.407950 14293 net.cpp:411] roi_pool_conv5 -> roi_pool_conv5
I0516 04:37:26.407959 14293 roi_pooling_layer.cpp:30] Spatial scale: 0.0625
I0516 04:37:26.408023 14293 net.cpp:150] Setting up roi_pool_conv5
I0516 04:37:26.408035 14293 net.cpp:157] Top shape: 1 256 6 6 (9216)
I0516 04:37:26.408040 14293 net.cpp:165] Memory required for data: 21871940
I0516 04:37:26.408043 14293 layer_factory.hpp:77] Creating layer fc6
I0516 04:37:26.408051 14293 net.cpp:106] Creating Layer fc6
I0516 04:37:26.408056 14293 net.cpp:454] fc6 <- roi_pool_conv5
I0516 04:37:26.408062 14293 net.cpp:411] fc6 -> fc6
I0516 04:37:26.492506 14293 net.cpp:150] Setting up fc6
I0516 04:37:26.492548 14293 net.cpp:157] Top shape: 1 4096 (4096)
I0516 04:37:26.492552 14293 net.cpp:165] Memory required for data: 21888324
I0516 04:37:26.492578 14293 layer_factory.hpp:77] Creating layer relu6
I0516 04:37:26.492594 14293 net.cpp:106] Creating Layer relu6
I0516 04:37:26.492599 14293 net.cpp:454] relu6 <- fc6
I0516 04:37:26.492609 14293 net.cpp:397] relu6 -> fc6 (in-place)
I0516 04:37:26.493273 14293 net.cpp:150] Setting up relu6
I0516 04:37:26.493283 14293 net.cpp:157] Top shape: 1 4096 (4096)
I0516 04:37:26.493286 14293 net.cpp:165] Memory required for data: 21904708
I0516 04:37:26.493291 14293 layer_factory.hpp:77] Creating layer drop6
I0516 04:37:26.493299 14293 net.cpp:106] Creating Layer drop6
I0516 04:37:26.493304 14293 net.cpp:454] drop6 <- fc6
I0516 04:37:26.493311 14293 net.cpp:397] drop6 -> fc6 (in-place)
I0516 04:37:26.493343 14293 net.cpp:150] Setting up drop6
I0516 04:37:26.493351 14293 net.cpp:157] Top shape: 1 4096 (4096)
I0516 04:37:26.493355 14293 net.cpp:165] Memory required for data: 21921092
I0516 04:37:26.493357 14293 layer_factory.hpp:77] Creating layer fc7
I0516 04:37:26.493365 14293 net.cpp:106] Creating Layer fc7
I0516 04:37:26.493368 14293 net.cpp:454] fc7 <- fc6
I0516 04:37:26.493372 14293 net.cpp:411] fc7 -> fc7
I0516 04:37:26.531198 14293 net.cpp:150] Setting up fc7
I0516 04:37:26.531255 14293 net.cpp:157] Top shape: 1 4096 (4096)
I0516 04:37:26.531260 14293 net.cpp:165] Memory required for data: 21937476
I0516 04:37:26.531275 14293 layer_factory.hpp:77] Creating layer relu7
I0516 04:37:26.531296 14293 net.cpp:106] Creating Layer relu7
I0516 04:37:26.531301 14293 net.cpp:454] relu7 <- fc7
I0516 04:37:26.531308 14293 net.cpp:397] relu7 -> fc7 (in-place)
I0516 04:37:26.531569 14293 net.cpp:150] Setting up relu7
I0516 04:37:26.531582 14293 net.cpp:157] Top shape: 1 4096 (4096)
I0516 04:37:26.531585 14293 net.cpp:165] Memory required for data: 21953860
I0516 04:37:26.531589 14293 layer_factory.hpp:77] Creating layer drop7
I0516 04:37:26.531599 14293 net.cpp:106] Creating Layer drop7
I0516 04:37:26.531603 14293 net.cpp:454] drop7 <- fc7
I0516 04:37:26.531610 14293 net.cpp:397] drop7 -> fc7 (in-place)
I0516 04:37:26.531641 14293 net.cpp:150] Setting up drop7
I0516 04:37:26.531666 14293 net.cpp:157] Top shape: 1 4096 (4096)
I0516 04:37:26.531682 14293 net.cpp:165] Memory required for data: 21970244
I0516 04:37:26.531697 14293 layer_factory.hpp:77] Creating layer fc7_drop7_0_split
I0516 04:37:26.531707 14293 net.cpp:106] Creating Layer fc7_drop7_0_split
I0516 04:37:26.531709 14293 net.cpp:454] fc7_drop7_0_split <- fc7
I0516 04:37:26.531716 14293 net.cpp:411] fc7_drop7_0_split -> fc7_drop7_0_split_0
I0516 04:37:26.531726 14293 net.cpp:411] fc7_drop7_0_split -> fc7_drop7_0_split_1
I0516 04:37:26.531780 14293 net.cpp:150] Setting up fc7_drop7_0_split
I0516 04:37:26.531788 14293 net.cpp:157] Top shape: 1 4096 (4096)
I0516 04:37:26.531792 14293 net.cpp:157] Top shape: 1 4096 (4096)
I0516 04:37:26.531795 14293 net.cpp:165] Memory required for data: 22003012
I0516 04:37:26.531798 14293 layer_factory.hpp:77] Creating layer cls_score
I0516 04:37:26.531816 14293 net.cpp:106] Creating Layer cls_score
I0516 04:37:26.531821 14293 net.cpp:454] cls_score <- fc7_drop7_0_split_0
I0516 04:37:26.531827 14293 net.cpp:411] cls_score -> cls_score
I0516 04:37:26.531919 14293 net.cpp:150] Setting up cls_score
I0516 04:37:26.531926 14293 net.cpp:157] Top shape: 1 2 (2)
I0516 04:37:26.531929 14293 net.cpp:165] Memory required for data: 22003020
I0516 04:37:26.531934 14293 layer_factory.hpp:77] Creating layer bbox_pred
I0516 04:37:26.531939 14293 net.cpp:106] Creating Layer bbox_pred
I0516 04:37:26.531940 14293 net.cpp:454] bbox_pred <- fc7_drop7_0_split_1
I0516 04:37:26.531945 14293 net.cpp:411] bbox_pred -> bbox_pred
I0516 04:37:26.532994 14293 net.cpp:150] Setting up bbox_pred
I0516 04:37:26.533008 14293 net.cpp:157] Top shape: 1 8 (8)
I0516 04:37:26.533010 14293 net.cpp:165] Memory required for data: 22003052
I0516 04:37:26.533017 14293 layer_factory.hpp:77] Creating layer cls_prob
I0516 04:37:26.533025 14293 net.cpp:106] Creating Layer cls_prob
I0516 04:37:26.533027 14293 net.cpp:454] cls_prob <- cls_score
I0516 04:37:26.533032 14293 net.cpp:411] cls_prob -> cls_prob
I0516 04:37:26.533279 14293 net.cpp:150] Setting up cls_prob
I0516 04:37:26.533288 14293 net.cpp:157] Top shape: 1 2 (2)
I0516 04:37:26.533289 14293 net.cpp:165] Memory required for data: 22003060
I0516 04:37:26.533293 14293 net.cpp:228] cls_prob does not need backward computation.
I0516 04:37:26.533295 14293 net.cpp:228] bbox_pred does not need backward computation.
I0516 04:37:26.533298 14293 net.cpp:228] cls_score does not need backward computation.
I0516 04:37:26.533301 14293 net.cpp:228] fc7_drop7_0_split does not need backward computation.
…
