…
stepsize: 50000
snapshot: 0
snapshot_prefix: "zf_faster_rcnn"
average_loss: 100
iter_size: 2
I0219 23:01:46.641211  4074 solver.cpp:81] Creating training net from train_net file: models/pascal_voc/ZF/faster_rcnn_end2end/train.prototxt
I0219 23:01:46.671155  4074 net.cpp:49] Initializing net from parameters: 
name: "ZF"
state {
  phase: TRAIN
}
layer {
  name: "input-data"
  type: "Python"
  top: "data"
  top: "im_info"
  top: "gt_boxes"
  python_param {
    module: "roi_data_layer.layer"
    layer: "RoIDataLayer"
    param_str: "\'num_classes\': 2"
  }
}
layer {
  name: "conv1"
  type: "Convolution"
  bottom: "data"
  top: "conv1"
  param {
    lr_mult: 1
  }
  param {
    lr_mult: 2
  }
  convolution_param {
    num_output: 96
    pad: 3
    kernel_size: 7
    stride: 2
  }
}
layer {
  name: "relu1"
  type: "ReLU"
  bottom: "conv1"
  top: "conv1"
}
layer {
  name: "norm1"
  type: "LRN"
  bottom: "conv1"
  top: "norm1"
  lrn_param {
    local_size: 3
    alpha: 5e-05
    beta: 0.75
    norm_region: WITHIN_CHANNEL
    engine: CAFFE
  }
}
layer {
  name: "pool1"
  type: "Pooling"
  bottom: "norm1"
  top: "pool1"
  pooling_param {
    pool: MAX
    kernel_size: 3
    stride: 2
    pad: 1
  }
}
layer {
  name: "conv2"
  type: "Convolution"
  bottom: "pool1"
  top: "conv2"
  param {
    lr_mult: 1
  }
  param {
    lr_mult: 2
  }
  convolution_param {
    num_output: 256
    pad: 2
    kernel_size: 5
    stride: 2
  }
}
layer {
  name: "relu2"
  type: "ReLU"
  bottom: "conv2"
  top: "conv2"
}
layer {
  name: "norm2"
  type: "LRN"
  bottom: "conv2"
  top: "norm2"
  lrn_param {
    local_size: 3
    alpha: 5e-05
    beta: 0.75
    norm_region: WITHIN_CHANNEL
    engine: CAFFE
  }
}
layer {
  name: "pool2"
  type: "Pooling"
  bottom: "norm2"
  top: "pool2"
  pooling_param {
    pool: MAX
    kernel_size: 3
    stride: 2
    pad: 1
  }
}
layer {
  name: "conv3"
  type: "Convolution"
  bottom: "pool2"
  top: "conv3"
  param {
    lr_mult: 1
  }
  param {
    lr_mult: 2
  }
  convolution_param {
    num_output: 384
    pad: 1
    kernel_size: 3
    stride: 1
  }
}
layer {
  name: "relu3"
  type: "ReLU"
  bottom: "conv3"
  top: "conv3"
}
layer {
  name: "conv4"
  type: "Convolution"
  bottom: "conv3"
  top: "conv4"
  param {
    lr_mult: 1
  }
  param {
    lr_mult: 2
  }
  convolution_param {
    num_output: 384
    pad: 1
    kernel_size: 3
    stride: 1
  }
}
layer {
  name: "relu4"
  type: "ReLU"
  bottom: "conv4"
  top: "conv4"
}
layer {
  name: "conv5"
  type: "Convolution"
  bottom: "conv4"
  top: "conv5"
  param {
    lr_mult: 1
  }
  param {
    lr_mult: 2
  }
  convolution_param {
    num_output: 256
    pad: 1
    kernel_size: 3
    stride: 1
  }
}
layer {
  name: "relu5"
  type: "ReLU"
  bottom: "conv5"
  top: "conv5"
}
layer {
  name: "concat"
  type: "Concat"
  bottom: "conv3"
  bottom: "conv4"
  bottom: "conv5"
  top: "concat"
  concat_param {
    axis: 1
  }
}
layer {
  name: "normconcat"
  type: "LRN"
  bottom: "concat"
  top: "concatfeature"
  lrn_param {
    local_size: 3
    alpha: 5e-05
    beta: 0.75
    norm_region: WITHIN_CHANNEL
    engine: CAFFE
  }
}
layer {
  name: "conv6"
  type: "Convolution"
  bottom: "concatfeature"
  top: "conv6"
  param {
    lr_mult: 1
  }
  param {
    lr_mult: 2
  }
  convolution_param {
    num_output: 256
    pad: 0
    kernel_size: 1
    stride: 1
    weight_filler {
      type: "xavier"
    }
    bias_filler {
      type: "constant"
    }
  }
}
layer {
  name: "reluconv"
  type: "ReLU"
  bottom: "conv6"
  top: "conv6"
}
layer {
  name: "rpn_conv/3x3"
  type: "Convolution"
  bottom: "conv6"
  top: "rpn/output"
  param {
    lr_mult: 1
  }
  param {
    lr_mult: 2
  }
  convolution_param {
    num_output: 256
    pad: 1
    kernel_size: 3
    stride: 1
    weight_filler {
      type: "gaussian"
      std: 0.01
    }
    bias_filler {
      type: "constant"
      value: 0
    }
  }
}
layer {
  name: "rpn_relu/3x3"
  type: "ReLU"
  bottom: "rpn/output"
  top: "rpn/output"
}
layer {
  name: "rpn_cls_score"
  type: "Convolution"
  bottom: "rpn/output"
  top: "rpn_cls_score"
  param {
    lr_mult: 1
  }
  param {
    lr_mult: 2
  }
  convolution_param {
    num_output: 12
    pad: 0
    kernel_size: 1
    stride: 1
    weight_filler {
      type: "gaussian"
      std: 0.01
    }
    bias_filler {
      type: "constant"
      value: 0
    }
  }
}
layer {
  name: "rpn_bbox_pred"
  type: "Convolution"
  bottom: "rpn/output"
  top: "rpn_bbox_pred"
  param {
    lr_mult: 1
  }
  param {
    lr_mult: 2
  }
  convolution_param {
    num_output: 24
    pad: 0
    kernel_size: 1
    stride: 1
    weight_filler {
      type: "gaussian"
      std: 0.01
    }
    bias_filler {
      type: "constant"
      value: 0
    }
  }
}
layer {
  name: "rpn_cls_score_reshape"
  type: "Reshape"
  bottom: "rpn_cls_score"
  top: "rpn_cls_score_reshape"
  reshape_param {
    shape {
      dim: 0
      dim: 2
      dim: -1
      dim: 0
    }
  }
}
layer {
  name: "rpn-data"
  type: "Python"
  bottom: "rpn_cls_score"
  bottom: "gt_boxes"
  bottom: "im_info"
  bottom: "data"
  top: "rpn_labels"
  top: "rpn_bbox_targets"
  top: "rpn_bbox_inside_weights"
  top: "rpn_bbox_outside_weights"
  python_param {
    module: "rpn.anchor_target_layer"
    layer: "AnchorTargetLayer"
    param_str: "\'feat_stride\': 16"
  }
}
layer {
  name: "rpn_loss_cls"
  type: "SoftmaxWithLoss"
  bottom: "rpn_cls_score_reshape"
  bottom: "rpn_labels"
  top: "rpn_cls_loss"
  loss_weight: 1
  propagate_down: true
  propagate_down: false
  loss_param {
    ignore_label: -1
    normalize: true
  }
}
layer {
  name: "rpn_loss_bbox"
  type: "SmoothL1Loss"
  bottom: "rpn_bbox_pred"
  bottom: "rpn_bbox_targets"
  bottom: "rpn_bbox_inside_weights"
  bottom: "rpn_bbox_outside_weights"
  top: "rpn_loss_bbox"
  loss_weight: 1
  smooth_l1_loss_param {
    sigma: 3
  }
}
layer {
  name: "rpn_cls_prob"
  type: "Softmax"
  bottom: "rpn_cls_score_reshape"
  top: "rpn_cls_prob"
}
layer {
  name: "rpn_cls_prob_reshape"
  type: "Reshape"
  bottom: "rpn_cls_prob"
  top: "rpn_cls_prob_reshape"
  reshape_param {
    shape {
      dim: 0
      dim: 12
      dim: -1
      dim: 0
    }
  }
}
layer {
  name: "proposal"
  type: "Python"
  bottom: "rpn_cls_prob_reshape"
  bottom: "rpn_bbox_pred"
  bottom: "im_info"
  top: "rpn_rois"
  python_param {
    module: "rpn.proposal_layer"
    layer: "ProposalLayer"
    param_str: "\'feat_stride\': 16"
  }
}
layer {
  name: "roi-data"
  type: "Python"
  bottom: "rpn_rois"
  bottom: "gt_boxes"
  top: "rois"
  top: "labels"
  top: "bbox_targets"
  top: "bbox_inside_weights"
  top: "bbox_outside_weights"
  python_param {
    module: "rpn.proposal_target_layer"
    layer: "ProposalTargetLayer"
    param_str: "\'num_classes\': 2"
  }
}
layer {
  name: "roi_pool_conv5"
  type: "ROIPooling"
  bottom: "conv6"
  bottom: "rois"
  top: "roi_pool_conv5"
  roi_pooling_param {
    pooled_h: 6
    pooled_w: 6
    spatial_scale: 0.0625
  }
}
layer {
  name: "fc6"
  type: "InnerProduct"
  bottom: "roi_pool_conv5"
  top: "fc6"
  param {
    lr_mult: 1
  }
  param {
    lr_mult: 2
  }
  inner_product_param {
    num_output: 4096
  }
}
layer {
  name: "relu6"
  type: "ReLU"
  bottom: "fc6"
  top: "fc6"
}
layer {
  name: "drop6"
  type: "Dropout"
  bottom: "fc6"
  top: "fc6"
  dropout_param {
    dropout_ratio: 0.5
    scale_train: false
  }
}
layer {
  name: "fc7"
  type: "InnerProduct"
  bottom: "fc6"
  top: "fc7"
  param {
    lr_mult: 1
  }
  param {
    lr_mult: 2
  }
  inner_product_param {
    num_output: 4096
  }
}
layer {
  name: "relu7"
  type: "ReLU"
  bottom: "fc7"
  top: "fc7"
}
layer {
  name: "drop7"
  type: "Dropout"
  bottom: "fc7"
  top: "fc7"
  dropout_param {
    dropout_ratio: 0.5
    scale_train: false
  }
}
layer {
  name: "cls_score"
  type: "InnerProduct"
  bottom: "fc7"
  top: "cls_score"
  param {
    lr_mult: 1
  }
  param {
    lr_mult: 2
  }
  inner_product_param {
    num_output: 2
    weight_filler {
      type: "gaussian"
      std: 0.01
    }
    bias_filler {
      type: "constant"
      value: 0
    }
  }
}
layer {
  name: "bbox_pred"
  type: "InnerProduct"
  bottom: "fc7"
  top: "bbox_pred"
  param {
    lr_mult: 1
  }
  param {
    lr_mult: 2
  }
  inner_product_param {
    num_output: 8
    weight_filler {
      type: "gaussian"
      std: 0.001
    }
    bias_filler {
      type: "constant"
      value: 0
    }
  }
}
layer {
  name: "loss_cls"
  type: "SoftmaxWithLoss"
  bottom: "cls_score"
  bottom: "labels"
  top: "cls_loss"
  loss_weight: 1
  propagate_down: true
  propagate_down: false
  loss_param {
    ignore_label: -1
    normalize: true
  }
}
layer {
  name: "loss_bbox"
  type: "SmoothL1Loss"
  bottom: "bbox_pred"
  bottom: "bbox_targets"
  bottom: "bbox_inside_weights"
  bottom: "bbox_outside_weights"
  top: "bbox_loss"
  loss_weight: 1
}
I0219 23:01:46.671408  4074 layer_factory.hpp:77] Creating layer input-data
I0219 23:01:47.929134  4074 net.cpp:106] Creating Layer input-data
I0219 23:01:47.929158  4074 net.cpp:411] input-data -> data
I0219 23:01:47.945036  4074 net.cpp:411] input-data -> im_info
I0219 23:01:47.945060  4074 net.cpp:411] input-data -> gt_boxes
RoiDataLayer: name_to_top: {'gt_boxes': 2, 'data': 0, 'im_info': 1}
I0219 23:01:48.111402  4074 net.cpp:150] Setting up input-data
I0219 23:01:48.111434  4074 net.cpp:157] Top shape: 1 3 300 500 (450000)
I0219 23:01:48.111440  4074 net.cpp:157] Top shape: 1 3 (3)
I0219 23:01:48.111444  4074 net.cpp:157] Top shape: 1 4 (4)
I0219 23:01:48.111448  4074 net.cpp:165] Memory required for data: 1800028
I0219 23:01:48.111456  4074 layer_factory.hpp:77] Creating layer data_input-data_0_split
I0219 23:01:48.111474  4074 net.cpp:106] Creating Layer data_input-data_0_split
I0219 23:01:48.111480  4074 net.cpp:454] data_input-data_0_split <- data
I0219 23:01:48.111488  4074 net.cpp:411] data_input-data_0_split -> data_input-data_0_split_0
I0219 23:01:48.111497  4074 net.cpp:411] data_input-data_0_split -> data_input-data_0_split_1
I0219 23:01:48.111536  4074 net.cpp:150] Setting up data_input-data_0_split
I0219 23:01:48.111543  4074 net.cpp:157] Top shape: 1 3 300 500 (450000)
I0219 23:01:48.111548  4074 net.cpp:157] Top shape: 1 3 300 500 (450000)
I0219 23:01:48.111551  4074 net.cpp:165] Memory required for data: 5400028
I0219 23:01:48.111554  4074 layer_factory.hpp:77] Creating layer im_info_input-data_1_split
I0219 23:01:48.111562  4074 net.cpp:106] Creating Layer im_info_input-data_1_split
I0219 23:01:48.111564  4074 net.cpp:454] im_info_input-data_1_split <- im_info
I0219 23:01:48.111570  4074 net.cpp:411] im_info_input-data_1_split -> im_info_input-data_1_split_0
I0219 23:01:48.111577  4074 net.cpp:411] im_info_input-data_1_split -> im_info_input-data_1_split_1
I0219 23:01:48.111611  4074 net.cpp:150] Setting up im_info_input-data_1_split
I0219 23:01:48.111618  4074 net.cpp:157] Top shape: 1 3 (3)
I0219 23:01:48.111621  4074 net.cpp:157] Top shape: 1 3 (3)
I0219 23:01:48.111624  4074 net.cpp:165] Memory required for data: 5400052
I0219 23:01:48.111627  4074 layer_factory.hpp:77] Creating layer gt_boxes_input-data_2_split
I0219 23:01:48.111632  4074 net.cpp:106] Creating Layer gt_boxes_input-data_2_split
I0219 23:01:48.111636  4074 net.cpp:454] gt_boxes_input-data_2_split <- gt_boxes
I0219 23:01:48.111642  4074 net.cpp:411] gt_boxes_input-data_2_split -> gt_boxes_input-data_2_split_0
I0219 23:01:48.111650  4074 net.cpp:411] gt_boxes_input-data_2_split -> gt_boxes_input-data_2_split_1
I0219 23:01:48.111681  4074 net.cpp:150] Setting up gt_boxes_input-data_2_split
I0219 23:01:48.111687  4074 net.cpp:157] Top shape: 1 4 (4)
I0219 23:01:48.111691  4074 net.cpp:157] Top shape: 1 4 (4)
I0219 23:01:48.111694  4074 net.cpp:165] Memory required for data: 5400084
I0219 23:01:48.111697  4074 layer_factory.hpp:77] Creating layer conv1
I0219 23:01:48.111716  4074 net.cpp:106] Creating Layer conv1
I0219 23:01:48.111721  4074 net.cpp:454] conv1 <- data_input-data_0_split_0
I0219 23:01:48.111728  4074 net.cpp:411] conv1 -> conv1
I0219 23:01:50.199767  4074 net.cpp:150] Setting up conv1
I0219 23:01:50.199812  4074 net.cpp:157] Top shape: 1 96 150 250 (3600000)
I0219 23:01:50.199820  4074 net.cpp:165] Memory required for data: 19800084
I0219 23:01:50.199849  4074 layer_factory.hpp:77] Creating layer relu1
I0219 23:01:50.199868  4074 net.cpp:106] Creating Layer relu1
I0219 23:01:50.199882  4074 net.cpp:454] relu1 <- conv1
I0219 23:01:50.199899  4074 net.cpp:397] relu1 -> conv1 (in-place)
I0219 23:01:50.200309  4074 net.cpp:150] Setting up relu1
I0219 23:01:50.200333  4074 net.cpp:157] Top shape: 1 96 150 250 (3600000)
I0219 23:01:50.200341  4074 net.cpp:165] Memory required for data: 34200084
I0219 23:01:50.200350  4074 layer_factory.hpp:77] Creating layer norm1
I0219 23:01:50.200366  4074 net.cpp:106] Creating Layer norm1
I0219 23:01:50.200372  4074 net.cpp:454] norm1 <- conv1
I0219 23:01:50.200392  4074 net.cpp:411] norm1 -> norm1
I0219 23:01:50.200613  4074 net.cpp:150] Setting up norm1
I0219 23:01:50.200631  4074 net.cpp:157] Top shape: 1 96 150 250 (3600000)
I0219 23:01:50.200637  4074 net.cpp:165] Memory required for data: 48600084
I0219 23:01:50.200644  4074 layer_factory.hpp:77] Creating layer pool1
I0219 23:01:50.200655  4074 net.cpp:106] Creating Layer pool1
I0219 23:01:50.200662  4074 net.cpp:454] pool1 <- norm1
I0219 23:01:50.200672  4074 net.cpp:411] pool1 -> pool1
I0219 23:01:50.200738  4074 net.cpp:150] Setting up pool1
I0219 23:01:50.200752  4074 net.cpp:157] Top shape: 1 96 76 126 (919296)
I0219 23:01:50.200758  4074 net.cpp:165] Memory required for data: 52277268
I0219 23:01:50.200765  4074 layer_factory.hpp:77] Creating layer conv2
I0219 23:01:50.200786  4074 net.cpp:106] Creating Layer conv2
I0219 23:01:50.200793  4074 net.cpp:454] conv2 <- pool1
I0219 23:01:50.200804  4074 net.cpp:411] conv2 -> conv2
I0219 23:01:50.213569  4074 net.cpp:150] Setting up conv2
I0219 23:01:50.213600  4074 net.cpp:157] Top shape: 1 256 38 63 (612864)
I0219 23:01:50.213605  4074 net.cpp:165] Memory required for data: 54728724
I0219 23:01:50.213624  4074 layer_factory.hpp:77] Creating layer relu2
I0219 23:01:50.213639  4074 net.cpp:106] Creating Layer relu2
I0219 23:01:50.213645  4074 net.cpp:454] relu2 <- conv2
I0219 23:01:50.213654  4074 net.cpp:397] relu2 -> conv2 (in-place)
I0219 23:01:50.214257  4074 net.cpp:150] Setting up relu2
I0219 23:01:50.214273  4074 net.cpp:157] Top shape: 1 256 38 63 (612864)
I0219 23:01:50.214278  4074 net.cpp:165] Memory required for data: 57180180
I0219 23:01:50.214283  4074 layer_factory.hpp:77] Creating layer norm2
I0219 23:01:50.214296  4074 net.cpp:106] Creating Layer norm2
I0219 23:01:50.214301  4074 net.cpp:454] norm2 <- conv2
I0219 23:01:50.214310  4074 net.cpp:411] norm2 -> norm2
I0219 23:01:50.214462  4074 net.cpp:150] Setting up norm2
I0219 23:01:50.214475  4074 net.cpp:157] Top shape: 1 256 38 63 (612864)
I0219 23:01:50.214480  4074 net.cpp:165] Memory required for data: 59631636
I0219 23:01:50.214484  4074 layer_factory.hpp:77] Creating layer pool2
I0219 23:01:50.214491  4074 net.cpp:106] Creating Layer pool2
I0219 23:01:50.214496  4074 net.cpp:454] pool2 <- norm2
I0219 23:01:50.214503  4074 net.cpp:411] pool2 -> pool2
I0219 23:01:50.214551  4074 net.cpp:150] Setting up pool2
I0219 23:01:50.214560  4074 net.cpp:157] Top shape: 1 256 20 32 (163840)
I0219 23:01:50.214563  4074 net.cpp:165] Memory required for data: 60286996
I0219 23:01:50.214568  4074 layer_factory.hpp:77] Creating layer conv3
I0219 23:01:50.214581  4074 net.cpp:106] Creating Layer conv3
I0219 23:01:50.214588  4074 net.cpp:454] conv3 <- pool2
I0219 23:01:50.214596  4074 net.cpp:411] conv3 -> conv3
I0219 23:01:50.230029  4074 net.cpp:150] Setting up conv3
I0219 23:01:50.230059  4074 net.cpp:157] Top shape: 1 384 20 32 (245760)
I0219 23:01:50.230062  4074 net.cpp:165] Memory required for data: 61270036
I0219 23:01:50.230083  4074 layer_factory.hpp:77] Creating layer relu3
I0219 23:01:50.230099  4074 net.cpp:106] Creating Layer relu3
I0219 23:01:50.230104  4074 net.cpp:454] relu3 <- conv3
I0219 23:01:50.230111  4074 net.cpp:397] relu3 -> conv3 (in-place)
I0219 23:01:50.230496  4074 net.cpp:150] Setting up relu3
I0219 23:01:50.230509  4074 net.cpp:157] Top shape: 1 384 20 32 (245760)
I0219 23:01:50.230510  4074 net.cpp:165] Memory required for data: 62253076
I0219 23:01:50.230514  4074 layer_factory.hpp:77] Creating layer conv3_relu3_0_split
I0219 23:01:50.230521  4074 net.cpp:106] Creating Layer conv3_relu3_0_split
I0219 23:01:50.230525  4074 net.cpp:454] conv3_relu3_0_split <- conv3
I0219 23:01:50.230531  4074 net.cpp:411] conv3_relu3_0_split -> conv3_relu3_0_split_0
I0219 23:01:50.230541  4074 net.cpp:411] conv3_relu3_0_split -> conv3_relu3_0_split_1
I0219 23:01:50.230581  4074 net.cpp:150] Setting up conv3_relu3_0_split
I0219 23:01:50.230588  4074 net.cpp:157] Top shape: 1 384 20 32 (245760)
I0219 23:01:50.230592  4074 net.cpp:157] Top shape: 1 384 20 32 (245760)
I0219 23:01:50.230593  4074 net.cpp:165] Memory required for data: 64219156
I0219 23:01:50.230597  4074 layer_factory.hpp:77] Creating layer conv4
I0219 23:01:50.230605  4074 net.cpp:106] Creating Layer conv4
I0219 23:01:50.230608  4074 net.cpp:454] conv4 <- conv3_relu3_0_split_0
I0219 23:01:50.230613  4074 net.cpp:411] conv4 -> conv4
I0219 23:01:50.234485  4074 net.cpp:150] Setting up conv4
I0219 23:01:50.234514  4074 net.cpp:157] Top shape: 1 384 20 32 (245760)
I0219 23:01:50.234519  4074 net.cpp:165] Memory required for data: 65202196
I0219 23:01:50.234527  4074 layer_factory.hpp:77] Creating layer relu4
I0219 23:01:50.234545  4074 net.cpp:106] Creating Layer relu4
I0219 23:01:50.234549  4074 net.cpp:454] relu4 <- conv4
I0219 23:01:50.234555  4074 net.cpp:397] relu4 -> conv4 (in-place)
I0219 23:01:50.234711  4074 net.cpp:150] Setting up relu4
I0219 23:01:50.234720  4074 net.cpp:157] Top shape: 1 384 20 32 (245760)
I0219 23:01:50.234724  4074 net.cpp:165] Memory required for data: 66185236
I0219 23:01:50.234726  4074 layer_factory.hpp:77] Creating layer conv4_relu4_0_split
I0219 23:01:50.234731  4074 net.cpp:106] Creating Layer conv4_relu4_0_split
I0219 23:01:50.234735  4074 net.cpp:454] conv4_relu4_0_split <- conv4
I0219 23:01:50.234738  4074 net.cpp:411] conv4_relu4_0_split -> conv4_relu4_0_split_0
I0219 23:01:50.234745  4074 net.cpp:411] conv4_relu4_0_split -> conv4_relu4_0_split_1
I0219 23:01:50.234781  4074 net.cpp:150] Setting up conv4_relu4_0_split
I0219 23:01:50.234786  4074 net.cpp:157] Top shape: 1 384 20 32 (245760)
I0219 23:01:50.234791  4074 net.cpp:157] Top shape: 1 384 20 32 (245760)
I0219 23:01:50.234792  4074 net.cpp:165] Memory required for data: 68151316
I0219 23:01:50.234796  4074 layer_factory.hpp:77] Creating layer conv5
I0219 23:01:50.234804  4074 net.cpp:106] Creating Layer conv5
I0219 23:01:50.234808  4074 net.cpp:454] conv5 <- conv4_relu4_0_split_0
I0219 23:01:50.234814  4074 net.cpp:411] conv5 -> conv5
I0219 23:01:50.240012  4074 net.cpp:150] Setting up conv5
I0219 23:01:50.240034  4074 net.cpp:157] Top shape: 1 256 20 32 (163840)
I0219 23:01:50.240038  4074 net.cpp:165] Memory required for data: 68806676
I0219 23:01:50.240051  4074 layer_factory.hpp:77] Creating layer relu5
I0219 23:01:50.240059  4074 net.cpp:106] Creating Layer relu5
I0219 23:01:50.240062  4074 net.cpp:454] relu5 <- conv5
I0219 23:01:50.240067  4074 net.cpp:397] relu5 -> conv5 (in-place)
I0219 23:01:50.240440  4074 net.cpp:150] Setting up relu5
I0219 23:01:50.240451  4074 net.cpp:157] Top shape: 1 256 20 32 (163840)
I0219 23:01:50.240453  4074 net.cpp:165] Memory required for data: 69462036
I0219 23:01:50.240458  4074 layer_factory.hpp:77] Creating layer concat
I0219 23:01:50.240464  4074 net.cpp:106] Creating Layer concat
I0219 23:01:50.240468  4074 net.cpp:454] concat <- conv3_relu3_0_split_1
I0219 23:01:50.240471  4074 net.cpp:454] concat <- conv4_relu4_0_split_1
I0219 23:01:50.240474  4074 net.cpp:454] concat <- conv5
I0219 23:01:50.240479  4074 net.cpp:411] concat -> concat
I0219 23:01:50.240505  4074 net.cpp:150] Setting up concat
I0219 23:01:50.240511  4074 net.cpp:157] Top shape: 1 1024 20 32 (655360)
I0219 23:01:50.240514  4074 net.cpp:165] Memory required for data: 72083476
I0219 23:01:50.240516  4074 layer_factory.hpp:77] Creating layer normconcat
I0219 23:01:50.240523  4074 net.cpp:106] Creating Layer normconcat
I0219 23:01:50.240526  4074 net.cpp:454] normconcat <- concat
I0219 23:01:50.240530  4074 net.cpp:411] normconcat -> concatfeature
I0219 23:01:50.240617  4074 net.cpp:150] Setting up normconcat
I0219 23:01:50.240623  4074 net.cpp:157] Top shape: 1 1024 20 32 (655360)
I0219 23:01:50.240625  4074 net.cpp:165] Memory required for data: 74704916
I0219 23:01:50.240628  4074 layer_factory.hpp:77] Creating layer conv6
I0219 23:01:50.240636  4074 net.cpp:106] Creating Layer conv6
I0219 23:01:50.240639  4074 net.cpp:454] conv6 <- concatfeature
I0219 23:01:50.240645  4074 net.cpp:411] conv6 -> conv6
I0219 23:01:50.243492  4074 net.cpp:150] Setting up conv6
I0219 23:01:50.243507  4074 net.cpp:157] Top shape: 1 256 20 32 (163840)
I0219 23:01:50.243510  4074 net.cpp:165] Memory required for data: 75360276
I0219 23:01:50.243516  4074 layer_factory.hpp:77] Creating layer reluconv
I0219 23:01:50.243523  4074 net.cpp:106] Creating Layer reluconv
I0219 23:01:50.243526  4074 net.cpp:454] reluconv <- conv6
I0219 23:01:50.243532  4074 net.cpp:397] reluconv -> conv6 (in-place)
I0219 23:01:50.243922  4074 net.cpp:150] Setting up reluconv
I0219 23:01:50.243933  4074 net.cpp:157] Top shape: 1 256 20 32 (163840)
I0219 23:01:50.243935  4074 net.cpp:165] Memory required for data: 76015636
I0219 23:01:50.243938  4074 layer_factory.hpp:77] Creating layer conv6_reluconv_0_split
I0219 23:01:50.243944  4074 net.cpp:106] Creating Layer conv6_reluconv_0_split
I0219 23:01:50.243947  4074 net.cpp:454] conv6_reluconv_0_split <- conv6
I0219 23:01:50.243953  4074 net.cpp:411] conv6_reluconv_0_split -> conv6_reluconv_0_split_0
I0219 23:01:50.243959  4074 net.cpp:411] conv6_reluconv_0_split -> conv6_reluconv_0_split_1
I0219 23:01:50.243999  4074 net.cpp:150] Setting up conv6_reluconv_0_split
I0219 23:01:50.244004  4074 net.cpp:157] Top shape: 1 256 20 32 (163840)
I0219 23:01:50.244009  4074 net.cpp:157] Top shape: 1 256 20 32 (163840)
I0219 23:01:50.244010  4074 net.cpp:165] Memory required for data: 77326356
I0219 23:01:50.244012  4074 layer_factory.hpp:77] Creating layer rpn_conv/3x3
I0219 23:01:50.244022  4074 net.cpp:106] Creating Layer rpn_conv/3x3
I0219 23:01:50.244024  4074 net.cpp:454] rpn_conv/3x3 <- conv6_reluconv_0_split_0
I0219 23:01:50.244031  4074 net.cpp:411] rpn_conv/3x3 -> rpn/output
I0219 23:01:50.251368  4074 net.cpp:150] Setting up rpn_conv/3x3
I0219 23:01:50.251389  4074 net.cpp:157] Top shape: 1 256 20 32 (163840)
I0219 23:01:50.251391  4074 net.cpp:165] Memory required for data: 77981716
I0219 23:01:50.251399  4074 layer_factory.hpp:77] Creating layer rpn_relu/3x3
I0219 23:01:50.251405  4074 net.cpp:106] Creating Layer rpn_relu/3x3
I0219 23:01:50.251410  4074 net.cpp:454] rpn_relu/3x3 <- rpn/output
I0219 23:01:50.251413  4074 net.cpp:397] rpn_relu/3x3 -> rpn/output (in-place)
I0219 23:01:50.251574  4074 net.cpp:150] Setting up rpn_relu/3x3
I0219 23:01:50.251583  4074 net.cpp:157] Top shape: 1 256 20 32 (163840)
I0219 23:01:50.251586  4074 net.cpp:165] Memory required for data: 78637076
I0219 23:01:50.251588  4074 layer_factory.hpp:77] Creating layer rpn/output_rpn_relu/3x3_0_split
I0219 23:01:50.251595  4074 net.cpp:106] Creating Layer rpn/output_rpn_relu/3x3_0_split
I0219 23:01:50.251597  4074 net.cpp:454] rpn/output_rpn_relu/3x3_0_split <- rpn/output
I0219 23:01:50.251601  4074 net.cpp:411] rpn/output_rpn_relu/3x3_0_split -> rpn/output_rpn_relu/3x3_0_split_0
I0219 23:01:50.251608  4074 net.cpp:411] rpn/output_rpn_relu/3x3_0_split -> rpn/output_rpn_relu/3x3_0_split_1
I0219 23:01:50.251646  4074 net.cpp:150] Setting up rpn/output_rpn_relu/3x3_0_split
I0219 23:01:50.251652  4074 net.cpp:157] Top shape: 1 256 20 32 (163840)
I0219 23:01:50.251654  4074 net.cpp:157] Top shape: 1 256 20 32 (163840)
I0219 23:01:50.251657  4074 net.cpp:165] Memory required for data: 79947796
I0219 23:01:50.251659  4074 layer_factory.hpp:77] Creating layer rpn_cls_score
I0219 23:01:50.251670  4074 net.cpp:106] Creating Layer rpn_cls_score
I0219 23:01:50.251675  4074 net.cpp:454] rpn_cls_score <- rpn/output_rpn_relu/3x3_0_split_0
I0219 23:01:50.251680  4074 net.cpp:411] rpn_cls_score -> rpn_cls_score
I0219 23:01:50.253028  4074 net.cpp:150] Setting up rpn_cls_score
I0219 23:01:50.253041  4074 net.cpp:157] Top shape: 1 12 20 32 (7680)
I0219 23:01:50.253043  4074 net.cpp:165] Memory required for data: 79978516
I0219 23:01:50.253048  4074 layer_factory.hpp:77] Creating layer rpn_cls_score_rpn_cls_score_0_split
I0219 23:01:50.253053  4074 net.cpp:106] Creating Layer rpn_cls_score_rpn_cls_score_0_split
I0219 23:01:50.253057  4074 net.cpp:454] rpn_cls_score_rpn_cls_score_0_split <- rpn_cls_score
I0219 23:01:50.253062  4074 net.cpp:411] rpn_cls_score_rpn_cls_score_0_split -> rpn_cls_score_rpn_cls_score_0_split_0
I0219 23:01:50.253068  4074 net.cpp:411] rpn_cls_score_rpn_cls_score_0_split -> rpn_cls_score_rpn_cls_score_0_split_1
I0219 23:01:50.253108  4074 net.cpp:150] Setting up rpn_cls_score_rpn_cls_score_0_split
I0219 23:01:50.253113  4074 net.cpp:157] Top shape: 1 12 20 32 (7680)
I0219 23:01:50.253118  4074 net.cpp:157] Top shape: 1 12 20 32 (7680)
I0219 23:01:50.253119  4074 net.cpp:165] Memory required for data: 80039956
I0219 23:01:50.253123  4074 layer_factory.hpp:77] Creating layer rpn_bbox_pred
I0219 23:01:50.253131  4074 net.cpp:106] Creating Layer rpn_bbox_pred
I0219 23:01:50.253135  4074 net.cpp:454] rpn_bbox_pred <- rpn/output_rpn_relu/3x3_0_split_1
I0219 23:01:50.253139  4074 net.cpp:411] rpn_bbox_pred -> rpn_bbox_pred
I0219 23:01:50.254297  4074 net.cpp:150] Setting up rpn_bbox_pred
I0219 23:01:50.254307  4074 net.cpp:157] Top shape: 1 24 20 32 (15360)
I0219 23:01:50.254310  4074 net.cpp:165] Memory required for data: 80101396
I0219 23:01:50.254320  4074 layer_factory.hpp:77] Creating layer rpn_bbox_pred_rpn_bbox_pred_0_split
I0219 23:01:50.254326  4074 net.cpp:106] Creating Layer rpn_bbox_pred_rpn_bbox_pred_0_split
I0219 23:01:50.254330  4074 net.cpp:454] rpn_bbox_pred_rpn_bbox_pred_0_split <- rpn_bbox_pred
I0219 23:01:50.254334  4074 net.cpp:411] rpn_bbox_pred_rpn_bbox_pred_0_split -> rpn_bbox_pred_rpn_bbox_pred_0_split_0
I0219 23:01:50.254343  4074 net.cpp:411] rpn_bbox_pred_rpn_bbox_pred_0_split -> rpn_bbox_pred_rpn_bbox_pred_0_split_1
I0219 23:01:50.254379  4074 net.cpp:150] Setting up rpn_bbox_pred_rpn_bbox_pred_0_split
I0219 23:01:50.254384  4074 net.cpp:157] Top shape: 1 24 20 32 (15360)
I0219 23:01:50.254387  4074 net.cpp:157] Top shape: 1 24 20 32 (15360)
I0219 23:01:50.254390  4074 net.cpp:165] Memory required for data: 80224276
I0219 23:01:50.254392  4074 layer_factory.hpp:77] Creating layer rpn_cls_score_reshape
I0219 23:01:50.254405  4074 net.cpp:106] Creating Layer rpn_cls_score_reshape
I0219 23:01:50.254408  4074 net.cpp:454] rpn_cls_score_reshape <- rpn_cls_score_rpn_cls_score_0_split_0
I0219 23:01:50.254413  4074 net.cpp:411] rpn_cls_score_reshape -> rpn_cls_score_reshape
I0219 23:01:50.254437  4074 net.cpp:150] Setting up rpn_cls_score_reshape
I0219 23:01:50.254442  4074 net.cpp:157] Top shape: 1 2 120 32 (7680)
I0219 23:01:50.254444  4074 net.cpp:165] Memory required for data: 80254996
I0219 23:01:50.254447  4074 layer_factory.hpp:77] Creating layer rpn_cls_score_reshape_rpn_cls_score_reshape_0_split
I0219 23:01:50.254452  4074 net.cpp:106] Creating Layer rpn_cls_score_reshape_rpn_cls_score_reshape_0_split
I0219 23:01:50.254454  4074 net.cpp:454] rpn_cls_score_reshape_rpn_cls_score_reshape_0_split <- rpn_cls_score_reshape
I0219 23:01:50.254461  4074 net.cpp:411] rpn_cls_score_reshape_rpn_cls_score_reshape_0_split -> rpn_cls_score_reshape_rpn_cls_score_reshape_0_split_0
I0219 23:01:50.254467  4074 net.cpp:411] rpn_cls_score_reshape_rpn_cls_score_reshape_0_split -> rpn_cls_score_reshape_rpn_cls_score_reshape_0_split_1
I0219 23:01:50.254496  4074 net.cpp:150] Setting up rpn_cls_score_reshape_rpn_cls_score_reshape_0_split
I0219 23:01:50.254503  4074 net.cpp:157] Top shape: 1 2 120 32 (7680)
I0219 23:01:50.254505  4074 net.cpp:157] Top shape: 1 2 120 32 (7680)
I0219 23:01:50.254508  4074 net.cpp:165] Memory required for data: 80316436
I0219 23:01:50.254509  4074 layer_factory.hpp:77] Creating layer rpn-data
I0219 23:01:50.270490  4074 net.cpp:106] Creating Layer rpn-data
I0219 23:01:50.270514  4074 net.cpp:454] rpn-data <- rpn_cls_score_rpn_cls_score_0_split_1
I0219 23:01:50.270524  4074 net.cpp:454] rpn-data <- gt_boxes_input-data_2_split_0
I0219 23:01:50.270529  4074 net.cpp:454] rpn-data <- im_info_input-data_1_split_0
I0219 23:01:50.270534  4074 net.cpp:454] rpn-data <- data_input-data_0_split_1
I0219 23:01:50.270539  4074 net.cpp:411] rpn-data -> rpn_labels
I0219 23:01:50.270548  4074 net.cpp:411] rpn-data -> rpn_bbox_targets
I0219 23:01:50.270556  4074 net.cpp:411] rpn-data -> rpn_bbox_inside_weights
I0219 23:01:50.270563  4074 net.cpp:411] rpn-data -> rpn_bbox_outside_weights
I0219 23:01:50.271353  4074 net.cpp:150] Setting up rpn-data
I0219 23:01:50.271368  4074 net.cpp:157] Top shape: 1 1 120 32 (3840)
I0219 23:01:50.271371  4074 net.cpp:157] Top shape: 1 24 20 32 (15360)
I0219 23:01:50.271374  4074 net.cpp:157] Top shape: 1 24 20 32 (15360)
I0219 23:01:50.271378  4074 net.cpp:157] Top shape: 1 24 20 32 (15360)
I0219 23:01:50.271379  4074 net.cpp:165] Memory required for data: 80516116
I0219 23:01:50.271385  4074 layer_factory.hpp:77] Creating layer rpn_loss_cls
I0219 23:01:50.271394  4074 net.cpp:106] Creating Layer rpn_loss_cls
I0219 23:01:50.271399  4074 net.cpp:454] rpn_loss_cls <- rpn_cls_score_reshape_rpn_cls_score_reshape_0_split_0
I0219 23:01:50.271404  4074 net.cpp:454] rpn_loss_cls <- rpn_labels
…
I0219 23:01:50.271927  4074 net.cpp:157] Top shape: (1)
I0219 23:01:50.271930  4074 net.cpp:160]     with loss weight 1
I0219 23:01:50.271934  4074 net.cpp:165] Memory required for data: 80516124
I0219 23:01:50.271936  4074 layer_factory.hpp:77] Creating layer rpn_cls_prob
I0219 23:01:50.271940  4074 net.cpp:106] Creating Layer rpn_cls_prob
I0219 23:01:50.271944  4074 net.cpp:454] rpn_cls_prob <- rpn_cls_score_reshape_rpn_cls_score_reshape_0_split_1
I0219 23:01:50.271947  4074 net.cpp:411] rpn_cls_prob -> rpn_cls_prob
I0219 23:01:50.272423  4074 net.cpp:150] Setting up rpn_cls_prob
I0219 23:01:50.272434  4074 net.cpp:157] Top shape: 1 2 120 32 (7680)
I0219 23:01:50.272436  4074 net.cpp:165] Memory required for data: 80546844
I0219 23:01:50.272440  4074 layer_factory.hpp:77] Creating layer rpn_cls_prob_reshape
I0219 23:01:50.272447  4074 net.cpp:106] Creating Layer rpn_cls_prob_reshape
I0219 23:01:50.272450  4074 net.cpp:454] rpn_cls_prob_reshape <- rpn_cls_prob
I0219 23:01:50.272455  4074 net.cpp:411] rpn_cls_prob_reshape -> rpn_cls_prob_reshape
I0219 23:01:50.272478  4074 net.cpp:150] Setting up rpn_cls_prob_reshape
I0219 23:01:50.272485  4074 net.cpp:157] Top shape: 1 12 20 32 (7680)
I0219 23:01:50.272487  4074 net.cpp:165] Memory required for data: 80577564
I0219 23:01:50.272490  4074 layer_factory.hpp:77] Creating layer proposal
I0219 23:01:50.298825  4074 net.cpp:106] Creating Layer proposal
I0219 23:01:50.298841  4074 net.cpp:454] proposal <- rpn_cls_prob_reshape
I0219 23:01:50.298849  4074 net.cpp:454] proposal <- rpn_bbox_pred_rpn_bbox_pred_0_split_1
I0219 23:01:50.298854  4074 net.cpp:454] proposal <- im_info_input-data_1_split_1
I0219 23:01:50.298861  4074 net.cpp:411] proposal -> rpn_rois
I0219 23:01:50.301530  4074 net.cpp:150] Setting up proposal
I0219 23:01:50.301548  4074 net.cpp:157] Top shape: 1 5 (5)
I0219 23:01:50.301551  4074 net.cpp:165] Memory required for data: 80577584
I0219 23:01:50.301555  4074 layer_factory.hpp:77] Creating layer roi-data
I0219 23:01:50.309170  4074 net.cpp:106] Creating Layer roi-data
I0219 23:01:50.309185  4074 net.cpp:454] roi-data <- rpn_rois
I0219 23:01:50.309192  4074 net.cpp:454] roi-data <- gt_boxes_input-data_2_split_1
I0219 23:01:50.309198  4074 net.cpp:411] roi-data -> rois
I0219 23:01:50.309206  4074 net.cpp:411] roi-data -> labels
I0219 23:01:50.309214  4074 net.cpp:411] roi-data -> bbox_targets
I0219 23:01:50.309222  4074 net.cpp:411] roi-data -> bbox_inside_weights
I0219 23:01:50.309228  4074 net.cpp:411] roi-data -> bbox_outside_weights
I0219 23:01:50.309680  4074 net.cpp:150] Setting up roi-data
I0219 23:01:50.309695  4074 net.cpp:157] Top shape: 1 5 (5)
I0219 23:01:50.309698  4074 net.cpp:157] Top shape: 1 1 (1)
I0219 23:01:50.309702  4074 net.cpp:157] Top shape: 1 8 (8)
I0219 23:01:50.309705  4074 net.cpp:157] Top shape: 1 8 (8)
I0219 23:01:50.309708  4074 net.cpp:157] Top shape: 1 8 (8)
I0219 23:01:50.309710  4074 net.cpp:165] Memory required for data: 80577704
I0219 23:01:50.309715  4074 layer_factory.hpp:77] Creating layer roi_pool_conv5
I0219 23:01:50.309721  4074 net.cpp:106] Creating Layer roi_pool_conv5
I0219 23:01:50.309726  4074 net.cpp:454] roi_pool_conv5 <- conv6_reluconv_0_split_1
I0219 23:01:50.309732  4074 net.cpp:454] roi_pool_conv5 <- rois
I0219 23:01:50.309737  4074 net.cpp:411] roi_pool_conv5 -> roi_pool_conv5
I0219 23:01:50.309751  4074 roi_pooling_layer.cpp:30] Spatial scale: 0.0625
I0219 23:01:50.309797  4074 net.cpp:150] Setting up roi_pool_conv5
I0219 23:01:50.309803  4074 net.cpp:157] Top shape: 1 256 6 6 (9216)
I0219 23:01:50.309805  4074 net.cpp:165] Memory required for data: 80614568
I0219 23:01:50.309808  4074 layer_factory.hpp:77] Creating layer fc6
I0219 23:01:50.309815  4074 net.cpp:106] Creating Layer fc6
I0219 23:01:50.309818  4074 net.cpp:454] fc6 <- roi_pool_conv5
I0219 23:01:50.309823  4074 net.cpp:411] fc6 -> fc6
I0219 23:01:50.388289  4074 net.cpp:150] Setting up fc6
I0219 23:01:50.388324  4074 net.cpp:157] Top shape: 1 4096 (4096)
I0219 23:01:50.388329  4074 net.cpp:165] Memory required for data: 80630952
I0219 23:01:50.388345  4074 layer_factory.hpp:77] Creating layer relu6
I0219 23:01:50.388356  4074 net.cpp:106] Creating Layer relu6
I0219 23:01:50.388362  4074 net.cpp:454] relu6 <- fc6
I0219 23:01:50.388370  4074 net.cpp:397] relu6 -> fc6 (in-place)
I0219 23:01:50.388631  4074 net.cpp:150] Setting up relu6
I0219 23:01:50.388641  4074 net.cpp:157] Top shape: 1 4096 (4096)
I0219 23:01:50.388644  4074 net.cpp:165] Memory required for data: 80647336
I0219 23:01:50.388648  4074 layer_factory.hpp:77] Creating layer drop6
I0219 23:01:50.388653  4074 net.cpp:106] Creating Layer drop6
I0219 23:01:50.388658  4074 net.cpp:454] drop6 <- fc6
I0219 23:01:50.388661  4074 net.cpp:397] drop6 -> fc6 (in-place)
I0219 23:01:50.388695  4074 net.cpp:150] Setting up drop6
I0219 23:01:50.388700  4074 net.cpp:157] Top shape: 1 4096 (4096)
I0219 23:01:50.388702  4074 net.cpp:165] Memory required for data: 80663720
I0219 23:01:50.388705  4074 layer_factory.hpp:77] Creating layer fc7
I0219 23:01:50.388710  4074 net.cpp:106] Creating Layer fc7
I0219 23:01:50.388715  4074 net.cpp:454] fc7 <- fc6
I0219 23:01:50.388718  4074 net.cpp:411] fc7 -> fc7
I0219 23:01:50.424888  4074 net.cpp:150] Setting up fc7
I0219 23:01:50.424921  4074 net.cpp:157] Top shape: 1 4096 (4096)
I0219 23:01:50.424926  4074 net.cpp:165] Memory required for data: 80680104
I0219 23:01:50.424939  4074 layer_factory.hpp:77] Creating layer relu7
I0219 23:01:50.424952  4074 net.cpp:106] Creating Layer relu7
I0219 23:01:50.424957  4074 net.cpp:454] relu7 <- fc7
I0219 23:01:50.424968  4074 net.cpp:397] relu7 -> fc7 (in-place)
I0219 23:01:50.425513  4074 net.cpp:150] Setting up relu7
I0219 23:01:50.425526  4074 net.cpp:157] Top shape: 1 4096 (4096)
I0219 23:01:50.425529  4074 net.cpp:165] Memory required for data: 80696488
I0219 23:01:50.425532  4074 layer_factory.hpp:77] Creating layer drop7
I0219 23:01:50.425539  4074 net.cpp:106] Creating Layer drop7
I0219 23:01:50.425544  4074 net.cpp:454] drop7 <- fc7
I0219 23:01:50.425550  4074 net.cpp:397] drop7 -> fc7 (in-place)
I0219 23:01:50.425587  4074 net.cpp:150] Setting up drop7
I0219 23:01:50.425593  4074 net.cpp:157] Top shape: 1 4096 (4096)
I0219 23:01:50.425595  4074 net.cpp:165] Memory required for data: 80712872
I0219 23:01:50.425598  4074 layer_factory.hpp:77] Creating layer fc7_drop7_0_split
I0219 23:01:50.425604  4074 net.cpp:106] Creating Layer fc7_drop7_0_split
I0219 23:01:50.425606  4074 net.cpp:454] fc7_drop7_0_split <- fc7
I0219 23:01:50.425613  4074 net.cpp:411] fc7_drop7_0_split -> fc7_drop7_0_split_0
I0219 23:01:50.425621  4074 net.cpp:411] fc7_drop7_0_split -> fc7_drop7_0_split_1
I0219 23:01:50.425663  4074 net.cpp:150] Setting up fc7_drop7_0_split
I0219 23:01:50.425668  4074 net.cpp:157] Top shape: 1 4096 (4096)
I0219 23:01:50.425671  4074 net.cpp:157] Top shape: 1 4096 (4096)
I0219 23:01:50.425673  4074 net.cpp:165] Memory required for data: 80745640
I0219 23:01:50.425675  4074 layer_factory.hpp:77] Creating layer cls_score
I0219 23:01:50.425684  4074 net.cpp:106] Creating Layer cls_score
I0219 23:01:50.425688  4074 net.cpp:454] cls_score <- fc7_drop7_0_split_0
I0219 23:01:50.425693  4074 net.cpp:411] cls_score -> cls_score
I0219 23:01:50.425864  4074 net.cpp:150] Setting up cls_score
I0219 23:01:50.425870  4074 net.cpp:157] Top shape: 1 2 (2)
I0219 23:01:50.425873  4074 net.cpp:165] Memory required for data: 80745648
I0219 23:01:50.425879  4074 layer_factory.hpp:77] Creating layer bbox_pred
I0219 23:01:50.425885  4074 net.cpp:106] Creating Layer bbox_pred
I0219 23:01:50.425889  4074 net.cpp:454] bbox_pred <- fc7_drop7_0_split_1
I0219 23:01:50.425894  4074 net.cpp:411] bbox_pred -> bbox_pred
I0219 23:01:50.426282  4074 net.cpp:150] Setting up bbox_pred
I0219 23:01:50.426290  4074 net.cpp:157] Top shape: 1 8 (8)
I0219 23:01:50.426291  4074 net.cpp:165] Memory required for data: 80745680
I0219 23:01:50.426296  4074 layer_factory.hpp:77] Creating layer loss_cls
I0219 23:01:50.426302  4074 net.cpp:106] Creating Layer loss_cls
I0219 23:01:50.426304  4074 net.cpp:454] loss_cls <- cls_score
I0219 23:01:50.426309  4074 net.cpp:454] loss_cls <- labels
I0219 23:01:50.426313  4074 net.cpp:411] loss_cls -> cls_loss
…
           'RPN_POST_NMS_TOP_N': 2000,
           'RPN_PRE_NMS_TOP_N': 12000,
           'SCALES': [300],
           'SNAPSHOT_INFIX': '',
           'SNAPSHOT_ITERS': 5000,
           'USE_FLIPPED': True,
           'USE_PREFETCH': False},
 'USE_GPU_NMS': True}
WARNING: Logging before InitGoogleLogging() is written to STDERR
I0220 08:21:10.469231 15295 net.cpp:49] Initializing net from parameters: 
name: "ZF"
input: "data"
input: "im_info"
state {
  phase: TEST
}
input_shape {
  dim: 1
  dim: 3
  dim: 224
  dim: 224
}
input_shape {
  dim: 1
  dim: 3
}
layer {
  name: "conv1"
  type: "Convolution"
  bottom: "data"
  top: "conv1"
  convolution_param {
    num_output: 96
    pad: 3
    kernel_size: 7
    stride: 2
  }
}
layer {
  name: "relu1"
  type: "ReLU"
  bottom: "conv1"
  top: "conv1"
}
layer {
  name: "norm1"
  type: "LRN"
  bottom: "conv1"
  top: "norm1"
  lrn_param {
    local_size: 3
    alpha: 5e-05
    beta: 0.75
    norm_region: WITHIN_CHANNEL
    engine: CAFFE
  }
}
layer {
  name: "pool1"
  type: "Pooling"
  bottom: "norm1"
  top: "pool1"
  pooling_param {
    pool: MAX
    kernel_size: 3
    stride: 2
    pad: 1
  }
}
layer {
  name: "conv2"
  type: "Convolution"
  bottom: "pool1"
  top: "conv2"
  convolution_param {
    num_output: 256
    pad: 2
    kernel_size: 5
    stride: 2
  }
}
layer {
  name: "relu2"
  type: "ReLU"
  bottom: "conv2"
  top: "conv2"
}
layer {
  name: "norm2"
  type: "LRN"
  bottom: "conv2"
  top: "norm2"
  lrn_param {
    local_size: 3
    alpha: 5e-05
    beta: 0.75
    norm_region: WITHIN_CHANNEL
    engine: CAFFE
  }
}
layer {
  name: "pool2"
  type: "Pooling"
  bottom: "norm2"
  top: "pool2"
  pooling_param {
    pool: MAX
    kernel_size: 3
    stride: 2
    pad: 1
  }
}
layer {
  name: "conv3"
  type: "Convolution"
  bottom: "pool2"
  top: "conv3"
  convolution_param {
    num_output: 384
    pad: 1
    kernel_size: 3
    stride: 1
  }
}
layer {
  name: "relu3"
  type: "ReLU"
  bottom: "conv3"
  top: "conv3"
}
layer {
  name: "conv4"
  type: "Convolution"
  bottom: "conv3"
  top: "conv4"
  convolution_param {
    num_output: 384
    pad: 1
    kernel_size: 3
    stride: 1
  }
}
layer {
  name: "relu4"
  type: "ReLU"
  bottom: "conv4"
  top: "conv4"
}
layer {
  name: "conv5"
  type: "Convolution"
  bottom: "conv4"
  top: "conv5"
  convolution_param {
    num_output: 256
    pad: 1
    kernel_size: 3
    stride: 1
  }
}
layer {
  name: "relu5"
  type: "ReLU"
  bottom: "conv5"
  top: "conv5"
}
layer {
  name: "concat"
  type: "Concat"
  bottom: "conv3"
  bottom: "conv4"
  bottom: "conv5"
  top: "concat"
  concat_param {
    axis: 1
  }
}
layer {
  name: "normconcat"
  type: "LRN"
  bottom: "concat"
  top: "concatfeature"
  lrn_param {
    local_size: 3
    alpha: 5e-05
    beta: 0.75
    norm_region: WITHIN_CHANNEL
    engine: CAFFE
  }
}
layer {
  name: "conv6"
  type: "Convolution"
  bottom: "concatfeature"
  top: "conv6"
  param {
    lr_mult: 1
  }
  param {
    lr_mult: 2
  }
  convolution_param {
    num_output: 256
    pad: 0
    kernel_size: 1
    stride: 1
    weight_filler {
      type: "xavier"
    }
    bias_filler {
      type: "constant"
    }
  }
}
layer {
  name: "reluconv"
  type: "ReLU"
  bottom: "conv6"
  top: "conv6"
}
layer {
  name: "rpn_conv/3x3"
  type: "Convolution"
  bottom: "conv6"
  top: "rpn/output"
  convolution_param {
    num_output: 256
    pad: 1
    kernel_size: 3
    stride: 1
    weight_filler {
      type: "gaussian"
      std: 0.01
    }
    bias_filler {
      type: "constant"
      value: 0
    }
  }
}
layer {
  name: "rpn_relu/3x3"
  type: "ReLU"
  bottom: "rpn/output"
  top: "rpn/output"
}
layer {
  name: "rpn_cls_score"
  type: "Convolution"
  bottom: "rpn/output"
  top: "rpn_cls_score"
  convolution_param {
    num_output: 12
    pad: 0
    kernel_size: 1
    stride: 1
    weight_filler {
      type: "gaussian"
      std: 0.01
    }
    bias_filler {
      type: "constant"
      value: 0
    }
  }
}
layer {
  name: "rpn_bbox_pred"
  type: "Convolution"
  bottom: "rpn/output"
  top: "rpn_bbox_pred"
  convolution_param {
    num_output: 24
    pad: 0
    kernel_size: 1
    stride: 1
    weight_filler {
      type: "gaussian"
      std: 0.01
    }
    bias_filler {
      type: "constant"
      value: 0
    }
  }
}
layer {
  name: "rpn_cls_score_reshape"
  type: "Reshape"
  bottom: "rpn_cls_score"
  top: "rpn_cls_score_reshape"
  reshape_param {
    shape {
      dim: 0
      dim: 2
      dim: -1
      dim: 0
    }
  }
}
layer {
  name: "rpn_cls_prob"
  type: "Softmax"
  bottom: "rpn_cls_score_reshape"
  top: "rpn_cls_prob"
}
layer {
  name: "rpn_cls_prob_reshape"
  type: "Reshape"
  bottom: "rpn_cls_prob"
  top: "rpn_cls_prob_reshape"
  reshape_param {
    shape {
      dim: 0
      dim: 12
      dim: -1
      dim: 0
    }
  }
}
layer {
  name: "proposal"
  type: "Python"
  bottom: "rpn_cls_prob_reshape"
  bottom: "rpn_bbox_pred"
  bottom: "im_info"
  top: "rois"
  python_param {
    module: "rpn.proposal_layer"
    layer: "ProposalLayer"
    param_str: "\'feat_stride\': 16"
  }
}
layer {
  name: "roi_pool_conv5"
  type: "ROIPooling"
  bottom: "conv6"
  bottom: "rois"
  top: "roi_pool_conv5"
  roi_pooling_param {
    pooled_h: 6
    pooled_w: 6
    spatial_scale: 0.0625
  }
}
layer {
  name: "fc6"
  type: "InnerProduct"
  bottom: "roi_pool_conv5"
  top: "fc6"
  inner_product_param {
    num_output: 4096
  }
}
layer {
  name: "relu6"
  type: "ReLU"
  bottom: "fc6"
  top: "fc6"
}
layer {
  name: "drop6"
  type: "Dropout"
  bottom: "fc6"
  top: "fc6"
  dropout_param {
    dropout_ratio: 0.5
    scale_train: false
  }
}
layer {
  name: "fc7"
  type: "InnerProduct"
  bottom: "fc6"
  top: "fc7"
  inner_product_param {
    num_output: 4096
  }
}
layer {
  name: "relu7"
  type: "ReLU"
  bottom: "fc7"
  top: "fc7"
}
layer {
  name: "drop7"
  type: "Dropout"
  bottom: "fc7"
  top: "fc7"
  dropout_param {
    dropout_ratio: 0.5
    scale_train: false
  }
}
layer {
  name: "cls_score"
  type: "InnerProduct"
  bottom: "fc7"
  top: "cls_score"
  inner_product_param {
    num_output: 2
  }
}
layer {
  name: "bbox_pred"
  type: "InnerProduct"
  bottom: "fc7"
  top: "bbox_pred"
  inner_product_param {
    num_output: 8
  }
}
layer {
  name: "cls_prob"
  type: "Softmax"
  bottom: "cls_score"
  top: "cls_prob"
  loss_param {
    ignore_label: -1
    normalize: true
  }
}
I0220 08:21:10.469421 15295 net.cpp:413] Input 0 -> data
I0220 08:21:10.504721 15295 net.cpp:413] Input 1 -> im_info
I0220 08:21:10.504770 15295 layer_factory.hpp:77] Creating layer conv1
I0220 08:21:10.504786 15295 net.cpp:106] Creating Layer conv1
I0220 08:21:10.504791 15295 net.cpp:454] conv1 <- data
I0220 08:21:10.504796 15295 net.cpp:411] conv1 -> conv1
I0220 08:21:10.718677 15295 net.cpp:150] Setting up conv1
I0220 08:21:10.718705 15295 net.cpp:157] Top shape: 1 96 112 112 (1204224)
I0220 08:21:10.718709 15295 net.cpp:165] Memory required for data: 4816896
I0220 08:21:10.718724 15295 layer_factory.hpp:77] Creating layer relu1
I0220 08:21:10.718736 15295 net.cpp:106] Creating Layer relu1
I0220 08:21:10.718740 15295 net.cpp:454] relu1 <- conv1
I0220 08:21:10.718745 15295 net.cpp:397] relu1 -> conv1 (in-place)
I0220 08:21:10.718912 15295 net.cpp:150] Setting up relu1
I0220 08:21:10.718924 15295 net.cpp:157] Top shape: 1 96 112 112 (1204224)
I0220 08:21:10.718926 15295 net.cpp:165] Memory required for data: 9633792
I0220 08:21:10.718930 15295 layer_factory.hpp:77] Creating layer norm1
I0220 08:21:10.718937 15295 net.cpp:106] Creating Layer norm1
I0220 08:21:10.718941 15295 net.cpp:454] norm1 <- conv1
I0220 08:21:10.718945 15295 net.cpp:411] norm1 -> norm1
I0220 08:21:10.719043 15295 net.cpp:150] Setting up norm1
I0220 08:21:10.719051 15295 net.cpp:157] Top shape: 1 96 112 112 (1204224)
I0220 08:21:10.719054 15295 net.cpp:165] Memory required for data: 14450688
I0220 08:21:10.719058 15295 layer_factory.hpp:77] Creating layer pool1
I0220 08:21:10.719063 15295 net.cpp:106] Creating Layer pool1
I0220 08:21:10.719065 15295 net.cpp:454] pool1 <- norm1
I0220 08:21:10.719069 15295 net.cpp:411] pool1 -> pool1
I0220 08:21:10.719120 15295 net.cpp:150] Setting up pool1
I0220 08:21:10.719131 15295 net.cpp:157] Top shape: 1 96 57 57 (311904)
I0220 08:21:10.719135 15295 net.cpp:165] Memory required for data: 15698304
I0220 08:21:10.719138 15295 layer_factory.hpp:77] Creating layer conv2
I0220 08:21:10.719146 15295 net.cpp:106] Creating Layer conv2
I0220 08:21:10.719148 15295 net.cpp:454] conv2 <- pool1
I0220 08:21:10.719153 15295 net.cpp:411] conv2 -> conv2
I0220 08:21:10.721738 15295 net.cpp:150] Setting up conv2
I0220 08:21:10.721755 15295 net.cpp:157] Top shape: 1 256 29 29 (215296)
I0220 08:21:10.721757 15295 net.cpp:165] Memory required for data: 16559488
I0220 08:21:10.721767 15295 layer_factory.hpp:77] Creating layer relu2
I0220 08:21:10.721774 15295 net.cpp:106] Creating Layer relu2
I0220 08:21:10.721777 15295 net.cpp:454] relu2 <- conv2
I0220 08:21:10.721782 15295 net.cpp:397] relu2 -> conv2 (in-place)
I0220 08:21:10.722167 15295 net.cpp:150] Setting up relu2
I0220 08:21:10.722177 15295 net.cpp:157] Top shape: 1 256 29 29 (215296)
I0220 08:21:10.722180 15295 net.cpp:165] Memory required for data: 17420672
I0220 08:21:10.722182 15295 layer_factory.hpp:77] Creating layer norm2
I0220 08:21:10.722190 15295 net.cpp:106] Creating Layer norm2
I0220 08:21:10.722193 15295 net.cpp:454] norm2 <- conv2
I0220 08:21:10.722198 15295 net.cpp:411] norm2 -> norm2
I0220 08:21:10.722301 15295 net.cpp:150] Setting up norm2
I0220 08:21:10.722311 15295 net.cpp:157] Top shape: 1 256 29 29 (215296)
I0220 08:21:10.722312 15295 net.cpp:165] Memory required for data: 18281856
I0220 08:21:10.722316 15295 layer_factory.hpp:77] Creating layer pool2
I0220 08:21:10.722319 15295 net.cpp:106] Creating Layer pool2
I0220 08:21:10.722322 15295 net.cpp:454] pool2 <- norm2
I0220 08:21:10.722326 15295 net.cpp:411] pool2 -> pool2
I0220 08:21:10.722355 15295 net.cpp:150] Setting up pool2
I0220 08:21:10.722362 15295 net.cpp:157] Top shape: 1 256 15 15 (57600)
I0220 08:21:10.722365 15295 net.cpp:165] Memory required for data: 18512256
I0220 08:21:10.722369 15295 layer_factory.hpp:77] Creating layer conv3
I0220 08:21:10.722383 15295 net.cpp:106] Creating Layer conv3
I0220 08:21:10.722388 15295 net.cpp:454] conv3 <- pool2
I0220 08:21:10.722393 15295 net.cpp:411] conv3 -> conv3
I0220 08:21:10.724988 15295 net.cpp:150] Setting up conv3
I0220 08:21:10.725006 15295 net.cpp:157] Top shape: 1 384 15 15 (86400)
I0220 08:21:10.725009 15295 net.cpp:165] Memory required for data: 18857856
I0220 08:21:10.725021 15295 layer_factory.hpp:77] Creating layer relu3
I0220 08:21:10.725028 15295 net.cpp:106] Creating Layer relu3
I0220 08:21:10.725031 15295 net.cpp:454] relu3 <- conv3
I0220 08:21:10.725036 15295 net.cpp:397] relu3 -> conv3 (in-place)
I0220 08:21:10.725420 15295 net.cpp:150] Setting up relu3
I0220 08:21:10.725432 15295 net.cpp:157] Top shape: 1 384 15 15 (86400)
I0220 08:21:10.725435 15295 net.cpp:165] Memory required for data: 19203456
I0220 08:21:10.725438 15295 layer_factory.hpp:77] Creating layer conv3_relu3_0_split
I0220 08:21:10.725445 15295 net.cpp:106] Creating Layer conv3_relu3_0_split
I0220 08:21:10.725447 15295 net.cpp:454] conv3_relu3_0_split <- conv3
I0220 08:21:10.725453 15295 net.cpp:411] conv3_relu3_0_split -> conv3_relu3_0_split_0
I0220 08:21:10.725459 15295 net.cpp:411] conv3_relu3_0_split -> conv3_relu3_0_split_1
I0220 08:21:10.725498 15295 net.cpp:150] Setting up conv3_relu3_0_split
I0220 08:21:10.725504 15295 net.cpp:157] Top shape: 1 384 15 15 (86400)
I0220 08:21:10.725510 15295 net.cpp:157] Top shape: 1 384 15 15 (86400)
I0220 08:21:10.725514 15295 net.cpp:165] Memory required for data: 19894656
I0220 08:21:10.725518 15295 layer_factory.hpp:77] Creating layer conv4
I0220 08:21:10.725530 15295 net.cpp:106] Creating Layer conv4
I0220 08:21:10.725536 15295 net.cpp:454] conv4 <- conv3_relu3_0_split_0
I0220 08:21:10.725543 15295 net.cpp:411] conv4 -> conv4
I0220 08:21:10.729208 15295 net.cpp:150] Setting up conv4
I0220 08:21:10.729238 15295 net.cpp:157] Top shape: 1 384 15 15 (86400)
I0220 08:21:10.729241 15295 net.cpp:165] Memory required for data: 20240256
I0220 08:21:10.729251 15295 layer_factory.hpp:77] Creating layer relu4
I0220 08:21:10.729261 15295 net.cpp:106] Creating Layer relu4
I0220 08:21:10.729264 15295 net.cpp:454] relu4 <- conv4
I0220 08:21:10.729279 15295 net.cpp:397] relu4 -> conv4 (in-place)
I0220 08:21:10.729478 15295 net.cpp:150] Setting up relu4
I0220 08:21:10.729491 15295 net.cpp:157] Top shape: 1 384 15 15 (86400)
I0220 08:21:10.729496 15295 net.cpp:165] Memory required for data: 20585856
I0220 08:21:10.729501 15295 layer_factory.hpp:77] Creating layer conv4_relu4_0_split
I0220 08:21:10.729508 15295 net.cpp:106] Creating Layer conv4_relu4_0_split
I0220 08:21:10.729512 15295 net.cpp:454] conv4_relu4_0_split <- conv4
I0220 08:21:10.729521 15295 net.cpp:411] conv4_relu4_0_split -> conv4_relu4_0_split_0
I0220 08:21:10.729532 15295 net.cpp:411] conv4_relu4_0_split -> conv4_relu4_0_split_1
I0220 08:21:10.729580 15295 net.cpp:150] Setting up conv4_relu4_0_split
I0220 08:21:10.729589 15295 net.cpp:157] Top shape: 1 384 15 15 (86400)
I0220 08:21:10.729594 15295 net.cpp:157] Top shape: 1 384 15 15 (86400)
I0220 08:21:10.729598 15295 net.cpp:165] Memory required for data: 21277056
I0220 08:21:10.729602 15295 layer_factory.hpp:77] Creating layer conv5
I0220 08:21:10.729616 15295 net.cpp:106] Creating Layer conv5
I0220 08:21:10.729621 15295 net.cpp:454] conv5 <- conv4_relu4_0_split_0
I0220 08:21:10.729629 15295 net.cpp:411] conv5 -> conv5
I0220 08:21:10.732669 15295 net.cpp:150] Setting up conv5
I0220 08:21:10.732689 15295 net.cpp:157] Top shape: 1 256 15 15 (57600)
I0220 08:21:10.732692 15295 net.cpp:165] Memory required for data: 21507456
I0220 08:21:10.732703 15295 layer_factory.hpp:77] Creating layer relu5
I0220 08:21:10.732710 15295 net.cpp:106] Creating Layer relu5
I0220 08:21:10.732714 15295 net.cpp:454] relu5 <- conv5
I0220 08:21:10.732720 15295 net.cpp:397] relu5 -> conv5 (in-place)
I0220 08:21:10.733088 15295 net.cpp:150] Setting up relu5
I0220 08:21:10.733098 15295 net.cpp:157] Top shape: 1 256 15 15 (57600)
I0220 08:21:10.733101 15295 net.cpp:165] Memory required for data: 21737856
I0220 08:21:10.733104 15295 layer_factory.hpp:77] Creating layer concat
I0220 08:21:10.733114 15295 net.cpp:106] Creating Layer concat
I0220 08:21:10.733117 15295 net.cpp:454] concat <- conv3_relu3_0_split_1
I0220 08:21:10.733121 15295 net.cpp:454] concat <- conv4_relu4_0_split_1
I0220 08:21:10.733124 15295 net.cpp:454] concat <- conv5
I0220 08:21:10.733129 15295 net.cpp:411] concat -> concat
I0220 08:21:10.733157 15295 net.cpp:150] Setting up concat
I0220 08:21:10.733162 15295 net.cpp:157] Top shape: 1 1024 15 15 (230400)
I0220 08:21:10.733165 15295 net.cpp:165] Memory required for data: 22659456
I0220 08:21:10.733167 15295 layer_factory.hpp:77] Creating layer normconcat
I0220 08:21:10.733173 15295 net.cpp:106] Creating Layer normconcat
I0220 08:21:10.733175 15295 net.cpp:454] normconcat <- concat
I0220 08:21:10.733180 15295 net.cpp:411] normconcat -> concatfeature
I0220 08:21:10.733269 15295 net.cpp:150] Setting up normconcat
I0220 08:21:10.733275 15295 net.cpp:157] Top shape: 1 1024 15 15 (230400)
I0220 08:21:10.733278 15295 net.cpp:165] Memory required for data: 23581056
I0220 08:21:10.733280 15295 layer_factory.hpp:77] Creating layer conv6
I0220 08:21:10.733289 15295 net.cpp:106] Creating Layer conv6
I0220 08:21:10.733291 15295 net.cpp:454] conv6 <- concatfeature
I0220 08:21:10.733297 15295 net.cpp:411] conv6 -> conv6
I0220 08:21:10.736246 15295 net.cpp:150] Setting up conv6
I0220 08:21:10.736259 15295 net.cpp:157] Top shape: 1 256 15 15 (57600)
I0220 08:21:10.736263 15295 net.cpp:165] Memory required for data: 23811456
I0220 08:21:10.736268 15295 layer_factory.hpp:77] Creating layer reluconv
I0220 08:21:10.736273 15295 net.cpp:106] Creating Layer reluconv
I0220 08:21:10.736275 15295 net.cpp:454] reluconv <- conv6
I0220 08:21:10.736281 15295 net.cpp:397] reluconv -> conv6 (in-place)
I0220 08:21:10.736647 15295 net.cpp:150] Setting up reluconv
I0220 08:21:10.736659 15295 net.cpp:157] Top shape: 1 256 15 15 (57600)
I0220 08:21:10.736661 15295 net.cpp:165] Memory required for data: 24041856
I0220 08:21:10.736665 15295 layer_factory.hpp:77] Creating layer conv6_reluconv_0_split
I0220 08:21:10.736670 15295 net.cpp:106] Creating Layer conv6_reluconv_0_split
I0220 08:21:10.736672 15295 net.cpp:454] conv6_reluconv_0_split <- conv6
I0220 08:21:10.736678 15295 net.cpp:411] conv6_reluconv_0_split -> conv6_reluconv_0_split_0
I0220 08:21:10.736685 15295 net.cpp:411] conv6_reluconv_0_split -> conv6_reluconv_0_split_1
I0220 08:21:10.736721 15295 net.cpp:150] Setting up conv6_reluconv_0_split
I0220 08:21:10.736727 15295 net.cpp:157] Top shape: 1 256 15 15 (57600)
I0220 08:21:10.736730 15295 net.cpp:157] Top shape: 1 256 15 15 (57600)
I0220 08:21:10.736732 15295 net.cpp:165] Memory required for data: 24502656
I0220 08:21:10.736734 15295 layer_factory.hpp:77] Creating layer rpn_conv/3x3
I0220 08:21:10.736744 15295 net.cpp:106] Creating Layer rpn_conv/3x3
I0220 08:21:10.736747 15295 net.cpp:454] rpn_conv/3x3 <- conv6_reluconv_0_split_0
I0220 08:21:10.736752 15295 net.cpp:411] rpn_conv/3x3 -> rpn/output
I0220 08:21:10.744240 15295 net.cpp:150] Setting up rpn_conv/3x3
I0220 08:21:10.744261 15295 net.cpp:157] Top shape: 1 256 15 15 (57600)
I0220 08:21:10.744266 15295 net.cpp:165] Memory required for data: 24733056
I0220 08:21:10.744273 15295 layer_factory.hpp:77] Creating layer rpn_relu/3x3
I0220 08:21:10.744282 15295 net.cpp:106] Creating Layer rpn_relu/3x3
I0220 08:21:10.744284 15295 net.cpp:454] rpn_relu/3x3 <- rpn/output
I0220 08:21:10.744289 15295 net.cpp:397] rpn_relu/3x3 -> rpn/output (in-place)
I0220 08:21:10.744454 15295 net.cpp:150] Setting up rpn_relu/3x3
I0220 08:21:10.744463 15295 net.cpp:157] Top shape: 1 256 15 15 (57600)
I0220 08:21:10.744465 15295 net.cpp:165] Memory required for data: 24963456
I0220 08:21:10.744468 15295 layer_factory.hpp:77] Creating layer rpn/output_rpn_relu/3x3_0_split
I0220 08:21:10.744474 15295 net.cpp:106] Creating Layer rpn/output_rpn_relu/3x3_0_split
I0220 08:21:10.744477 15295 net.cpp:454] rpn/output_rpn_relu/3x3_0_split <- rpn/output
I0220 08:21:10.744482 15295 net.cpp:411] rpn/output_rpn_relu/3x3_0_split -> rpn/output_rpn_relu/3x3_0_split_0
I0220 08:21:10.744488 15295 net.cpp:411] rpn/output_rpn_relu/3x3_0_split -> rpn/output_rpn_relu/3x3_0_split_1
I0220 08:21:10.744527 15295 net.cpp:150] Setting up rpn/output_rpn_relu/3x3_0_split
I0220 08:21:10.744534 15295 net.cpp:157] Top shape: 1 256 15 15 (57600)
I0220 08:21:10.744536 15295 net.cpp:157] Top shape: 1 256 15 15 (57600)
I0220 08:21:10.744539 15295 net.cpp:165] Memory required for data: 25424256
I0220 08:21:10.744541 15295 layer_factory.hpp:77] Creating layer rpn_cls_score
I0220 08:21:10.744549 15295 net.cpp:106] Creating Layer rpn_cls_score
I0220 08:21:10.744552 15295 net.cpp:454] rpn_cls_score <- rpn/output_rpn_relu/3x3_0_split_0
I0220 08:21:10.744557 15295 net.cpp:411] rpn_cls_score -> rpn_cls_score
I0220 08:21:10.746402 15295 net.cpp:150] Setting up rpn_cls_score
I0220 08:21:10.746413 15295 net.cpp:157] Top shape: 1 12 15 15 (2700)
I0220 08:21:10.746417 15295 net.cpp:165] Memory required for data: 25435056
I0220 08:21:10.746421 15295 layer_factory.hpp:77] Creating layer rpn_bbox_pred
I0220 08:21:10.746430 15295 net.cpp:106] Creating Layer rpn_bbox_pred
I0220 08:21:10.746434 15295 net.cpp:454] rpn_bbox_pred <- rpn/output_rpn_relu/3x3_0_split_1
I0220 08:21:10.746439 15295 net.cpp:411] rpn_bbox_pred -> rpn_bbox_pred
I0220 08:21:10.747838 15295 net.cpp:150] Setting up rpn_bbox_pred
I0220 08:21:10.747854 15295 net.cpp:157] Top shape: 1 24 15 15 (5400)
I0220 08:21:10.747859 15295 net.cpp:165] Memory required for data: 25456656
I0220 08:21:10.747874 15295 layer_factory.hpp:77] Creating layer rpn_cls_score_reshape
I0220 08:21:10.747885 15295 net.cpp:106] Creating Layer rpn_cls_score_reshape
I0220 08:21:10.747891 15295 net.cpp:454] rpn_cls_score_reshape <- rpn_cls_score
I0220 08:21:10.747900 15295 net.cpp:411] rpn_cls_score_reshape -> rpn_cls_score_reshape
I0220 08:21:10.747936 15295 net.cpp:150] Setting up rpn_cls_score_reshape
I0220 08:21:10.747946 15295 net.cpp:157] Top shape: 1 2 90 15 (2700)
I0220 08:21:10.747949 15295 net.cpp:165] Memory required for data: 25467456
I0220 08:21:10.747953 15295 layer_factory.hpp:77] Creating layer rpn_cls_prob
I0220 08:21:10.747961 15295 net.cpp:106] Creating Layer rpn_cls_prob
I0220 08:21:10.747964 15295 net.cpp:454] rpn_cls_prob <- rpn_cls_score_reshape
I0220 08:21:10.747972 15295 net.cpp:411] rpn_cls_prob -> rpn_cls_prob
I0220 08:21:10.748262 15295 net.cpp:150] Setting up rpn_cls_prob
I0220 08:21:10.748275 15295 net.cpp:157] Top shape: 1 2 90 15 (2700)
I0220 08:21:10.748280 15295 net.cpp:165] Memory required for data: 25478256
I0220 08:21:10.748284 15295 layer_factory.hpp:77] Creating layer rpn_cls_prob_reshape
I0220 08:21:10.748291 15295 net.cpp:106] Creating Layer rpn_cls_prob_reshape
I0220 08:21:10.748296 15295 net.cpp:454] rpn_cls_prob_reshape <- rpn_cls_prob
I0220 08:21:10.748306 15295 net.cpp:411] rpn_cls_prob_reshape -> rpn_cls_prob_reshape
I0220 08:21:10.748337 15295 net.cpp:150] Setting up rpn_cls_prob_reshape
I0220 08:21:10.748347 15295 net.cpp:157] Top shape: 1 12 15 15 (2700)
I0220 08:21:10.748351 15295 net.cpp:165] Memory required for data: 25489056
I0220 08:21:10.748354 15295 layer_factory.hpp:77] Creating layer proposal
I0220 08:21:10.759500 15295 net.cpp:106] Creating Layer proposal
I0220 08:21:10.759516 15295 net.cpp:454] proposal <- rpn_cls_prob_reshape
I0220 08:21:10.759521 15295 net.cpp:454] proposal <- rpn_bbox_pred
I0220 08:21:10.759526 15295 net.cpp:454] proposal <- im_info
I0220 08:21:10.759533 15295 net.cpp:411] proposal -> rois
I0220 08:21:10.760223 15295 net.cpp:150] Setting up proposal
I0220 08:21:10.760238 15295 net.cpp:157] Top shape: 1 5 (5)
I0220 08:21:10.760241 15295 net.cpp:165] Memory required for data: 25489076
I0220 08:21:10.760244 15295 layer_factory.hpp:77] Creating layer roi_pool_conv5
I0220 08:21:10.760251 15295 net.cpp:106] Creating Layer roi_pool_conv5
I0220 08:21:10.760255 15295 net.cpp:454] roi_pool_conv5 <- conv6_reluconv_0_split_1
I0220 08:21:10.760259 15295 net.cpp:454] roi_pool_conv5 <- rois
I0220 08:21:10.760264 15295 net.cpp:411] roi_pool_conv5 -> roi_pool_conv5
I0220 08:21:10.760272 15295 roi_pooling_layer.cpp:30] Spatial scale: 0.0625
I0220 08:21:10.760330 15295 net.cpp:150] Setting up roi_pool_conv5
I0220 08:21:10.760342 15295 net.cpp:157] Top shape: 1 256 6 6 (9216)
I0220 08:21:10.760346 15295 net.cpp:165] Memory required for data: 25525940
I0220 08:21:10.760349 15295 layer_factory.hpp:77] Creating layer fc6
I0220 08:21:10.760355 15295 net.cpp:106] Creating Layer fc6
I0220 08:21:10.760359 15295 net.cpp:454] fc6 <- roi_pool_conv5
I0220 08:21:10.760363 15295 net.cpp:411] fc6 -> fc6
I0220 08:21:10.830555 15295 net.cpp:150] Setting up fc6
I0220 08:21:10.830585 15295 net.cpp:157] Top shape: 1 4096 (4096)
I0220 08:21:10.830588 15295 net.cpp:165] Memory required for data: 25542324
I0220 08:21:10.830600 15295 layer_factory.hpp:77] Creating layer relu6
I0220 08:21:10.830615 15295 net.cpp:106] Creating Layer relu6
I0220 08:21:10.830620 15295 net.cpp:454] relu6 <- fc6
I0220 08:21:10.830626 15295 net.cpp:397] relu6 -> fc6 (in-place)
I0220 08:21:10.831192 15295 net.cpp:150] Setting up relu6
I0220 08:21:10.831204 15295 net.cpp:157] Top shape: 1 4096 (4096)
I0220 08:21:10.831207 15295 net.cpp:165] Memory required for data: 25558708
I0220 08:21:10.831210 15295 layer_factory.hpp:77] Creating layer drop6
I0220 08:21:10.831218 15295 net.cpp:106] Creating Layer drop6
I0220 08:21:10.831221 15295 net.cpp:454] drop6 <- fc6
I0220 08:21:10.831225 15295 net.cpp:397] drop6 -> fc6 (in-place)
I0220 08:21:10.831254 15295 net.cpp:150] Setting up drop6
I0220 08:21:10.831260 15295 net.cpp:157] Top shape: 1 4096 (4096)
I0220 08:21:10.831262 15295 net.cpp:165] Memory required for data: 25575092
I0220 08:21:10.831264 15295 layer_factory.hpp:77] Creating layer fc7
I0220 08:21:10.831269 15295 net.cpp:106] Creating Layer fc7
I0220 08:21:10.831272 15295 net.cpp:454] fc7 <- fc6
I0220 08:21:10.831277 15295 net.cpp:411] fc7 -> fc7
I0220 08:21:10.862995 15295 net.cpp:150] Setting up fc7
I0220 08:21:10.863030 15295 net.cpp:157] Top shape: 1 4096 (4096)
I0220 08:21:10.863034 15295 net.cpp:165] Memory required for data: 25591476
I0220 08:21:10.863045 15295 layer_factory.hpp:77] Creating layer relu7
I0220 08:21:10.863055 15295 net.cpp:106] Creating Layer relu7
I0220 08:21:10.863059 15295 net.cpp:454] relu7 <- fc7
I0220 08:21:10.863066 15295 net.cpp:397] relu7 -> fc7 (in-place)
I0220 08:21:10.863322 15295 net.cpp:150] Setting up relu7
I0220 08:21:10.863333 15295 net.cpp:157] Top shape: 1 4096 (4096)
I0220 08:21:10.863335 15295 net.cpp:165] Memory required for data: 25607860
I0220 08:21:10.863338 15295 layer_factory.hpp:77] Creating layer drop7
I0220 08:21:10.863344 15295 net.cpp:106] Creating Layer drop7
I0220 08:21:10.863346 15295 net.cpp:454] drop7 <- fc7
I0220 08:21:10.863351 15295 net.cpp:397] drop7 -> fc7 (in-place)
I0220 08:21:10.863378 15295 net.cpp:150] Setting up drop7
I0220 08:21:10.863382 15295 net.cpp:157] Top shape: 1 4096 (4096)
I0220 08:21:10.863384 15295 net.cpp:165] Memory required for data: 25624244
I0220 08:21:10.863387 15295 layer_factory.hpp:77] Creating layer fc7_drop7_0_split
I0220 08:21:10.863395 15295 net.cpp:106] Creating Layer fc7_drop7_0_split
I0220 08:21:10.863401 15295 net.cpp:454] fc7_drop7_0_split <- fc7
I0220 08:21:10.863409 15295 net.cpp:411] fc7_drop7_0_split -> fc7_drop7_0_split_0
I0220 08:21:10.863425 15295 net.cpp:411] fc7_drop7_0_split -> fc7_drop7_0_split_1
I0220 08:21:10.863477 15295 net.cpp:150] Setting up fc7_drop7_0_split
I0220 08:21:10.863484 15295 net.cpp:157] Top shape: 1 4096 (4096)
I0220 08:21:10.863487 15295 net.cpp:157] Top shape: 1 4096 (4096)
I0220 08:21:10.863489 15295 net.cpp:165] Memory required for data: 25657012
I0220 08:21:10.863492 15295 layer_factory.hpp:77] Creating layer cls_score
I0220 08:21:10.863498 15295 net.cpp:106] Creating Layer cls_score
I0220 08:21:10.863502 15295 net.cpp:454] cls_score <- fc7_drop7_0_split_0
I0220 08:21:10.863507 15295 net.cpp:411] cls_score -> cls_score
I0220 08:21:10.863612 15295 net.cpp:150] Setting up cls_score
I0220 08:21:10.863620 15295 net.cpp:157] Top shape: 1 2 (2)
I0220 08:21:10.863621 15295 net.cpp:165] Memory required for data: 25657020
I0220 08:21:10.863626 15295 layer_factory.hpp:77] Creating layer bbox_pred
I0220 08:21:10.863633 15295 net.cpp:106] Creating Layer bbox_pred
I0220 08:21:10.863636 15295 net.cpp:454] bbox_pred <- fc7_drop7_0_split_1
I0220 08:21:10.863641 15295 net.cpp:411] bbox_pred -> bbox_pred
I0220 08:21:10.864289 15295 net.cpp:150] Setting up bbox_pred
I0220 08:21:10.864300 15295 net.cpp:157] Top shape: 1 8 (8)
I0220 08:21:10.864301 15295 net.cpp:165] Memory required for data: 25657052
I0220 08:21:10.864307 15295 layer_factory.hpp:77] Creating layer cls_prob
I0220 08:21:10.864315 15295 net.cpp:106] Creating Layer cls_prob
I0220 08:21:10.864321 15295 net.cpp:454] cls_prob <- cls_score
I0220 08:21:10.864328 15295 net.cpp:411] cls_prob -> cls_prob
I0220 08:21:10.864775 15295 net.cpp:150] Setting up cls_prob
I0220 08:21:10.864785 15295 net.cpp:157] Top shape: 1 2 (2)
I0220 08:21:10.864789 15295 net.cpp:165] Memory required for data: 25657060
I0220 08:21:10.864791 15295 net.cpp:228] cls_prob does not need backward computation.
I0220 08:21:10.864795 15295 net.cpp:228] bbox_pred does not need backward computation.
I0220 08:21:10.864799 15295 net.cpp:228] cls_score does not need backward computation.
I0220 08:21:10.864804 15295 net.cpp:228] fc7_drop7_0_split does not need backward computation.
…
