…
stepsize: 50000
snapshot: 0
snapshot_prefix: "zf_faster_rcnn"
average_loss: 100
iter_size: 2
I0507 22:07:18.709358  5042 solver.cpp:81] Creating training net from train_net file: models/pascal_voc/ZF/faster_rcnn_end2end/train.prototxt
I0507 22:07:18.734522  5042 net.cpp:49] Initializing net from parameters: 
name: "ZF"
state {
  phase: TRAIN
}
layer {
  name: "input-data"
  type: "Python"
  top: "data"
  top: "im_info"
  top: "gt_boxes"
  python_param {
    module: "roi_data_layer.layer"
    layer: "RoIDataLayer"
    param_str: "\'num_classes\': 2"
  }
}
layer {
  name: "conv1"
  type: "Convolution"
  bottom: "data"
  top: "conv1"
  param {
    lr_mult: 1
  }
  param {
    lr_mult: 2
  }
  convolution_param {
    num_output: 96
    pad: 3
    kernel_size: 7
    stride: 2
  }
}
layer {
  name: "relu1"
  type: "ReLU"
  bottom: "conv1"
  top: "conv1"
}
layer {
  name: "norm1"
  type: "LRN"
  bottom: "conv1"
  top: "norm1"
  lrn_param {
    local_size: 3
    alpha: 5e-05
    beta: 0.75
    norm_region: WITHIN_CHANNEL
    engine: CAFFE
  }
}
layer {
  name: "pool1"
  type: "Pooling"
  bottom: "norm1"
  top: "pool1"
  pooling_param {
    pool: MAX
    kernel_size: 3
    stride: 2
    pad: 1
  }
}
layer {
  name: "conv2"
  type: "Convolution"
  bottom: "pool1"
  top: "conv2"
  param {
    lr_mult: 1
  }
  param {
    lr_mult: 2
  }
  convolution_param {
    num_output: 256
    pad: 2
    kernel_size: 5
    stride: 2
  }
}
layer {
  name: "relu2"
  type: "ReLU"
  bottom: "conv2"
  top: "conv2"
}
layer {
  name: "norm2"
  type: "LRN"
  bottom: "conv2"
  top: "norm2"
  lrn_param {
    local_size: 3
    alpha: 5e-05
    beta: 0.75
    norm_region: WITHIN_CHANNEL
    engine: CAFFE
  }
}
layer {
  name: "pool2"
  type: "Pooling"
  bottom: "norm2"
  top: "pool2"
  pooling_param {
    pool: MAX
    kernel_size: 3
    stride: 2
    pad: 1
  }
}
layer {
  name: "conv3"
  type: "Convolution"
  bottom: "pool2"
  top: "conv3"
  param {
    lr_mult: 1
  }
  param {
    lr_mult: 2
  }
  convolution_param {
    num_output: 384
    pad: 1
    kernel_size: 3
    stride: 1
  }
}
layer {
  name: "relu3"
  type: "ReLU"
  bottom: "conv3"
  top: "conv3"
}
layer {
  name: "conv4"
  type: "Convolution"
  bottom: "conv3"
  top: "conv4"
  param {
    lr_mult: 1
  }
  param {
    lr_mult: 2
  }
  convolution_param {
    num_output: 384
    pad: 1
    kernel_size: 3
    stride: 1
  }
}
layer {
  name: "relu4"
  type: "ReLU"
  bottom: "conv4"
  top: "conv4"
}
layer {
  name: "conv5"
  type: "Convolution"
  bottom: "conv4"
  top: "conv5"
  param {
    lr_mult: 1
  }
  param {
    lr_mult: 2
  }
  convolution_param {
    num_output: 256
    pad: 1
    kernel_size: 3
    stride: 1
  }
}
layer {
  name: "relu5"
  type: "ReLU"
  bottom: "conv5"
  top: "conv5"
}
layer {
  name: "concat"
  type: "Concat"
  bottom: "conv3"
  bottom: "conv4"
  bottom: "conv5"
  top: "concat"
  concat_param {
    axis: 1
  }
}
layer {
  name: "normconcat"
  type: "LRN"
  bottom: "concat"
  top: "concatfeature"
  lrn_param {
    local_size: 3
    alpha: 5e-05
    beta: 0.75
    norm_region: WITHIN_CHANNEL
    engine: CAFFE
  }
}
layer {
  name: "conv6"
  type: "Convolution"
  bottom: "concatfeature"
  top: "conv6"
  param {
    lr_mult: 1
  }
  param {
    lr_mult: 2
  }
  convolution_param {
    num_output: 256
    pad: 0
    kernel_size: 1
    stride: 1
    weight_filler {
      type: "xavier"
    }
    bias_filler {
      type: "constant"
    }
  }
}
layer {
  name: "reluconv"
  type: "ReLU"
  bottom: "conv6"
  top: "conv6"
}
layer {
  name: "rpn_conv/3x3"
  type: "Convolution"
  bottom: "conv6"
  top: "rpn/output"
  param {
    lr_mult: 1
  }
  param {
    lr_mult: 2
  }
  convolution_param {
    num_output: 256
    pad: 1
    kernel_size: 3
    stride: 1
    weight_filler {
      type: "gaussian"
      std: 0.01
    }
    bias_filler {
      type: "constant"
      value: 0
    }
  }
}
layer {
  name: "rpn_relu/3x3"
  type: "ReLU"
  bottom: "rpn/output"
  top: "rpn/output"
}
layer {
  name: "rpn_cls_score"
  type: "Convolution"
  bottom: "rpn/output"
  top: "rpn_cls_score"
  param {
    lr_mult: 1
  }
  param {
    lr_mult: 2
  }
  convolution_param {
    num_output: 12
    pad: 0
    kernel_size: 1
    stride: 1
    weight_filler {
      type: "gaussian"
      std: 0.01
    }
    bias_filler {
      type: "constant"
      value: 0
    }
  }
}
layer {
  name: "rpn_bbox_pred"
  type: "Convolution"
  bottom: "rpn/output"
  top: "rpn_bbox_pred"
  param {
    lr_mult: 1
  }
  param {
    lr_mult: 2
  }
  convolution_param {
    num_output: 24
    pad: 0
    kernel_size: 1
    stride: 1
    weight_filler {
      type: "gaussian"
      std: 0.01
    }
    bias_filler {
      type: "constant"
      value: 0
    }
  }
}
layer {
  name: "rpn_cls_score_reshape"
  type: "Reshape"
  bottom: "rpn_cls_score"
  top: "rpn_cls_score_reshape"
  reshape_param {
    shape {
      dim: 0
      dim: 2
      dim: -1
      dim: 0
    }
  }
}
layer {
  name: "rpn-data"
  type: "Python"
  bottom: "rpn_cls_score"
  bottom: "gt_boxes"
  bottom: "im_info"
  bottom: "data"
  top: "rpn_labels"
  top: "rpn_bbox_targets"
  top: "rpn_bbox_inside_weights"
  top: "rpn_bbox_outside_weights"
  python_param {
    module: "rpn.anchor_target_layer"
    layer: "AnchorTargetLayer"
    param_str: "\'feat_stride\': 16"
  }
}
layer {
  name: "rpn_loss_cls"
  type: "SoftmaxWithLoss"
  bottom: "rpn_cls_score_reshape"
  bottom: "rpn_labels"
  top: "rpn_cls_loss"
  loss_weight: 1
  propagate_down: true
  propagate_down: false
  loss_param {
    ignore_label: -1
    normalize: true
  }
}
layer {
  name: "rpn_loss_bbox"
  type: "SmoothL1Loss"
  bottom: "rpn_bbox_pred"
  bottom: "rpn_bbox_targets"
  bottom: "rpn_bbox_inside_weights"
  bottom: "rpn_bbox_outside_weights"
  top: "rpn_loss_bbox"
  loss_weight: 1
  smooth_l1_loss_param {
    sigma: 3
  }
}
layer {
  name: "rpn_cls_prob"
  type: "Softmax"
  bottom: "rpn_cls_score_reshape"
  top: "rpn_cls_prob"
}
layer {
  name: "rpn_cls_prob_reshape"
  type: "Reshape"
  bottom: "rpn_cls_prob"
  top: "rpn_cls_prob_reshape"
  reshape_param {
    shape {
      dim: 0
      dim: 12
      dim: -1
      dim: 0
    }
  }
}
layer {
  name: "proposal"
  type: "Python"
  bottom: "rpn_cls_prob_reshape"
  bottom: "rpn_bbox_pred"
  bottom: "im_info"
  top: "rpn_rois"
  python_param {
    module: "rpn.proposal_layer"
    layer: "ProposalLayer"
    param_str: "\'feat_stride\': 16"
  }
}
layer {
  name: "roi-data"
  type: "Python"
  bottom: "rpn_rois"
  bottom: "gt_boxes"
  top: "rois"
  top: "labels"
  top: "bbox_targets"
  top: "bbox_inside_weights"
  top: "bbox_outside_weights"
  python_param {
    module: "rpn.proposal_target_layer"
    layer: "ProposalTargetLayer"
    param_str: "\'num_classes\': 2"
  }
}
layer {
  name: "roi_pool_conv5"
  type: "ROIPooling"
  bottom: "conv6"
  bottom: "rois"
  top: "roi_pool_conv5"
  roi_pooling_param {
    pooled_h: 6
    pooled_w: 6
    spatial_scale: 0.0625
  }
}
layer {
  name: "fc6"
  type: "InnerProduct"
  bottom: "roi_pool_conv5"
  top: "fc6"
  param {
    lr_mult: 1
  }
  param {
    lr_mult: 2
  }
  inner_product_param {
    num_output: 4096
  }
}
layer {
  name: "relu6"
  type: "ReLU"
  bottom: "fc6"
  top: "fc6"
}
layer {
  name: "drop6"
  type: "Dropout"
  bottom: "fc6"
  top: "fc6"
  dropout_param {
    dropout_ratio: 0.5
    scale_train: false
  }
}
layer {
  name: "fc7"
  type: "InnerProduct"
  bottom: "fc6"
  top: "fc7"
  param {
    lr_mult: 1
  }
  param {
    lr_mult: 2
  }
  inner_product_param {
    num_output: 4096
  }
}
layer {
  name: "relu7"
  type: "ReLU"
  bottom: "fc7"
  top: "fc7"
}
layer {
  name: "drop7"
  type: "Dropout"
  bottom: "fc7"
  top: "fc7"
  dropout_param {
    dropout_ratio: 0.5
    scale_train: false
  }
}
layer {
  name: "cls_score"
  type: "InnerProduct"
  bottom: "fc7"
  top: "cls_score"
  param {
    lr_mult: 1
  }
  param {
    lr_mult: 2
  }
  inner_product_param {
    num_output: 2
    weight_filler {
      type: "gaussian"
      std: 0.01
    }
    bias_filler {
      type: "constant"
      value: 0
    }
  }
}
layer {
  name: "bbox_pred"
  type: "InnerProduct"
  bottom: "fc7"
  top: "bbox_pred"
  param {
    lr_mult: 1
  }
  param {
    lr_mult: 2
  }
  inner_product_param {
    num_output: 8
    weight_filler {
      type: "gaussian"
      std: 0.001
    }
    bias_filler {
      type: "constant"
      value: 0
    }
  }
}
layer {
  name: "loss_cls"
  type: "SoftmaxWithLoss"
  bottom: "cls_score"
  bottom: "labels"
  top: "cls_loss"
  loss_weight: 1
  propagate_down: true
  propagate_down: false
  loss_param {
    ignore_label: -1
    normalize: true
  }
}
layer {
  name: "loss_bbox"
  type: "SmoothL1Loss"
  bottom: "bbox_pred"
  bottom: "bbox_targets"
  bottom: "bbox_inside_weights"
  bottom: "bbox_outside_weights"
  top: "bbox_loss"
  loss_weight: 1
}
I0507 22:07:18.734908  5042 layer_factory.hpp:77] Creating layer input-data
I0507 22:07:19.773599  5042 net.cpp:106] Creating Layer input-data
I0507 22:07:19.773638  5042 net.cpp:411] input-data -> data
I0507 22:07:19.792115  5042 net.cpp:411] input-data -> im_info
I0507 22:07:19.792168  5042 net.cpp:411] input-data -> gt_boxes
RoiDataLayer: name_to_top: {'gt_boxes': 2, 'data': 0, 'im_info': 1}
I0507 22:09:46.365576  5042 net.cpp:150] Setting up input-data
I0507 22:09:46.365602  5042 net.cpp:157] Top shape: 1 3 600 1000 (1800000)
I0507 22:09:46.365608  5042 net.cpp:157] Top shape: 1 3 (3)
I0507 22:09:46.365612  5042 net.cpp:157] Top shape: 1 4 (4)
I0507 22:09:46.365617  5042 net.cpp:165] Memory required for data: 7200028
I0507 22:09:46.365628  5042 layer_factory.hpp:77] Creating layer data_input-data_0_split
I0507 22:09:46.365648  5042 net.cpp:106] Creating Layer data_input-data_0_split
I0507 22:09:46.365658  5042 net.cpp:454] data_input-data_0_split <- data
I0507 22:09:46.365669  5042 net.cpp:411] data_input-data_0_split -> data_input-data_0_split_0
I0507 22:09:46.365680  5042 net.cpp:411] data_input-data_0_split -> data_input-data_0_split_1
I0507 22:09:46.365721  5042 net.cpp:150] Setting up data_input-data_0_split
I0507 22:09:46.365726  5042 net.cpp:157] Top shape: 1 3 600 1000 (1800000)
I0507 22:09:46.365730  5042 net.cpp:157] Top shape: 1 3 600 1000 (1800000)
I0507 22:09:46.365731  5042 net.cpp:165] Memory required for data: 21600028
I0507 22:09:46.365734  5042 layer_factory.hpp:77] Creating layer im_info_input-data_1_split
I0507 22:09:46.365741  5042 net.cpp:106] Creating Layer im_info_input-data_1_split
I0507 22:09:46.365743  5042 net.cpp:454] im_info_input-data_1_split <- im_info
I0507 22:09:46.365747  5042 net.cpp:411] im_info_input-data_1_split -> im_info_input-data_1_split_0
I0507 22:09:46.365751  5042 net.cpp:411] im_info_input-data_1_split -> im_info_input-data_1_split_1
I0507 22:09:46.365774  5042 net.cpp:150] Setting up im_info_input-data_1_split
I0507 22:09:46.365778  5042 net.cpp:157] Top shape: 1 3 (3)
I0507 22:09:46.365782  5042 net.cpp:157] Top shape: 1 3 (3)
I0507 22:09:46.365783  5042 net.cpp:165] Memory required for data: 21600052
I0507 22:09:46.365785  5042 layer_factory.hpp:77] Creating layer gt_boxes_input-data_2_split
I0507 22:09:46.365790  5042 net.cpp:106] Creating Layer gt_boxes_input-data_2_split
I0507 22:09:46.365793  5042 net.cpp:454] gt_boxes_input-data_2_split <- gt_boxes
I0507 22:09:46.365798  5042 net.cpp:411] gt_boxes_input-data_2_split -> gt_boxes_input-data_2_split_0
I0507 22:09:46.365805  5042 net.cpp:411] gt_boxes_input-data_2_split -> gt_boxes_input-data_2_split_1
I0507 22:09:46.365834  5042 net.cpp:150] Setting up gt_boxes_input-data_2_split
I0507 22:09:46.365842  5042 net.cpp:157] Top shape: 1 4 (4)
I0507 22:09:46.365847  5042 net.cpp:157] Top shape: 1 4 (4)
I0507 22:09:46.365850  5042 net.cpp:165] Memory required for data: 21600084
I0507 22:09:46.365854  5042 layer_factory.hpp:77] Creating layer conv1
I0507 22:09:46.365873  5042 net.cpp:106] Creating Layer conv1
I0507 22:09:46.365882  5042 net.cpp:454] conv1 <- data_input-data_0_split_0
I0507 22:09:46.365887  5042 net.cpp:411] conv1 -> conv1
I0507 22:09:47.967558  5042 net.cpp:150] Setting up conv1
I0507 22:09:47.967600  5042 net.cpp:157] Top shape: 1 96 300 500 (14400000)
I0507 22:09:47.967609  5042 net.cpp:165] Memory required for data: 79200084
I0507 22:09:47.967636  5042 layer_factory.hpp:77] Creating layer relu1
I0507 22:09:47.967653  5042 net.cpp:106] Creating Layer relu1
I0507 22:09:47.967661  5042 net.cpp:454] relu1 <- conv1
I0507 22:09:47.967671  5042 net.cpp:397] relu1 -> conv1 (in-place)
I0507 22:09:47.968097  5042 net.cpp:150] Setting up relu1
I0507 22:09:47.968117  5042 net.cpp:157] Top shape: 1 96 300 500 (14400000)
I0507 22:09:47.968123  5042 net.cpp:165] Memory required for data: 136800084
I0507 22:09:47.968130  5042 layer_factory.hpp:77] Creating layer norm1
I0507 22:09:47.968148  5042 net.cpp:106] Creating Layer norm1
I0507 22:09:47.968220  5042 net.cpp:454] norm1 <- conv1
I0507 22:09:47.968252  5042 net.cpp:411] norm1 -> norm1
I0507 22:09:47.968482  5042 net.cpp:150] Setting up norm1
I0507 22:09:47.968498  5042 net.cpp:157] Top shape: 1 96 300 500 (14400000)
I0507 22:09:47.968504  5042 net.cpp:165] Memory required for data: 194400084
I0507 22:09:47.968510  5042 layer_factory.hpp:77] Creating layer pool1
I0507 22:09:47.968521  5042 net.cpp:106] Creating Layer pool1
I0507 22:09:47.968530  5042 net.cpp:454] pool1 <- norm1
I0507 22:09:47.968545  5042 net.cpp:411] pool1 -> pool1
I0507 22:09:47.968638  5042 net.cpp:150] Setting up pool1
I0507 22:09:47.968657  5042 net.cpp:157] Top shape: 1 96 151 251 (3638496)
I0507 22:09:47.968662  5042 net.cpp:165] Memory required for data: 208954068
I0507 22:09:47.968668  5042 layer_factory.hpp:77] Creating layer conv2
I0507 22:09:47.968696  5042 net.cpp:106] Creating Layer conv2
I0507 22:09:47.968711  5042 net.cpp:454] conv2 <- pool1
I0507 22:09:47.968729  5042 net.cpp:411] conv2 -> conv2
I0507 22:09:47.981019  5042 net.cpp:150] Setting up conv2
I0507 22:09:47.981045  5042 net.cpp:157] Top shape: 1 256 76 126 (2451456)
I0507 22:09:47.981048  5042 net.cpp:165] Memory required for data: 218759892
I0507 22:09:47.981065  5042 layer_factory.hpp:77] Creating layer relu2
I0507 22:09:47.981076  5042 net.cpp:106] Creating Layer relu2
I0507 22:09:47.981081  5042 net.cpp:454] relu2 <- conv2
I0507 22:09:47.981088  5042 net.cpp:397] relu2 -> conv2 (in-place)
I0507 22:09:47.981739  5042 net.cpp:150] Setting up relu2
I0507 22:09:47.981752  5042 net.cpp:157] Top shape: 1 256 76 126 (2451456)
I0507 22:09:47.981755  5042 net.cpp:165] Memory required for data: 228565716
I0507 22:09:47.981760  5042 layer_factory.hpp:77] Creating layer norm2
I0507 22:09:47.981770  5042 net.cpp:106] Creating Layer norm2
I0507 22:09:47.981787  5042 net.cpp:454] norm2 <- conv2
I0507 22:09:47.981798  5042 net.cpp:411] norm2 -> norm2
I0507 22:09:47.981911  5042 net.cpp:150] Setting up norm2
I0507 22:09:47.981921  5042 net.cpp:157] Top shape: 1 256 76 126 (2451456)
I0507 22:09:47.981925  5042 net.cpp:165] Memory required for data: 238371540
I0507 22:09:47.981928  5042 layer_factory.hpp:77] Creating layer pool2
I0507 22:09:47.981937  5042 net.cpp:106] Creating Layer pool2
I0507 22:09:47.981942  5042 net.cpp:454] pool2 <- norm2
I0507 22:09:47.981948  5042 net.cpp:411] pool2 -> pool2
I0507 22:09:47.981984  5042 net.cpp:150] Setting up pool2
I0507 22:09:47.981992  5042 net.cpp:157] Top shape: 1 256 39 64 (638976)
I0507 22:09:47.981995  5042 net.cpp:165] Memory required for data: 240927444
I0507 22:09:47.981999  5042 layer_factory.hpp:77] Creating layer conv3
I0507 22:09:47.982012  5042 net.cpp:106] Creating Layer conv3
I0507 22:09:47.982029  5042 net.cpp:454] conv3 <- pool2
I0507 22:09:47.982050  5042 net.cpp:411] conv3 -> conv3
I0507 22:09:47.994686  5042 net.cpp:150] Setting up conv3
I0507 22:09:47.994720  5042 net.cpp:157] Top shape: 1 384 39 64 (958464)
I0507 22:09:47.994725  5042 net.cpp:165] Memory required for data: 244761300
I0507 22:09:47.994746  5042 layer_factory.hpp:77] Creating layer relu3
I0507 22:09:47.994761  5042 net.cpp:106] Creating Layer relu3
I0507 22:09:47.994768  5042 net.cpp:454] relu3 <- conv3
I0507 22:09:47.994777  5042 net.cpp:397] relu3 -> conv3 (in-place)
I0507 22:09:47.995090  5042 net.cpp:150] Setting up relu3
I0507 22:09:47.995102  5042 net.cpp:157] Top shape: 1 384 39 64 (958464)
I0507 22:09:47.995106  5042 net.cpp:165] Memory required for data: 248595156
I0507 22:09:47.995110  5042 layer_factory.hpp:77] Creating layer conv3_relu3_0_split
I0507 22:09:47.995120  5042 net.cpp:106] Creating Layer conv3_relu3_0_split
I0507 22:09:47.995124  5042 net.cpp:454] conv3_relu3_0_split <- conv3
I0507 22:09:47.995132  5042 net.cpp:411] conv3_relu3_0_split -> conv3_relu3_0_split_0
I0507 22:09:47.995144  5042 net.cpp:411] conv3_relu3_0_split -> conv3_relu3_0_split_1
I0507 22:09:47.995208  5042 net.cpp:150] Setting up conv3_relu3_0_split
I0507 22:09:47.995218  5042 net.cpp:157] Top shape: 1 384 39 64 (958464)
I0507 22:09:47.995223  5042 net.cpp:157] Top shape: 1 384 39 64 (958464)
I0507 22:09:47.995226  5042 net.cpp:165] Memory required for data: 256262868
I0507 22:09:47.995231  5042 layer_factory.hpp:77] Creating layer conv4
I0507 22:09:47.995249  5042 net.cpp:106] Creating Layer conv4
I0507 22:09:47.995254  5042 net.cpp:454] conv4 <- conv3_relu3_0_split_0
I0507 22:09:47.995261  5042 net.cpp:411] conv4 -> conv4
I0507 22:09:48.000797  5042 net.cpp:150] Setting up conv4
I0507 22:09:48.000828  5042 net.cpp:157] Top shape: 1 384 39 64 (958464)
I0507 22:09:48.000834  5042 net.cpp:165] Memory required for data: 260096724
I0507 22:09:48.000849  5042 layer_factory.hpp:77] Creating layer relu4
I0507 22:09:48.000869  5042 net.cpp:106] Creating Layer relu4
I0507 22:09:48.000885  5042 net.cpp:454] relu4 <- conv4
I0507 22:09:48.000895  5042 net.cpp:397] relu4 -> conv4 (in-place)
I0507 22:09:48.001111  5042 net.cpp:150] Setting up relu4
I0507 22:09:48.001121  5042 net.cpp:157] Top shape: 1 384 39 64 (958464)
I0507 22:09:48.001124  5042 net.cpp:165] Memory required for data: 263930580
I0507 22:09:48.001127  5042 layer_factory.hpp:77] Creating layer conv4_relu4_0_split
I0507 22:09:48.001135  5042 net.cpp:106] Creating Layer conv4_relu4_0_split
I0507 22:09:48.001138  5042 net.cpp:454] conv4_relu4_0_split <- conv4
I0507 22:09:48.001145  5042 net.cpp:411] conv4_relu4_0_split -> conv4_relu4_0_split_0
I0507 22:09:48.001154  5042 net.cpp:411] conv4_relu4_0_split -> conv4_relu4_0_split_1
I0507 22:09:48.001210  5042 net.cpp:150] Setting up conv4_relu4_0_split
I0507 22:09:48.001220  5042 net.cpp:157] Top shape: 1 384 39 64 (958464)
I0507 22:09:48.001224  5042 net.cpp:157] Top shape: 1 384 39 64 (958464)
I0507 22:09:48.001227  5042 net.cpp:165] Memory required for data: 271598292
I0507 22:09:48.001230  5042 layer_factory.hpp:77] Creating layer conv5
I0507 22:09:48.001241  5042 net.cpp:106] Creating Layer conv5
I0507 22:09:48.001246  5042 net.cpp:454] conv5 <- conv4_relu4_0_split_0
I0507 22:09:48.001256  5042 net.cpp:411] conv5 -> conv5
I0507 22:09:48.005105  5042 net.cpp:150] Setting up conv5
I0507 22:09:48.005136  5042 net.cpp:157] Top shape: 1 256 39 64 (638976)
I0507 22:09:48.005139  5042 net.cpp:165] Memory required for data: 274154196
I0507 22:09:48.005154  5042 layer_factory.hpp:77] Creating layer relu5
I0507 22:09:48.005167  5042 net.cpp:106] Creating Layer relu5
I0507 22:09:48.005172  5042 net.cpp:454] relu5 <- conv5
I0507 22:09:48.005178  5042 net.cpp:397] relu5 -> conv5 (in-place)
I0507 22:09:48.005372  5042 net.cpp:150] Setting up relu5
I0507 22:09:48.005380  5042 net.cpp:157] Top shape: 1 256 39 64 (638976)
I0507 22:09:48.005383  5042 net.cpp:165] Memory required for data: 276710100
I0507 22:09:48.005388  5042 layer_factory.hpp:77] Creating layer concat
I0507 22:09:48.005396  5042 net.cpp:106] Creating Layer concat
I0507 22:09:48.005399  5042 net.cpp:454] concat <- conv3_relu3_0_split_1
I0507 22:09:48.005405  5042 net.cpp:454] concat <- conv4_relu4_0_split_1
I0507 22:09:48.005409  5042 net.cpp:454] concat <- conv5
I0507 22:09:48.005416  5042 net.cpp:411] concat -> concat
I0507 22:09:48.005451  5042 net.cpp:150] Setting up concat
I0507 22:09:48.005462  5042 net.cpp:157] Top shape: 1 1024 39 64 (2555904)
I0507 22:09:48.005466  5042 net.cpp:165] Memory required for data: 286933716
I0507 22:09:48.005471  5042 layer_factory.hpp:77] Creating layer normconcat
I0507 22:09:48.005482  5042 net.cpp:106] Creating Layer normconcat
I0507 22:09:48.005506  5042 net.cpp:454] normconcat <- concat
I0507 22:09:48.005522  5042 net.cpp:411] normconcat -> concatfeature
I0507 22:09:48.005643  5042 net.cpp:150] Setting up normconcat
I0507 22:09:48.005653  5042 net.cpp:157] Top shape: 1 1024 39 64 (2555904)
I0507 22:09:48.005657  5042 net.cpp:165] Memory required for data: 297157332
I0507 22:09:48.005661  5042 layer_factory.hpp:77] Creating layer conv6
I0507 22:09:48.005672  5042 net.cpp:106] Creating Layer conv6
I0507 22:09:48.005676  5042 net.cpp:454] conv6 <- concatfeature
I0507 22:09:48.005681  5042 net.cpp:411] conv6 -> conv6
I0507 22:09:48.008311  5042 net.cpp:150] Setting up conv6
I0507 22:09:48.008328  5042 net.cpp:157] Top shape: 1 256 39 64 (638976)
I0507 22:09:48.008332  5042 net.cpp:165] Memory required for data: 299713236
I0507 22:09:48.008339  5042 layer_factory.hpp:77] Creating layer reluconv
I0507 22:09:48.008348  5042 net.cpp:106] Creating Layer reluconv
I0507 22:09:48.008352  5042 net.cpp:454] reluconv <- conv6
I0507 22:09:48.008358  5042 net.cpp:397] reluconv -> conv6 (in-place)
I0507 22:09:48.008544  5042 net.cpp:150] Setting up reluconv
I0507 22:09:48.008553  5042 net.cpp:157] Top shape: 1 256 39 64 (638976)
I0507 22:09:48.008556  5042 net.cpp:165] Memory required for data: 302269140
I0507 22:09:48.008559  5042 layer_factory.hpp:77] Creating layer conv6_reluconv_0_split
I0507 22:09:48.008565  5042 net.cpp:106] Creating Layer conv6_reluconv_0_split
I0507 22:09:48.008569  5042 net.cpp:454] conv6_reluconv_0_split <- conv6
I0507 22:09:48.008575  5042 net.cpp:411] conv6_reluconv_0_split -> conv6_reluconv_0_split_0
I0507 22:09:48.008584  5042 net.cpp:411] conv6_reluconv_0_split -> conv6_reluconv_0_split_1
I0507 22:09:48.008635  5042 net.cpp:150] Setting up conv6_reluconv_0_split
I0507 22:09:48.008644  5042 net.cpp:157] Top shape: 1 256 39 64 (638976)
I0507 22:09:48.008651  5042 net.cpp:157] Top shape: 1 256 39 64 (638976)
I0507 22:09:48.008654  5042 net.cpp:165] Memory required for data: 307380948
I0507 22:09:48.008659  5042 layer_factory.hpp:77] Creating layer rpn_conv/3x3
I0507 22:09:48.008674  5042 net.cpp:106] Creating Layer rpn_conv/3x3
I0507 22:09:48.008697  5042 net.cpp:454] rpn_conv/3x3 <- conv6_reluconv_0_split_0
I0507 22:09:48.008708  5042 net.cpp:411] rpn_conv/3x3 -> rpn/output
I0507 22:09:48.015373  5042 net.cpp:150] Setting up rpn_conv/3x3
I0507 22:09:48.015400  5042 net.cpp:157] Top shape: 1 256 39 64 (638976)
I0507 22:09:48.015403  5042 net.cpp:165] Memory required for data: 309936852
I0507 22:09:48.015413  5042 layer_factory.hpp:77] Creating layer rpn_relu/3x3
I0507 22:09:48.015421  5042 net.cpp:106] Creating Layer rpn_relu/3x3
I0507 22:09:48.015427  5042 net.cpp:454] rpn_relu/3x3 <- rpn/output
I0507 22:09:48.015434  5042 net.cpp:397] rpn_relu/3x3 -> rpn/output (in-place)
I0507 22:09:48.015600  5042 net.cpp:150] Setting up rpn_relu/3x3
I0507 22:09:48.015609  5042 net.cpp:157] Top shape: 1 256 39 64 (638976)
I0507 22:09:48.015610  5042 net.cpp:165] Memory required for data: 312492756
I0507 22:09:48.015614  5042 layer_factory.hpp:77] Creating layer rpn/output_rpn_relu/3x3_0_split
I0507 22:09:48.015619  5042 net.cpp:106] Creating Layer rpn/output_rpn_relu/3x3_0_split
I0507 22:09:48.015622  5042 net.cpp:454] rpn/output_rpn_relu/3x3_0_split <- rpn/output
I0507 22:09:48.015630  5042 net.cpp:411] rpn/output_rpn_relu/3x3_0_split -> rpn/output_rpn_relu/3x3_0_split_0
I0507 22:09:48.015638  5042 net.cpp:411] rpn/output_rpn_relu/3x3_0_split -> rpn/output_rpn_relu/3x3_0_split_1
I0507 22:09:48.015686  5042 net.cpp:150] Setting up rpn/output_rpn_relu/3x3_0_split
I0507 22:09:48.015692  5042 net.cpp:157] Top shape: 1 256 39 64 (638976)
I0507 22:09:48.015696  5042 net.cpp:157] Top shape: 1 256 39 64 (638976)
I0507 22:09:48.015697  5042 net.cpp:165] Memory required for data: 317604564
I0507 22:09:48.015700  5042 layer_factory.hpp:77] Creating layer rpn_cls_score
I0507 22:09:48.015710  5042 net.cpp:106] Creating Layer rpn_cls_score
I0507 22:09:48.015713  5042 net.cpp:454] rpn_cls_score <- rpn/output_rpn_relu/3x3_0_split_0
I0507 22:09:48.015720  5042 net.cpp:411] rpn_cls_score -> rpn_cls_score
I0507 22:09:48.016765  5042 net.cpp:150] Setting up rpn_cls_score
I0507 22:09:48.016777  5042 net.cpp:157] Top shape: 1 12 39 64 (29952)
I0507 22:09:48.016779  5042 net.cpp:165] Memory required for data: 317724372
I0507 22:09:48.016784  5042 layer_factory.hpp:77] Creating layer rpn_cls_score_rpn_cls_score_0_split
I0507 22:09:48.016789  5042 net.cpp:106] Creating Layer rpn_cls_score_rpn_cls_score_0_split
I0507 22:09:48.016793  5042 net.cpp:454] rpn_cls_score_rpn_cls_score_0_split <- rpn_cls_score
I0507 22:09:48.016799  5042 net.cpp:411] rpn_cls_score_rpn_cls_score_0_split -> rpn_cls_score_rpn_cls_score_0_split_0
I0507 22:09:48.016804  5042 net.cpp:411] rpn_cls_score_rpn_cls_score_0_split -> rpn_cls_score_rpn_cls_score_0_split_1
I0507 22:09:48.016840  5042 net.cpp:150] Setting up rpn_cls_score_rpn_cls_score_0_split
I0507 22:09:48.016844  5042 net.cpp:157] Top shape: 1 12 39 64 (29952)
I0507 22:09:48.016847  5042 net.cpp:157] Top shape: 1 12 39 64 (29952)
I0507 22:09:48.016851  5042 net.cpp:165] Memory required for data: 317963988
I0507 22:09:48.016855  5042 layer_factory.hpp:77] Creating layer rpn_bbox_pred
I0507 22:09:48.016867  5042 net.cpp:106] Creating Layer rpn_bbox_pred
I0507 22:09:48.016880  5042 net.cpp:454] rpn_bbox_pred <- rpn/output_rpn_relu/3x3_0_split_1
I0507 22:09:48.016888  5042 net.cpp:411] rpn_bbox_pred -> rpn_bbox_pred
I0507 22:09:48.017959  5042 net.cpp:150] Setting up rpn_bbox_pred
I0507 22:09:48.017971  5042 net.cpp:157] Top shape: 1 24 39 64 (59904)
I0507 22:09:48.017972  5042 net.cpp:165] Memory required for data: 318203604
I0507 22:09:48.017982  5042 layer_factory.hpp:77] Creating layer rpn_bbox_pred_rpn_bbox_pred_0_split
I0507 22:09:48.017987  5042 net.cpp:106] Creating Layer rpn_bbox_pred_rpn_bbox_pred_0_split
I0507 22:09:48.017989  5042 net.cpp:454] rpn_bbox_pred_rpn_bbox_pred_0_split <- rpn_bbox_pred
I0507 22:09:48.017995  5042 net.cpp:411] rpn_bbox_pred_rpn_bbox_pred_0_split -> rpn_bbox_pred_rpn_bbox_pred_0_split_0
I0507 22:09:48.018000  5042 net.cpp:411] rpn_bbox_pred_rpn_bbox_pred_0_split -> rpn_bbox_pred_rpn_bbox_pred_0_split_1
I0507 22:09:48.018031  5042 net.cpp:150] Setting up rpn_bbox_pred_rpn_bbox_pred_0_split
I0507 22:09:48.018056  5042 net.cpp:157] Top shape: 1 24 39 64 (59904)
I0507 22:09:48.018074  5042 net.cpp:157] Top shape: 1 24 39 64 (59904)
I0507 22:09:48.018095  5042 net.cpp:165] Memory required for data: 318682836
I0507 22:09:48.018101  5042 layer_factory.hpp:77] Creating layer rpn_cls_score_reshape
I0507 22:09:48.018117  5042 net.cpp:106] Creating Layer rpn_cls_score_reshape
I0507 22:09:48.018123  5042 net.cpp:454] rpn_cls_score_reshape <- rpn_cls_score_rpn_cls_score_0_split_0
I0507 22:09:48.018131  5042 net.cpp:411] rpn_cls_score_reshape -> rpn_cls_score_reshape
I0507 22:09:48.018165  5042 net.cpp:150] Setting up rpn_cls_score_reshape
I0507 22:09:48.018173  5042 net.cpp:157] Top shape: 1 2 234 64 (29952)
I0507 22:09:48.018177  5042 net.cpp:165] Memory required for data: 318802644
I0507 22:09:48.018180  5042 layer_factory.hpp:77] Creating layer rpn_cls_score_reshape_rpn_cls_score_reshape_0_split
I0507 22:09:48.018187  5042 net.cpp:106] Creating Layer rpn_cls_score_reshape_rpn_cls_score_reshape_0_split
I0507 22:09:48.018193  5042 net.cpp:454] rpn_cls_score_reshape_rpn_cls_score_reshape_0_split <- rpn_cls_score_reshape
I0507 22:09:48.018198  5042 net.cpp:411] rpn_cls_score_reshape_rpn_cls_score_reshape_0_split -> rpn_cls_score_reshape_rpn_cls_score_reshape_0_split_0
I0507 22:09:48.018208  5042 net.cpp:411] rpn_cls_score_reshape_rpn_cls_score_reshape_0_split -> rpn_cls_score_reshape_rpn_cls_score_reshape_0_split_1
I0507 22:09:48.018245  5042 net.cpp:150] Setting up rpn_cls_score_reshape_rpn_cls_score_reshape_0_split
I0507 22:09:48.018252  5042 net.cpp:157] Top shape: 1 2 234 64 (29952)
I0507 22:09:48.018257  5042 net.cpp:157] Top shape: 1 2 234 64 (29952)
I0507 22:09:48.018260  5042 net.cpp:165] Memory required for data: 319042260
I0507 22:09:48.018265  5042 layer_factory.hpp:77] Creating layer rpn-data
I0507 22:09:48.054147  5042 net.cpp:106] Creating Layer rpn-data
I0507 22:09:48.054177  5042 net.cpp:454] rpn-data <- rpn_cls_score_rpn_cls_score_0_split_1
I0507 22:09:48.054189  5042 net.cpp:454] rpn-data <- gt_boxes_input-data_2_split_0
I0507 22:09:48.054196  5042 net.cpp:454] rpn-data <- im_info_input-data_1_split_0
I0507 22:09:48.054204  5042 net.cpp:454] rpn-data <- data_input-data_0_split_1
I0507 22:09:48.054214  5042 net.cpp:411] rpn-data -> rpn_labels
I0507 22:09:48.054229  5042 net.cpp:411] rpn-data -> rpn_bbox_targets
I0507 22:09:48.054242  5042 net.cpp:411] rpn-data -> rpn_bbox_inside_weights
I0507 22:09:48.054253  5042 net.cpp:411] rpn-data -> rpn_bbox_outside_weights
I0507 22:09:48.056000  5042 net.cpp:150] Setting up rpn-data
I0507 22:09:48.056031  5042 net.cpp:157] Top shape: 1 1 234 64 (14976)
I0507 22:09:48.056037  5042 net.cpp:157] Top shape: 1 24 39 64 (59904)
I0507 22:09:48.056043  5042 net.cpp:157] Top shape: 1 24 39 64 (59904)
I0507 22:09:48.056048  5042 net.cpp:157] Top shape: 1 24 39 64 (59904)
I0507 22:09:48.056052  5042 net.cpp:165] Memory required for data: 319821012
I0507 22:09:48.056061  5042 layer_factory.hpp:77] Creating layer rpn_loss_cls
I0507 22:09:48.056078  5042 net.cpp:106] Creating Layer rpn_loss_cls
I0507 22:09:48.056085  5042 net.cpp:454] rpn_loss_cls <- rpn_cls_score_reshape_rpn_cls_score_reshape_0_split_0
I0507 22:09:48.056093  5042 net.cpp:454] rpn_loss_cls <- rpn_labels
…
I0507 22:09:48.057584  5042 net.cpp:157] Top shape: (1)
I0507 22:09:48.057586  5042 net.cpp:160]     with loss weight 1
I0507 22:09:48.057591  5042 net.cpp:165] Memory required for data: 319821020
I0507 22:09:48.057595  5042 layer_factory.hpp:77] Creating layer rpn_cls_prob
I0507 22:09:48.057600  5042 net.cpp:106] Creating Layer rpn_cls_prob
I0507 22:09:48.057605  5042 net.cpp:454] rpn_cls_prob <- rpn_cls_score_reshape_rpn_cls_score_reshape_0_split_1
I0507 22:09:48.057610  5042 net.cpp:411] rpn_cls_prob -> rpn_cls_prob
I0507 22:09:48.057848  5042 net.cpp:150] Setting up rpn_cls_prob
I0507 22:09:48.057858  5042 net.cpp:157] Top shape: 1 2 234 64 (29952)
I0507 22:09:48.057862  5042 net.cpp:165] Memory required for data: 319940828
I0507 22:09:48.057865  5042 layer_factory.hpp:77] Creating layer rpn_cls_prob_reshape
I0507 22:09:48.057873  5042 net.cpp:106] Creating Layer rpn_cls_prob_reshape
I0507 22:09:48.057878  5042 net.cpp:454] rpn_cls_prob_reshape <- rpn_cls_prob
I0507 22:09:48.057883  5042 net.cpp:411] rpn_cls_prob_reshape -> rpn_cls_prob_reshape
I0507 22:09:48.057919  5042 net.cpp:150] Setting up rpn_cls_prob_reshape
I0507 22:09:48.057929  5042 net.cpp:157] Top shape: 1 12 39 64 (29952)
I0507 22:09:48.057934  5042 net.cpp:165] Memory required for data: 320060636
I0507 22:09:48.057938  5042 layer_factory.hpp:77] Creating layer proposal
I0507 22:09:48.094774  5042 net.cpp:106] Creating Layer proposal
I0507 22:09:48.094815  5042 net.cpp:454] proposal <- rpn_cls_prob_reshape
I0507 22:09:48.094832  5042 net.cpp:454] proposal <- rpn_bbox_pred_rpn_bbox_pred_0_split_1
I0507 22:09:48.094844  5042 net.cpp:454] proposal <- im_info_input-data_1_split_1
I0507 22:09:48.094861  5042 net.cpp:411] proposal -> rpn_rois
I0507 22:09:48.116081  5042 net.cpp:150] Setting up proposal
I0507 22:09:48.116112  5042 net.cpp:157] Top shape: 1 5 (5)
I0507 22:09:48.116117  5042 net.cpp:165] Memory required for data: 320060656
I0507 22:09:48.116124  5042 layer_factory.hpp:77] Creating layer roi-data
I0507 22:09:48.117728  5042 net.cpp:106] Creating Layer roi-data
I0507 22:09:48.117743  5042 net.cpp:454] roi-data <- rpn_rois
I0507 22:09:48.117753  5042 net.cpp:454] roi-data <- gt_boxes_input-data_2_split_1
I0507 22:09:48.117761  5042 net.cpp:411] roi-data -> rois
I0507 22:09:48.117779  5042 net.cpp:411] roi-data -> labels
I0507 22:09:48.117789  5042 net.cpp:411] roi-data -> bbox_targets
I0507 22:09:48.117797  5042 net.cpp:411] roi-data -> bbox_inside_weights
I0507 22:09:48.117805  5042 net.cpp:411] roi-data -> bbox_outside_weights
I0507 22:09:48.118297  5042 net.cpp:150] Setting up roi-data
I0507 22:09:48.118310  5042 net.cpp:157] Top shape: 1 5 (5)
I0507 22:09:48.118315  5042 net.cpp:157] Top shape: 1 1 (1)
I0507 22:09:48.118320  5042 net.cpp:157] Top shape: 1 8 (8)
I0507 22:09:48.118324  5042 net.cpp:157] Top shape: 1 8 (8)
I0507 22:09:48.118329  5042 net.cpp:157] Top shape: 1 8 (8)
I0507 22:09:48.118332  5042 net.cpp:165] Memory required for data: 320060776
I0507 22:09:48.118336  5042 layer_factory.hpp:77] Creating layer roi_pool_conv5
I0507 22:09:48.118345  5042 net.cpp:106] Creating Layer roi_pool_conv5
I0507 22:09:48.118350  5042 net.cpp:454] roi_pool_conv5 <- conv6_reluconv_0_split_1
I0507 22:09:48.118355  5042 net.cpp:454] roi_pool_conv5 <- rois
I0507 22:09:48.118362  5042 net.cpp:411] roi_pool_conv5 -> roi_pool_conv5
I0507 22:09:48.118382  5042 roi_pooling_layer.cpp:30] Spatial scale: 0.0625
I0507 22:09:48.118430  5042 net.cpp:150] Setting up roi_pool_conv5
I0507 22:09:48.118438  5042 net.cpp:157] Top shape: 1 256 6 6 (9216)
I0507 22:09:48.118441  5042 net.cpp:165] Memory required for data: 320097640
I0507 22:09:48.118446  5042 layer_factory.hpp:77] Creating layer fc6
I0507 22:09:48.118453  5042 net.cpp:106] Creating Layer fc6
I0507 22:09:48.118459  5042 net.cpp:454] fc6 <- roi_pool_conv5
I0507 22:09:48.118465  5042 net.cpp:411] fc6 -> fc6
I0507 22:09:48.198117  5042 net.cpp:150] Setting up fc6
I0507 22:09:48.198171  5042 net.cpp:157] Top shape: 1 4096 (4096)
I0507 22:09:48.198175  5042 net.cpp:165] Memory required for data: 320114024
I0507 22:09:48.198192  5042 layer_factory.hpp:77] Creating layer relu6
I0507 22:09:48.198207  5042 net.cpp:106] Creating Layer relu6
I0507 22:09:48.198215  5042 net.cpp:454] relu6 <- fc6
I0507 22:09:48.198223  5042 net.cpp:397] relu6 -> fc6 (in-place)
I0507 22:09:48.198513  5042 net.cpp:150] Setting up relu6
I0507 22:09:48.198525  5042 net.cpp:157] Top shape: 1 4096 (4096)
I0507 22:09:48.198529  5042 net.cpp:165] Memory required for data: 320130408
I0507 22:09:48.198534  5042 layer_factory.hpp:77] Creating layer drop6
I0507 22:09:48.198541  5042 net.cpp:106] Creating Layer drop6
I0507 22:09:48.198547  5042 net.cpp:454] drop6 <- fc6
I0507 22:09:48.198554  5042 net.cpp:397] drop6 -> fc6 (in-place)
I0507 22:09:48.198583  5042 net.cpp:150] Setting up drop6
I0507 22:09:48.198590  5042 net.cpp:157] Top shape: 1 4096 (4096)
I0507 22:09:48.198595  5042 net.cpp:165] Memory required for data: 320146792
I0507 22:09:48.198598  5042 layer_factory.hpp:77] Creating layer fc7
I0507 22:09:48.198606  5042 net.cpp:106] Creating Layer fc7
I0507 22:09:48.198611  5042 net.cpp:454] fc7 <- fc6
I0507 22:09:48.198616  5042 net.cpp:411] fc7 -> fc7
I0507 22:09:48.235882  5042 net.cpp:150] Setting up fc7
I0507 22:09:48.235937  5042 net.cpp:157] Top shape: 1 4096 (4096)
I0507 22:09:48.235941  5042 net.cpp:165] Memory required for data: 320163176
I0507 22:09:48.235958  5042 layer_factory.hpp:77] Creating layer relu7
I0507 22:09:48.235972  5042 net.cpp:106] Creating Layer relu7
I0507 22:09:48.235980  5042 net.cpp:454] relu7 <- fc7
I0507 22:09:48.235990  5042 net.cpp:397] relu7 -> fc7 (in-place)
I0507 22:09:48.236253  5042 net.cpp:150] Setting up relu7
I0507 22:09:48.236264  5042 net.cpp:157] Top shape: 1 4096 (4096)
I0507 22:09:48.236268  5042 net.cpp:165] Memory required for data: 320179560
I0507 22:09:48.236270  5042 layer_factory.hpp:77] Creating layer drop7
I0507 22:09:48.236279  5042 net.cpp:106] Creating Layer drop7
I0507 22:09:48.236282  5042 net.cpp:454] drop7 <- fc7
I0507 22:09:48.236289  5042 net.cpp:397] drop7 -> fc7 (in-place)
I0507 22:09:48.236318  5042 net.cpp:150] Setting up drop7
I0507 22:09:48.236341  5042 net.cpp:157] Top shape: 1 4096 (4096)
I0507 22:09:48.236353  5042 net.cpp:165] Memory required for data: 320195944
I0507 22:09:48.236367  5042 layer_factory.hpp:77] Creating layer fc7_drop7_0_split
I0507 22:09:48.236377  5042 net.cpp:106] Creating Layer fc7_drop7_0_split
I0507 22:09:48.236380  5042 net.cpp:454] fc7_drop7_0_split <- fc7
I0507 22:09:48.236387  5042 net.cpp:411] fc7_drop7_0_split -> fc7_drop7_0_split_0
I0507 22:09:48.236398  5042 net.cpp:411] fc7_drop7_0_split -> fc7_drop7_0_split_1
I0507 22:09:48.236446  5042 net.cpp:150] Setting up fc7_drop7_0_split
I0507 22:09:48.236454  5042 net.cpp:157] Top shape: 1 4096 (4096)
I0507 22:09:48.236459  5042 net.cpp:157] Top shape: 1 4096 (4096)
I0507 22:09:48.236461  5042 net.cpp:165] Memory required for data: 320228712
I0507 22:09:48.236465  5042 layer_factory.hpp:77] Creating layer cls_score
I0507 22:09:48.236474  5042 net.cpp:106] Creating Layer cls_score
I0507 22:09:48.236479  5042 net.cpp:454] cls_score <- fc7_drop7_0_split_0
I0507 22:09:48.236485  5042 net.cpp:411] cls_score -> cls_score
I0507 22:09:48.236630  5042 net.cpp:150] Setting up cls_score
I0507 22:09:48.236639  5042 net.cpp:157] Top shape: 1 2 (2)
I0507 22:09:48.236641  5042 net.cpp:165] Memory required for data: 320228720
I0507 22:09:48.236649  5042 layer_factory.hpp:77] Creating layer bbox_pred
I0507 22:09:48.236659  5042 net.cpp:106] Creating Layer bbox_pred
I0507 22:09:48.236663  5042 net.cpp:454] bbox_pred <- fc7_drop7_0_split_1
I0507 22:09:48.236670  5042 net.cpp:411] bbox_pred -> bbox_pred
I0507 22:09:48.237000  5042 net.cpp:150] Setting up bbox_pred
I0507 22:09:48.237007  5042 net.cpp:157] Top shape: 1 8 (8)
I0507 22:09:48.237010  5042 net.cpp:165] Memory required for data: 320228752
I0507 22:09:48.237015  5042 layer_factory.hpp:77] Creating layer loss_cls
I0507 22:09:48.237020  5042 net.cpp:106] Creating Layer loss_cls
I0507 22:09:48.237022  5042 net.cpp:454] loss_cls <- cls_score
I0507 22:09:48.237026  5042 net.cpp:454] loss_cls <- labels
I0507 22:09:48.237031  5042 net.cpp:411] loss_cls -> cls_loss
…
           'RPN_POST_NMS_TOP_N': 2000,
           'RPN_PRE_NMS_TOP_N': 12000,
           'SCALES': [600],
           'SNAPSHOT_INFIX': '',
           'SNAPSHOT_ITERS': 10000,
           'USE_FLIPPED': True,
           'USE_PREFETCH': False},
 'USE_GPU_NMS': True}
WARNING: Logging before InitGoogleLogging() is written to STDERR
I0508 05:45:41.534418  7070 net.cpp:49] Initializing net from parameters: 
name: "ZF"
input: "data"
input: "im_info"
state {
  phase: TEST
}
input_shape {
  dim: 1
  dim: 3
  dim: 224
  dim: 224
}
input_shape {
  dim: 1
  dim: 3
}
layer {
  name: "conv1"
  type: "Convolution"
  bottom: "data"
  top: "conv1"
  convolution_param {
    num_output: 96
    pad: 3
    kernel_size: 7
    stride: 2
  }
}
layer {
  name: "relu1"
  type: "ReLU"
  bottom: "conv1"
  top: "conv1"
}
layer {
  name: "norm1"
  type: "LRN"
  bottom: "conv1"
  top: "norm1"
  lrn_param {
    local_size: 3
    alpha: 5e-05
    beta: 0.75
    norm_region: WITHIN_CHANNEL
    engine: CAFFE
  }
}
layer {
  name: "pool1"
  type: "Pooling"
  bottom: "norm1"
  top: "pool1"
  pooling_param {
    pool: MAX
    kernel_size: 3
    stride: 2
    pad: 1
  }
}
layer {
  name: "conv2"
  type: "Convolution"
  bottom: "pool1"
  top: "conv2"
  convolution_param {
    num_output: 256
    pad: 2
    kernel_size: 5
    stride: 2
  }
}
layer {
  name: "relu2"
  type: "ReLU"
  bottom: "conv2"
  top: "conv2"
}
layer {
  name: "norm2"
  type: "LRN"
  bottom: "conv2"
  top: "norm2"
  lrn_param {
    local_size: 3
    alpha: 5e-05
    beta: 0.75
    norm_region: WITHIN_CHANNEL
    engine: CAFFE
  }
}
layer {
  name: "pool2"
  type: "Pooling"
  bottom: "norm2"
  top: "pool2"
  pooling_param {
    pool: MAX
    kernel_size: 3
    stride: 2
    pad: 1
  }
}
layer {
  name: "conv3"
  type: "Convolution"
  bottom: "pool2"
  top: "conv3"
  convolution_param {
    num_output: 384
    pad: 1
    kernel_size: 3
    stride: 1
  }
}
layer {
  name: "relu3"
  type: "ReLU"
  bottom: "conv3"
  top: "conv3"
}
layer {
  name: "conv4"
  type: "Convolution"
  bottom: "conv3"
  top: "conv4"
  convolution_param {
    num_output: 384
    pad: 1
    kernel_size: 3
    stride: 1
  }
}
layer {
  name: "relu4"
  type: "ReLU"
  bottom: "conv4"
  top: "conv4"
}
layer {
  name: "conv5"
  type: "Convolution"
  bottom: "conv4"
  top: "conv5"
  convolution_param {
    num_output: 256
    pad: 1
    kernel_size: 3
    stride: 1
  }
}
layer {
  name: "relu5"
  type: "ReLU"
  bottom: "conv5"
  top: "conv5"
}
layer {
  name: "concat"
  type: "Concat"
  bottom: "conv3"
  bottom: "conv4"
  bottom: "conv5"
  top: "concat"
  concat_param {
    axis: 1
  }
}
layer {
  name: "normconcat"
  type: "LRN"
  bottom: "concat"
  top: "concatfeature"
  lrn_param {
    local_size: 3
    alpha: 5e-05
    beta: 0.75
    norm_region: WITHIN_CHANNEL
    engine: CAFFE
  }
}
layer {
  name: "conv6"
  type: "Convolution"
  bottom: "concatfeature"
  top: "conv6"
  param {
    lr_mult: 1
  }
  param {
    lr_mult: 2
  }
  convolution_param {
    num_output: 256
    pad: 0
    kernel_size: 1
    stride: 1
    weight_filler {
      type: "xavier"
    }
    bias_filler {
      type: "constant"
    }
  }
}
layer {
  name: "reluconv"
  type: "ReLU"
  bottom: "conv6"
  top: "conv6"
}
layer {
  name: "rpn_conv/3x3"
  type: "Convolution"
  bottom: "conv6"
  top: "rpn/output"
  convolution_param {
    num_output: 256
    pad: 1
    kernel_size: 3
    stride: 1
    weight_filler {
      type: "gaussian"
      std: 0.01
    }
    bias_filler {
      type: "constant"
      value: 0
    }
  }
}
layer {
  name: "rpn_relu/3x3"
  type: "ReLU"
  bottom: "rpn/output"
  top: "rpn/output"
}
layer {
  name: "rpn_cls_score"
  type: "Convolution"
  bottom: "rpn/output"
  top: "rpn_cls_score"
  convolution_param {
    num_output: 12
    pad: 0
    kernel_size: 1
    stride: 1
    weight_filler {
      type: "gaussian"
      std: 0.01
    }
    bias_filler {
      type: "constant"
      value: 0
    }
  }
}
layer {
  name: "rpn_bbox_pred"
  type: "Convolution"
  bottom: "rpn/output"
  top: "rpn_bbox_pred"
  convolution_param {
    num_output: 24
    pad: 0
    kernel_size: 1
    stride: 1
    weight_filler {
      type: "gaussian"
      std: 0.01
    }
    bias_filler {
      type: "constant"
      value: 0
    }
  }
}
layer {
  name: "rpn_cls_score_reshape"
  type: "Reshape"
  bottom: "rpn_cls_score"
  top: "rpn_cls_score_reshape"
  reshape_param {
    shape {
      dim: 0
      dim: 2
      dim: -1
      dim: 0
    }
  }
}
layer {
  name: "rpn_cls_prob"
  type: "Softmax"
  bottom: "rpn_cls_score_reshape"
  top: "rpn_cls_prob"
}
layer {
  name: "rpn_cls_prob_reshape"
  type: "Reshape"
  bottom: "rpn_cls_prob"
  top: "rpn_cls_prob_reshape"
  reshape_param {
    shape {
      dim: 0
      dim: 12
      dim: -1
      dim: 0
    }
  }
}
layer {
  name: "proposal"
  type: "Python"
  bottom: "rpn_cls_prob_reshape"
  bottom: "rpn_bbox_pred"
  bottom: "im_info"
  top: "rois"
  python_param {
    module: "rpn.proposal_layer"
    layer: "ProposalLayer"
    param_str: "\'feat_stride\': 16"
  }
}
layer {
  name: "roi_pool_conv5"
  type: "ROIPooling"
  bottom: "conv6"
  bottom: "rois"
  top: "roi_pool_conv5"
  roi_pooling_param {
    pooled_h: 6
    pooled_w: 6
    spatial_scale: 0.0625
  }
}
layer {
  name: "fc6"
  type: "InnerProduct"
  bottom: "roi_pool_conv5"
  top: "fc6"
  inner_product_param {
    num_output: 4096
  }
}
layer {
  name: "relu6"
  type: "ReLU"
  bottom: "fc6"
  top: "fc6"
}
layer {
  name: "drop6"
  type: "Dropout"
  bottom: "fc6"
  top: "fc6"
  dropout_param {
    dropout_ratio: 0.5
    scale_train: false
  }
}
layer {
  name: "fc7"
  type: "InnerProduct"
  bottom: "fc6"
  top: "fc7"
  inner_product_param {
    num_output: 4096
  }
}
layer {
  name: "relu7"
  type: "ReLU"
  bottom: "fc7"
  top: "fc7"
}
layer {
  name: "drop7"
  type: "Dropout"
  bottom: "fc7"
  top: "fc7"
  dropout_param {
    dropout_ratio: 0.5
    scale_train: false
  }
}
layer {
  name: "cls_score"
  type: "InnerProduct"
  bottom: "fc7"
  top: "cls_score"
  inner_product_param {
    num_output: 2
  }
}
layer {
  name: "bbox_pred"
  type: "InnerProduct"
  bottom: "fc7"
  top: "bbox_pred"
  inner_product_param {
    num_output: 8
  }
}
layer {
  name: "cls_prob"
  type: "Softmax"
  bottom: "cls_score"
  top: "cls_prob"
  loss_param {
    ignore_label: -1
    normalize: true
  }
}
I0508 05:45:41.534770  7070 net.cpp:413] Input 0 -> data
I0508 05:48:05.646081  7070 net.cpp:413] Input 1 -> im_info
I0508 05:48:05.646142  7070 layer_factory.hpp:77] Creating layer conv1
I0508 05:48:05.646160  7070 net.cpp:106] Creating Layer conv1
I0508 05:48:05.646164  7070 net.cpp:454] conv1 <- data
I0508 05:48:05.646170  7070 net.cpp:411] conv1 -> conv1
I0508 05:48:06.341936  7070 net.cpp:150] Setting up conv1
I0508 05:48:06.341966  7070 net.cpp:157] Top shape: 1 96 112 112 (1204224)
I0508 05:48:06.341969  7070 net.cpp:165] Memory required for data: 4816896
I0508 05:48:06.341984  7070 layer_factory.hpp:77] Creating layer relu1
I0508 05:48:06.341995  7070 net.cpp:106] Creating Layer relu1
I0508 05:48:06.342000  7070 net.cpp:454] relu1 <- conv1
I0508 05:48:06.342005  7070 net.cpp:397] relu1 -> conv1 (in-place)
I0508 05:48:06.342164  7070 net.cpp:150] Setting up relu1
I0508 05:48:06.342173  7070 net.cpp:157] Top shape: 1 96 112 112 (1204224)
I0508 05:48:06.342175  7070 net.cpp:165] Memory required for data: 9633792
I0508 05:48:06.342178  7070 layer_factory.hpp:77] Creating layer norm1
I0508 05:48:06.342186  7070 net.cpp:106] Creating Layer norm1
I0508 05:48:06.342190  7070 net.cpp:454] norm1 <- conv1
I0508 05:48:06.342195  7070 net.cpp:411] norm1 -> norm1
I0508 05:48:06.342299  7070 net.cpp:150] Setting up norm1
I0508 05:48:06.342308  7070 net.cpp:157] Top shape: 1 96 112 112 (1204224)
I0508 05:48:06.342309  7070 net.cpp:165] Memory required for data: 14450688
I0508 05:48:06.342312  7070 layer_factory.hpp:77] Creating layer pool1
I0508 05:48:06.342317  7070 net.cpp:106] Creating Layer pool1
I0508 05:48:06.342319  7070 net.cpp:454] pool1 <- norm1
I0508 05:48:06.342324  7070 net.cpp:411] pool1 -> pool1
I0508 05:48:06.342355  7070 net.cpp:150] Setting up pool1
I0508 05:48:06.342363  7070 net.cpp:157] Top shape: 1 96 57 57 (311904)
I0508 05:48:06.342366  7070 net.cpp:165] Memory required for data: 15698304
I0508 05:48:06.342370  7070 layer_factory.hpp:77] Creating layer conv2
I0508 05:48:06.342381  7070 net.cpp:106] Creating Layer conv2
I0508 05:48:06.342383  7070 net.cpp:454] conv2 <- pool1
I0508 05:48:06.342388  7070 net.cpp:411] conv2 -> conv2
I0508 05:48:06.345322  7070 net.cpp:150] Setting up conv2
I0508 05:48:06.345355  7070 net.cpp:157] Top shape: 1 256 29 29 (215296)
I0508 05:48:06.345358  7070 net.cpp:165] Memory required for data: 16559488
I0508 05:48:06.345372  7070 layer_factory.hpp:77] Creating layer relu2
I0508 05:48:06.345382  7070 net.cpp:106] Creating Layer relu2
I0508 05:48:06.345386  7070 net.cpp:454] relu2 <- conv2
I0508 05:48:06.345392  7070 net.cpp:397] relu2 -> conv2 (in-place)
I0508 05:48:06.345916  7070 net.cpp:150] Setting up relu2
I0508 05:48:06.345926  7070 net.cpp:157] Top shape: 1 256 29 29 (215296)
I0508 05:48:06.345928  7070 net.cpp:165] Memory required for data: 17420672
I0508 05:48:06.345932  7070 layer_factory.hpp:77] Creating layer norm2
I0508 05:48:06.345939  7070 net.cpp:106] Creating Layer norm2
I0508 05:48:06.345942  7070 net.cpp:454] norm2 <- conv2
I0508 05:48:06.345947  7070 net.cpp:411] norm2 -> norm2
I0508 05:48:06.346052  7070 net.cpp:150] Setting up norm2
I0508 05:48:06.346061  7070 net.cpp:157] Top shape: 1 256 29 29 (215296)
I0508 05:48:06.346065  7070 net.cpp:165] Memory required for data: 18281856
I0508 05:48:06.346066  7070 layer_factory.hpp:77] Creating layer pool2
I0508 05:48:06.346071  7070 net.cpp:106] Creating Layer pool2
I0508 05:48:06.346074  7070 net.cpp:454] pool2 <- norm2
I0508 05:48:06.346078  7070 net.cpp:411] pool2 -> pool2
I0508 05:48:06.346112  7070 net.cpp:150] Setting up pool2
I0508 05:48:06.346120  7070 net.cpp:157] Top shape: 1 256 15 15 (57600)
I0508 05:48:06.346123  7070 net.cpp:165] Memory required for data: 18512256
I0508 05:48:06.346127  7070 layer_factory.hpp:77] Creating layer conv3
I0508 05:48:06.346137  7070 net.cpp:106] Creating Layer conv3
I0508 05:48:06.346139  7070 net.cpp:454] conv3 <- pool2
I0508 05:48:06.346144  7070 net.cpp:411] conv3 -> conv3
I0508 05:48:06.349350  7070 net.cpp:150] Setting up conv3
I0508 05:48:06.349380  7070 net.cpp:157] Top shape: 1 384 15 15 (86400)
I0508 05:48:06.349383  7070 net.cpp:165] Memory required for data: 18857856
I0508 05:48:06.349397  7070 layer_factory.hpp:77] Creating layer relu3
I0508 05:48:06.349407  7070 net.cpp:106] Creating Layer relu3
I0508 05:48:06.349411  7070 net.cpp:454] relu3 <- conv3
I0508 05:48:06.349416  7070 net.cpp:397] relu3 -> conv3 (in-place)
I0508 05:48:06.349581  7070 net.cpp:150] Setting up relu3
I0508 05:48:06.349589  7070 net.cpp:157] Top shape: 1 384 15 15 (86400)
I0508 05:48:06.349592  7070 net.cpp:165] Memory required for data: 19203456
I0508 05:48:06.349596  7070 layer_factory.hpp:77] Creating layer conv3_relu3_0_split
I0508 05:48:06.349601  7070 net.cpp:106] Creating Layer conv3_relu3_0_split
I0508 05:48:06.349604  7070 net.cpp:454] conv3_relu3_0_split <- conv3
I0508 05:48:06.349609  7070 net.cpp:411] conv3_relu3_0_split -> conv3_relu3_0_split_0
I0508 05:48:06.349617  7070 net.cpp:411] conv3_relu3_0_split -> conv3_relu3_0_split_1
I0508 05:48:06.349663  7070 net.cpp:150] Setting up conv3_relu3_0_split
I0508 05:48:06.349669  7070 net.cpp:157] Top shape: 1 384 15 15 (86400)
I0508 05:48:06.349673  7070 net.cpp:157] Top shape: 1 384 15 15 (86400)
I0508 05:48:06.349675  7070 net.cpp:165] Memory required for data: 19894656
I0508 05:48:06.349678  7070 layer_factory.hpp:77] Creating layer conv4
I0508 05:48:06.349685  7070 net.cpp:106] Creating Layer conv4
I0508 05:48:06.349689  7070 net.cpp:454] conv4 <- conv3_relu3_0_split_0
I0508 05:48:06.349694  7070 net.cpp:411] conv4 -> conv4
I0508 05:48:06.354285  7070 net.cpp:150] Setting up conv4
I0508 05:48:06.354326  7070 net.cpp:157] Top shape: 1 384 15 15 (86400)
I0508 05:48:06.354329  7070 net.cpp:165] Memory required for data: 20240256
I0508 05:48:06.354343  7070 layer_factory.hpp:77] Creating layer relu4
I0508 05:48:06.354360  7070 net.cpp:106] Creating Layer relu4
I0508 05:48:06.354367  7070 net.cpp:454] relu4 <- conv4
I0508 05:48:06.354375  7070 net.cpp:397] relu4 -> conv4 (in-place)
I0508 05:48:06.354578  7070 net.cpp:150] Setting up relu4
I0508 05:48:06.354590  7070 net.cpp:157] Top shape: 1 384 15 15 (86400)
I0508 05:48:06.354593  7070 net.cpp:165] Memory required for data: 20585856
I0508 05:48:06.354598  7070 layer_factory.hpp:77] Creating layer conv4_relu4_0_split
I0508 05:48:06.354607  7070 net.cpp:106] Creating Layer conv4_relu4_0_split
I0508 05:48:06.354611  7070 net.cpp:454] conv4_relu4_0_split <- conv4
I0508 05:48:06.354619  7070 net.cpp:411] conv4_relu4_0_split -> conv4_relu4_0_split_0
I0508 05:48:06.354626  7070 net.cpp:411] conv4_relu4_0_split -> conv4_relu4_0_split_1
I0508 05:48:06.354713  7070 net.cpp:150] Setting up conv4_relu4_0_split
I0508 05:48:06.354724  7070 net.cpp:157] Top shape: 1 384 15 15 (86400)
I0508 05:48:06.354729  7070 net.cpp:157] Top shape: 1 384 15 15 (86400)
I0508 05:48:06.354732  7070 net.cpp:165] Memory required for data: 21277056
I0508 05:48:06.354737  7070 layer_factory.hpp:77] Creating layer conv5
I0508 05:48:06.354748  7070 net.cpp:106] Creating Layer conv5
I0508 05:48:06.354753  7070 net.cpp:454] conv5 <- conv4_relu4_0_split_0
I0508 05:48:06.354759  7070 net.cpp:411] conv5 -> conv5
I0508 05:48:06.358036  7070 net.cpp:150] Setting up conv5
I0508 05:48:06.358067  7070 net.cpp:157] Top shape: 1 256 15 15 (57600)
I0508 05:48:06.358069  7070 net.cpp:165] Memory required for data: 21507456
I0508 05:48:06.358084  7070 layer_factory.hpp:77] Creating layer relu5
I0508 05:48:06.358093  7070 net.cpp:106] Creating Layer relu5
I0508 05:48:06.358098  7070 net.cpp:454] relu5 <- conv5
I0508 05:48:06.358103  7070 net.cpp:397] relu5 -> conv5 (in-place)
I0508 05:48:06.358254  7070 net.cpp:150] Setting up relu5
I0508 05:48:06.358263  7070 net.cpp:157] Top shape: 1 256 15 15 (57600)
I0508 05:48:06.358264  7070 net.cpp:165] Memory required for data: 21737856
I0508 05:48:06.358281  7070 layer_factory.hpp:77] Creating layer concat
I0508 05:48:06.358297  7070 net.cpp:106] Creating Layer concat
I0508 05:48:06.358301  7070 net.cpp:454] concat <- conv3_relu3_0_split_1
I0508 05:48:06.358306  7070 net.cpp:454] concat <- conv4_relu4_0_split_1
I0508 05:48:06.358311  7070 net.cpp:454] concat <- conv5
I0508 05:48:06.358319  7070 net.cpp:411] concat -> concat
I0508 05:48:06.358355  7070 net.cpp:150] Setting up concat
I0508 05:48:06.358368  7070 net.cpp:157] Top shape: 1 1024 15 15 (230400)
I0508 05:48:06.358372  7070 net.cpp:165] Memory required for data: 22659456
I0508 05:48:06.358376  7070 layer_factory.hpp:77] Creating layer normconcat
I0508 05:48:06.358384  7070 net.cpp:106] Creating Layer normconcat
I0508 05:48:06.358388  7070 net.cpp:454] normconcat <- concat
I0508 05:48:06.358393  7070 net.cpp:411] normconcat -> concatfeature
I0508 05:48:06.358481  7070 net.cpp:150] Setting up normconcat
I0508 05:48:06.358489  7070 net.cpp:157] Top shape: 1 1024 15 15 (230400)
I0508 05:48:06.358490  7070 net.cpp:165] Memory required for data: 23581056
I0508 05:48:06.358494  7070 layer_factory.hpp:77] Creating layer conv6
I0508 05:48:06.358505  7070 net.cpp:106] Creating Layer conv6
I0508 05:48:06.358510  7070 net.cpp:454] conv6 <- concatfeature
I0508 05:48:06.358515  7070 net.cpp:411] conv6 -> conv6
I0508 05:48:06.361801  7070 net.cpp:150] Setting up conv6
I0508 05:48:06.361824  7070 net.cpp:157] Top shape: 1 256 15 15 (57600)
I0508 05:48:06.361826  7070 net.cpp:165] Memory required for data: 23811456
I0508 05:48:06.361835  7070 layer_factory.hpp:77] Creating layer reluconv
I0508 05:48:06.361843  7070 net.cpp:106] Creating Layer reluconv
I0508 05:48:06.361846  7070 net.cpp:454] reluconv <- conv6
I0508 05:48:06.361852  7070 net.cpp:397] reluconv -> conv6 (in-place)
I0508 05:48:06.362001  7070 net.cpp:150] Setting up reluconv
I0508 05:48:06.362009  7070 net.cpp:157] Top shape: 1 256 15 15 (57600)
I0508 05:48:06.362011  7070 net.cpp:165] Memory required for data: 24041856
I0508 05:48:06.362013  7070 layer_factory.hpp:77] Creating layer conv6_reluconv_0_split
I0508 05:48:06.362020  7070 net.cpp:106] Creating Layer conv6_reluconv_0_split
I0508 05:48:06.362023  7070 net.cpp:454] conv6_reluconv_0_split <- conv6
I0508 05:48:06.362030  7070 net.cpp:411] conv6_reluconv_0_split -> conv6_reluconv_0_split_0
I0508 05:48:06.362036  7070 net.cpp:411] conv6_reluconv_0_split -> conv6_reluconv_0_split_1
I0508 05:48:06.362080  7070 net.cpp:150] Setting up conv6_reluconv_0_split
I0508 05:48:06.362087  7070 net.cpp:157] Top shape: 1 256 15 15 (57600)
I0508 05:48:06.362090  7070 net.cpp:157] Top shape: 1 256 15 15 (57600)
I0508 05:48:06.362093  7070 net.cpp:165] Memory required for data: 24502656
I0508 05:48:06.362095  7070 layer_factory.hpp:77] Creating layer rpn_conv/3x3
I0508 05:48:06.362105  7070 net.cpp:106] Creating Layer rpn_conv/3x3
I0508 05:48:06.362109  7070 net.cpp:454] rpn_conv/3x3 <- conv6_reluconv_0_split_0
I0508 05:48:06.362115  7070 net.cpp:411] rpn_conv/3x3 -> rpn/output
I0508 05:48:06.368525  7070 net.cpp:150] Setting up rpn_conv/3x3
I0508 05:48:06.368552  7070 net.cpp:157] Top shape: 1 256 15 15 (57600)
I0508 05:48:06.368554  7070 net.cpp:165] Memory required for data: 24733056
I0508 05:48:06.368566  7070 layer_factory.hpp:77] Creating layer rpn_relu/3x3
I0508 05:48:06.368576  7070 net.cpp:106] Creating Layer rpn_relu/3x3
I0508 05:48:06.368579  7070 net.cpp:454] rpn_relu/3x3 <- rpn/output
I0508 05:48:06.368584  7070 net.cpp:397] rpn_relu/3x3 -> rpn/output (in-place)
I0508 05:48:06.368743  7070 net.cpp:150] Setting up rpn_relu/3x3
I0508 05:48:06.368752  7070 net.cpp:157] Top shape: 1 256 15 15 (57600)
I0508 05:48:06.368753  7070 net.cpp:165] Memory required for data: 24963456
I0508 05:48:06.368757  7070 layer_factory.hpp:77] Creating layer rpn/output_rpn_relu/3x3_0_split
I0508 05:48:06.368762  7070 net.cpp:106] Creating Layer rpn/output_rpn_relu/3x3_0_split
I0508 05:48:06.368767  7070 net.cpp:454] rpn/output_rpn_relu/3x3_0_split <- rpn/output
I0508 05:48:06.368772  7070 net.cpp:411] rpn/output_rpn_relu/3x3_0_split -> rpn/output_rpn_relu/3x3_0_split_0
I0508 05:48:06.368780  7070 net.cpp:411] rpn/output_rpn_relu/3x3_0_split -> rpn/output_rpn_relu/3x3_0_split_1
I0508 05:48:06.368825  7070 net.cpp:150] Setting up rpn/output_rpn_relu/3x3_0_split
I0508 05:48:06.368832  7070 net.cpp:157] Top shape: 1 256 15 15 (57600)
I0508 05:48:06.368835  7070 net.cpp:157] Top shape: 1 256 15 15 (57600)
I0508 05:48:06.368837  7070 net.cpp:165] Memory required for data: 25424256
I0508 05:48:06.368840  7070 layer_factory.hpp:77] Creating layer rpn_cls_score
I0508 05:48:06.368851  7070 net.cpp:106] Creating Layer rpn_cls_score
I0508 05:48:06.368856  7070 net.cpp:454] rpn_cls_score <- rpn/output_rpn_relu/3x3_0_split_0
I0508 05:48:06.368862  7070 net.cpp:411] rpn_cls_score -> rpn_cls_score
I0508 05:48:06.370802  7070 net.cpp:150] Setting up rpn_cls_score
I0508 05:48:06.370883  7070 net.cpp:157] Top shape: 1 12 15 15 (2700)
I0508 05:48:06.370918  7070 net.cpp:165] Memory required for data: 25435056
I0508 05:48:06.370959  7070 layer_factory.hpp:77] Creating layer rpn_bbox_pred
I0508 05:48:06.370978  7070 net.cpp:106] Creating Layer rpn_bbox_pred
I0508 05:48:06.370985  7070 net.cpp:454] rpn_bbox_pred <- rpn/output_rpn_relu/3x3_0_split_1
I0508 05:48:06.370992  7070 net.cpp:411] rpn_bbox_pred -> rpn_bbox_pred
I0508 05:48:06.372118  7070 net.cpp:150] Setting up rpn_bbox_pred
I0508 05:48:06.372133  7070 net.cpp:157] Top shape: 1 24 15 15 (5400)
I0508 05:48:06.372134  7070 net.cpp:165] Memory required for data: 25456656
I0508 05:48:06.372145  7070 layer_factory.hpp:77] Creating layer rpn_cls_score_reshape
I0508 05:48:06.372154  7070 net.cpp:106] Creating Layer rpn_cls_score_reshape
I0508 05:48:06.372159  7070 net.cpp:454] rpn_cls_score_reshape <- rpn_cls_score
I0508 05:48:06.372165  7070 net.cpp:411] rpn_cls_score_reshape -> rpn_cls_score_reshape
I0508 05:48:06.372196  7070 net.cpp:150] Setting up rpn_cls_score_reshape
I0508 05:48:06.372205  7070 net.cpp:157] Top shape: 1 2 90 15 (2700)
I0508 05:48:06.372206  7070 net.cpp:165] Memory required for data: 25467456
I0508 05:48:06.372210  7070 layer_factory.hpp:77] Creating layer rpn_cls_prob
I0508 05:48:06.372216  7070 net.cpp:106] Creating Layer rpn_cls_prob
I0508 05:48:06.372220  7070 net.cpp:454] rpn_cls_prob <- rpn_cls_score_reshape
I0508 05:48:06.372225  7070 net.cpp:411] rpn_cls_prob -> rpn_cls_prob
I0508 05:48:06.372952  7070 net.cpp:150] Setting up rpn_cls_prob
I0508 05:48:06.372967  7070 net.cpp:157] Top shape: 1 2 90 15 (2700)
I0508 05:48:06.372969  7070 net.cpp:165] Memory required for data: 25478256
I0508 05:48:06.372973  7070 layer_factory.hpp:77] Creating layer rpn_cls_prob_reshape
I0508 05:48:06.372982  7070 net.cpp:106] Creating Layer rpn_cls_prob_reshape
I0508 05:48:06.372985  7070 net.cpp:454] rpn_cls_prob_reshape <- rpn_cls_prob
I0508 05:48:06.372992  7070 net.cpp:411] rpn_cls_prob_reshape -> rpn_cls_prob_reshape
I0508 05:48:06.373018  7070 net.cpp:150] Setting up rpn_cls_prob_reshape
I0508 05:48:06.373054  7070 net.cpp:157] Top shape: 1 12 15 15 (2700)
I0508 05:48:06.373061  7070 net.cpp:165] Memory required for data: 25489056
I0508 05:48:06.373066  7070 layer_factory.hpp:77] Creating layer proposal
I0508 05:48:06.398792  7070 net.cpp:106] Creating Layer proposal
I0508 05:48:06.398830  7070 net.cpp:454] proposal <- rpn_cls_prob_reshape
I0508 05:48:06.398844  7070 net.cpp:454] proposal <- rpn_bbox_pred
I0508 05:48:06.398852  7070 net.cpp:454] proposal <- im_info
I0508 05:48:06.398865  7070 net.cpp:411] proposal -> rois
I0508 05:48:06.400167  7070 net.cpp:150] Setting up proposal
I0508 05:48:06.400195  7070 net.cpp:157] Top shape: 1 5 (5)
I0508 05:48:06.400202  7070 net.cpp:165] Memory required for data: 25489076
I0508 05:48:06.400212  7070 layer_factory.hpp:77] Creating layer roi_pool_conv5
I0508 05:48:06.400224  7070 net.cpp:106] Creating Layer roi_pool_conv5
I0508 05:48:06.400241  7070 net.cpp:454] roi_pool_conv5 <- conv6_reluconv_0_split_1
I0508 05:48:06.400254  7070 net.cpp:454] roi_pool_conv5 <- rois
I0508 05:48:06.400275  7070 net.cpp:411] roi_pool_conv5 -> roi_pool_conv5
I0508 05:48:06.400298  7070 roi_pooling_layer.cpp:30] Spatial scale: 0.0625
I0508 05:48:06.400431  7070 net.cpp:150] Setting up roi_pool_conv5
I0508 05:48:06.400449  7070 net.cpp:157] Top shape: 1 256 6 6 (9216)
I0508 05:48:06.400455  7070 net.cpp:165] Memory required for data: 25525940
I0508 05:48:06.400465  7070 layer_factory.hpp:77] Creating layer fc6
I0508 05:48:06.400522  7070 net.cpp:106] Creating Layer fc6
I0508 05:48:06.400542  7070 net.cpp:454] fc6 <- roi_pool_conv5
I0508 05:48:06.400557  7070 net.cpp:411] fc6 -> fc6
I0508 05:48:06.485093  7070 net.cpp:150] Setting up fc6
I0508 05:48:06.485147  7070 net.cpp:157] Top shape: 1 4096 (4096)
I0508 05:48:06.485149  7070 net.cpp:165] Memory required for data: 25542324
I0508 05:48:06.485162  7070 layer_factory.hpp:77] Creating layer relu6
I0508 05:48:06.485178  7070 net.cpp:106] Creating Layer relu6
I0508 05:48:06.485183  7070 net.cpp:454] relu6 <- fc6
I0508 05:48:06.485188  7070 net.cpp:397] relu6 -> fc6 (in-place)
I0508 05:48:06.485450  7070 net.cpp:150] Setting up relu6
I0508 05:48:06.485462  7070 net.cpp:157] Top shape: 1 4096 (4096)
I0508 05:48:06.485466  7070 net.cpp:165] Memory required for data: 25558708
I0508 05:48:06.485468  7070 layer_factory.hpp:77] Creating layer drop6
I0508 05:48:06.485476  7070 net.cpp:106] Creating Layer drop6
I0508 05:48:06.485478  7070 net.cpp:454] drop6 <- fc6
I0508 05:48:06.485482  7070 net.cpp:397] drop6 -> fc6 (in-place)
I0508 05:48:06.485512  7070 net.cpp:150] Setting up drop6
I0508 05:48:06.485517  7070 net.cpp:157] Top shape: 1 4096 (4096)
I0508 05:48:06.485520  7070 net.cpp:165] Memory required for data: 25575092
I0508 05:48:06.485523  7070 layer_factory.hpp:77] Creating layer fc7
I0508 05:48:06.485528  7070 net.cpp:106] Creating Layer fc7
I0508 05:48:06.485532  7070 net.cpp:454] fc7 <- fc6
I0508 05:48:06.485535  7070 net.cpp:411] fc7 -> fc7
I0508 05:48:06.521637  7070 net.cpp:150] Setting up fc7
I0508 05:48:06.521688  7070 net.cpp:157] Top shape: 1 4096 (4096)
I0508 05:48:06.521692  7070 net.cpp:165] Memory required for data: 25591476
I0508 05:48:06.521703  7070 layer_factory.hpp:77] Creating layer relu7
I0508 05:48:06.521715  7070 net.cpp:106] Creating Layer relu7
I0508 05:48:06.521719  7070 net.cpp:454] relu7 <- fc7
I0508 05:48:06.521725  7070 net.cpp:397] relu7 -> fc7 (in-place)
I0508 05:48:06.521976  7070 net.cpp:150] Setting up relu7
I0508 05:48:06.521987  7070 net.cpp:157] Top shape: 1 4096 (4096)
I0508 05:48:06.521991  7070 net.cpp:165] Memory required for data: 25607860
I0508 05:48:06.521992  7070 layer_factory.hpp:77] Creating layer drop7
I0508 05:48:06.522001  7070 net.cpp:106] Creating Layer drop7
I0508 05:48:06.522003  7070 net.cpp:454] drop7 <- fc7
I0508 05:48:06.522006  7070 net.cpp:397] drop7 -> fc7 (in-place)
I0508 05:48:06.522040  7070 net.cpp:150] Setting up drop7
I0508 05:48:06.522048  7070 net.cpp:157] Top shape: 1 4096 (4096)
I0508 05:48:06.522052  7070 net.cpp:165] Memory required for data: 25624244
I0508 05:48:06.522055  7070 layer_factory.hpp:77] Creating layer fc7_drop7_0_split
I0508 05:48:06.522063  7070 net.cpp:106] Creating Layer fc7_drop7_0_split
I0508 05:48:06.522066  7070 net.cpp:454] fc7_drop7_0_split <- fc7
I0508 05:48:06.522073  7070 net.cpp:411] fc7_drop7_0_split -> fc7_drop7_0_split_0
I0508 05:48:06.522089  7070 net.cpp:411] fc7_drop7_0_split -> fc7_drop7_0_split_1
I0508 05:48:06.522130  7070 net.cpp:150] Setting up fc7_drop7_0_split
I0508 05:48:06.522135  7070 net.cpp:157] Top shape: 1 4096 (4096)
I0508 05:48:06.522138  7070 net.cpp:157] Top shape: 1 4096 (4096)
I0508 05:48:06.522140  7070 net.cpp:165] Memory required for data: 25657012
I0508 05:48:06.522145  7070 layer_factory.hpp:77] Creating layer cls_score
I0508 05:48:06.522151  7070 net.cpp:106] Creating Layer cls_score
I0508 05:48:06.522156  7070 net.cpp:454] cls_score <- fc7_drop7_0_split_0
I0508 05:48:06.522161  7070 net.cpp:411] cls_score -> cls_score
I0508 05:48:06.522253  7070 net.cpp:150] Setting up cls_score
I0508 05:48:06.522260  7070 net.cpp:157] Top shape: 1 2 (2)
I0508 05:48:06.522263  7070 net.cpp:165] Memory required for data: 25657020
I0508 05:48:06.522280  7070 layer_factory.hpp:77] Creating layer bbox_pred
I0508 05:48:06.522289  7070 net.cpp:106] Creating Layer bbox_pred
I0508 05:48:06.522292  7070 net.cpp:454] bbox_pred <- fc7_drop7_0_split_1
I0508 05:48:06.522298  7070 net.cpp:411] bbox_pred -> bbox_pred
I0508 05:48:06.523356  7070 net.cpp:150] Setting up bbox_pred
I0508 05:48:06.523372  7070 net.cpp:157] Top shape: 1 8 (8)
I0508 05:48:06.523375  7070 net.cpp:165] Memory required for data: 25657052
I0508 05:48:06.523382  7070 layer_factory.hpp:77] Creating layer cls_prob
I0508 05:48:06.523389  7070 net.cpp:106] Creating Layer cls_prob
I0508 05:48:06.523392  7070 net.cpp:454] cls_prob <- cls_score
I0508 05:48:06.523398  7070 net.cpp:411] cls_prob -> cls_prob
I0508 05:48:06.523641  7070 net.cpp:150] Setting up cls_prob
I0508 05:48:06.523650  7070 net.cpp:157] Top shape: 1 2 (2)
I0508 05:48:06.523653  7070 net.cpp:165] Memory required for data: 25657060
I0508 05:48:06.523656  7070 net.cpp:228] cls_prob does not need backward computation.
I0508 05:48:06.523660  7070 net.cpp:228] bbox_pred does not need backward computation.
I0508 05:48:06.523664  7070 net.cpp:228] cls_score does not need backward computation.
I0508 05:48:06.523669  7070 net.cpp:228] fc7_drop7_0_split does not need backward computation.
…
