…
stepsize: 50000
snapshot: 0
snapshot_prefix: "zf_faster_rcnn"
average_loss: 100
iter_size: 2
I0515 12:09:54.324159  9498 solver.cpp:81] Creating training net from train_net file: models/pascal_voc/ZF/faster_rcnn_end2end/train.prototxt
I0515 12:09:54.338119  9498 net.cpp:49] Initializing net from parameters: 
name: "ZF"
state {
  phase: TRAIN
}
layer {
  name: "input-data"
  type: "Python"
  top: "data"
  top: "im_info"
  top: "gt_boxes"
  python_param {
    module: "roi_data_layer.layer"
    layer: "RoIDataLayer"
    param_str: "\'num_classes\': 2"
  }
}
layer {
  name: "conv1"
  type: "Convolution"
  bottom: "data"
  top: "conv1"
  param {
    lr_mult: 1
  }
  param {
    lr_mult: 2
  }
  convolution_param {
    num_output: 96
    pad: 3
    kernel_size: 7
    stride: 2
  }
}
layer {
  name: "relu1"
  type: "ReLU"
  bottom: "conv1"
  top: "conv1"
}
layer {
  name: "norm1"
  type: "LRN"
  bottom: "conv1"
  top: "norm1"
  lrn_param {
    local_size: 3
    alpha: 5e-05
    beta: 0.75
    norm_region: WITHIN_CHANNEL
    engine: CAFFE
  }
}
layer {
  name: "pool1"
  type: "Pooling"
  bottom: "norm1"
  top: "pool1"
  pooling_param {
    pool: MAX
    kernel_size: 3
    stride: 2
    pad: 1
  }
}
layer {
  name: "conv2"
  type: "Convolution"
  bottom: "pool1"
  top: "conv2"
  param {
    lr_mult: 1
  }
  param {
    lr_mult: 2
  }
  convolution_param {
    num_output: 256
    pad: 2
    kernel_size: 5
    stride: 2
  }
}
layer {
  name: "relu2"
  type: "ReLU"
  bottom: "conv2"
  top: "conv2"
}
layer {
  name: "norm2"
  type: "LRN"
  bottom: "conv2"
  top: "norm2"
  lrn_param {
    local_size: 3
    alpha: 5e-05
    beta: 0.75
    norm_region: WITHIN_CHANNEL
    engine: CAFFE
  }
}
layer {
  name: "pool2"
  type: "Pooling"
  bottom: "norm2"
  top: "pool2"
  pooling_param {
    pool: MAX
    kernel_size: 3
    stride: 2
    pad: 1
  }
}
layer {
  name: "conv3"
  type: "Convolution"
  bottom: "pool2"
  top: "conv3"
  param {
    lr_mult: 1
  }
  param {
    lr_mult: 2
  }
  convolution_param {
    num_output: 384
    pad: 1
    kernel_size: 3
    stride: 1
  }
}
layer {
  name: "relu3"
  type: "ReLU"
  bottom: "conv3"
  top: "conv3"
}
layer {
  name: "conv4"
  type: "Convolution"
  bottom: "conv3"
  top: "conv4"
  param {
    lr_mult: 1
  }
  param {
    lr_mult: 2
  }
  convolution_param {
    num_output: 384
    pad: 1
    kernel_size: 3
    stride: 1
  }
}
layer {
  name: "relu4"
  type: "ReLU"
  bottom: "conv4"
  top: "conv4"
}
layer {
  name: "conv5"
  type: "Convolution"
  bottom: "conv4"
  top: "conv5"
  param {
    lr_mult: 1
  }
  param {
    lr_mult: 2
  }
  convolution_param {
    num_output: 256
    pad: 1
    kernel_size: 3
    stride: 1
  }
}
layer {
  name: "relu5"
  type: "ReLU"
  bottom: "conv5"
  top: "conv5"
}
layer {
  name: "concat"
  type: "Concat"
  bottom: "conv3"
  bottom: "conv4"
  bottom: "conv5"
  top: "concat"
  concat_param {
    axis: 1
  }
}
layer {
  name: "normconcat"
  type: "LRN"
  bottom: "concat"
  top: "concatfeature"
  lrn_param {
    local_size: 3
    alpha: 5e-05
    beta: 0.75
    norm_region: WITHIN_CHANNEL
    engine: CAFFE
  }
}
layer {
  name: "conv6"
  type: "Convolution"
  bottom: "concatfeature"
  top: "conv6"
  param {
    lr_mult: 1
  }
  param {
    lr_mult: 2
  }
  convolution_param {
    num_output: 256
    pad: 0
    kernel_size: 1
    stride: 1
    weight_filler {
      type: "xavier"
    }
    bias_filler {
      type: "constant"
    }
  }
}
layer {
  name: "reluconv"
  type: "ReLU"
  bottom: "conv6"
  top: "conv6"
}
layer {
  name: "rpn_conv/3x3"
  type: "Convolution"
  bottom: "conv6"
  top: "rpn/output"
  param {
    lr_mult: 1
  }
  param {
    lr_mult: 2
  }
  convolution_param {
    num_output: 256
    pad: 1
    kernel_size: 3
    stride: 1
    weight_filler {
      type: "gaussian"
      std: 0.01
    }
    bias_filler {
      type: "constant"
      value: 0
    }
  }
}
layer {
  name: "rpn_relu/3x3"
  type: "ReLU"
  bottom: "rpn/output"
  top: "rpn/output"
}
layer {
  name: "rpn_cls_score"
  type: "Convolution"
  bottom: "rpn/output"
  top: "rpn_cls_score"
  param {
    lr_mult: 1
  }
  param {
    lr_mult: 2
  }
  convolution_param {
    num_output: 12
    pad: 0
    kernel_size: 1
    stride: 1
    weight_filler {
      type: "gaussian"
      std: 0.01
    }
    bias_filler {
      type: "constant"
      value: 0
    }
  }
}
layer {
  name: "rpn_bbox_pred"
  type: "Convolution"
  bottom: "rpn/output"
  top: "rpn_bbox_pred"
  param {
    lr_mult: 1
  }
  param {
    lr_mult: 2
  }
  convolution_param {
    num_output: 24
    pad: 0
    kernel_size: 1
    stride: 1
    weight_filler {
      type: "gaussian"
      std: 0.01
    }
    bias_filler {
      type: "constant"
      value: 0
    }
  }
}
layer {
  name: "rpn_cls_score_reshape"
  type: "Reshape"
  bottom: "rpn_cls_score"
  top: "rpn_cls_score_reshape"
  reshape_param {
    shape {
      dim: 0
      dim: 2
      dim: -1
      dim: 0
    }
  }
}
layer {
  name: "rpn-data"
  type: "Python"
  bottom: "rpn_cls_score"
  bottom: "gt_boxes"
  bottom: "im_info"
  bottom: "data"
  top: "rpn_labels"
  top: "rpn_bbox_targets"
  top: "rpn_bbox_inside_weights"
  top: "rpn_bbox_outside_weights"
  python_param {
    module: "rpn.anchor_target_layer"
    layer: "AnchorTargetLayer"
    param_str: "\'feat_stride\': 16"
  }
}
layer {
  name: "rpn_loss_cls"
  type: "SoftmaxWithLoss"
  bottom: "rpn_cls_score_reshape"
  bottom: "rpn_labels"
  top: "rpn_cls_loss"
  loss_weight: 1
  propagate_down: true
  propagate_down: false
  loss_param {
    ignore_label: -1
    normalize: true
  }
}
layer {
  name: "rpn_loss_bbox"
  type: "SmoothL1Loss"
  bottom: "rpn_bbox_pred"
  bottom: "rpn_bbox_targets"
  bottom: "rpn_bbox_inside_weights"
  bottom: "rpn_bbox_outside_weights"
  top: "rpn_loss_bbox"
  loss_weight: 1
  smooth_l1_loss_param {
    sigma: 3
  }
}
layer {
  name: "rpn_cls_prob"
  type: "Softmax"
  bottom: "rpn_cls_score_reshape"
  top: "rpn_cls_prob"
}
layer {
  name: "rpn_cls_prob_reshape"
  type: "Reshape"
  bottom: "rpn_cls_prob"
  top: "rpn_cls_prob_reshape"
  reshape_param {
    shape {
      dim: 0
      dim: 12
      dim: -1
      dim: 0
    }
  }
}
layer {
  name: "proposal"
  type: "Python"
  bottom: "rpn_cls_prob_reshape"
  bottom: "rpn_bbox_pred"
  bottom: "im_info"
  top: "rpn_rois"
  python_param {
    module: "rpn.proposal_layer"
    layer: "ProposalLayer"
    param_str: "\'feat_stride\': 16"
  }
}
layer {
  name: "roi-data"
  type: "Python"
  bottom: "rpn_rois"
  bottom: "gt_boxes"
  top: "rois"
  top: "labels"
  top: "bbox_targets"
  top: "bbox_inside_weights"
  top: "bbox_outside_weights"
  python_param {
    module: "rpn.proposal_target_layer"
    layer: "ProposalTargetLayer"
    param_str: "\'num_classes\': 2"
  }
}
layer {
  name: "roi_pool_conv5"
  type: "ROIPooling"
  bottom: "conv6"
  bottom: "rois"
  top: "roi_pool_conv5"
  roi_pooling_param {
    pooled_h: 6
    pooled_w: 6
    spatial_scale: 0.0625
  }
}
layer {
  name: "fc6"
  type: "InnerProduct"
  bottom: "roi_pool_conv5"
  top: "fc6"
  param {
    lr_mult: 1
  }
  param {
    lr_mult: 2
  }
  inner_product_param {
    num_output: 4096
  }
}
layer {
  name: "relu6"
  type: "ReLU"
  bottom: "fc6"
  top: "fc6"
}
layer {
  name: "drop6"
  type: "Dropout"
  bottom: "fc6"
  top: "fc6"
  dropout_param {
    dropout_ratio: 0.5
    scale_train: false
  }
}
layer {
  name: "fc7"
  type: "InnerProduct"
  bottom: "fc6"
  top: "fc7"
  param {
    lr_mult: 1
  }
  param {
    lr_mult: 2
  }
  inner_product_param {
    num_output: 4096
  }
}
layer {
  name: "relu7"
  type: "ReLU"
  bottom: "fc7"
  top: "fc7"
}
layer {
  name: "drop7"
  type: "Dropout"
  bottom: "fc7"
  top: "fc7"
  dropout_param {
    dropout_ratio: 0.5
    scale_train: false
  }
}
layer {
  name: "cls_score"
  type: "InnerProduct"
  bottom: "fc7"
  top: "cls_score"
  param {
    lr_mult: 1
  }
  param {
    lr_mult: 2
  }
  inner_product_param {
    num_output: 2
    weight_filler {
      type: "gaussian"
      std: 0.01
    }
    bias_filler {
      type: "constant"
      value: 0
    }
  }
}
layer {
  name: "bbox_pred"
  type: "InnerProduct"
  bottom: "fc7"
  top: "bbox_pred"
  param {
    lr_mult: 1
  }
  param {
    lr_mult: 2
  }
  inner_product_param {
    num_output: 8
    weight_filler {
      type: "gaussian"
      std: 0.001
    }
    bias_filler {
      type: "constant"
      value: 0
    }
  }
}
layer {
  name: "loss_cls"
  type: "SoftmaxWithLoss"
  bottom: "cls_score"
  bottom: "labels"
  top: "cls_loss"
  loss_weight: 1
  propagate_down: true
  propagate_down: false
  loss_param {
    ignore_label: -1
    normalize: true
  }
}
layer {
  name: "loss_bbox"
  type: "SmoothL1Loss"
  bottom: "bbox_pred"
  bottom: "bbox_targets"
  bottom: "bbox_inside_weights"
  bottom: "bbox_outside_weights"
  top: "bbox_loss"
  loss_weight: 1
}
I0515 12:09:54.338435  9498 layer_factory.hpp:77] Creating layer input-data
I0515 12:09:54.374945  9498 net.cpp:106] Creating Layer input-data
I0515 12:09:54.374971  9498 net.cpp:411] input-data -> data
I0515 12:09:54.374984  9498 net.cpp:411] input-data -> im_info
I0515 12:09:54.374989  9498 net.cpp:411] input-data -> gt_boxes
RoiDataLayer: name_to_top: {'gt_boxes': 2, 'data': 0, 'im_info': 1}
I0515 12:09:56.942911  9498 net.cpp:150] Setting up input-data
I0515 12:09:56.942946  9498 net.cpp:157] Top shape: 1 3 600 1000 (1800000)
I0515 12:09:56.942955  9498 net.cpp:157] Top shape: 1 3 (3)
I0515 12:09:56.942960  9498 net.cpp:157] Top shape: 1 4 (4)
I0515 12:09:56.942962  9498 net.cpp:165] Memory required for data: 7200028
I0515 12:09:56.942973  9498 layer_factory.hpp:77] Creating layer data_input-data_0_split
I0515 12:09:56.943001  9498 net.cpp:106] Creating Layer data_input-data_0_split
I0515 12:09:56.943029  9498 net.cpp:454] data_input-data_0_split <- data
I0515 12:09:56.943058  9498 net.cpp:411] data_input-data_0_split -> data_input-data_0_split_0
I0515 12:09:56.943081  9498 net.cpp:411] data_input-data_0_split -> data_input-data_0_split_1
I0515 12:09:56.943141  9498 net.cpp:150] Setting up data_input-data_0_split
I0515 12:09:56.943150  9498 net.cpp:157] Top shape: 1 3 600 1000 (1800000)
I0515 12:09:56.943156  9498 net.cpp:157] Top shape: 1 3 600 1000 (1800000)
I0515 12:09:56.943159  9498 net.cpp:165] Memory required for data: 21600028
I0515 12:09:56.943162  9498 layer_factory.hpp:77] Creating layer im_info_input-data_1_split
I0515 12:09:56.943171  9498 net.cpp:106] Creating Layer im_info_input-data_1_split
I0515 12:09:56.943176  9498 net.cpp:454] im_info_input-data_1_split <- im_info
I0515 12:09:56.943181  9498 net.cpp:411] im_info_input-data_1_split -> im_info_input-data_1_split_0
I0515 12:09:56.943189  9498 net.cpp:411] im_info_input-data_1_split -> im_info_input-data_1_split_1
I0515 12:09:56.943225  9498 net.cpp:150] Setting up im_info_input-data_1_split
I0515 12:09:56.943233  9498 net.cpp:157] Top shape: 1 3 (3)
I0515 12:09:56.943236  9498 net.cpp:157] Top shape: 1 3 (3)
I0515 12:09:56.943238  9498 net.cpp:165] Memory required for data: 21600052
I0515 12:09:56.943241  9498 layer_factory.hpp:77] Creating layer gt_boxes_input-data_2_split
I0515 12:09:56.943245  9498 net.cpp:106] Creating Layer gt_boxes_input-data_2_split
I0515 12:09:56.943248  9498 net.cpp:454] gt_boxes_input-data_2_split <- gt_boxes
I0515 12:09:56.943251  9498 net.cpp:411] gt_boxes_input-data_2_split -> gt_boxes_input-data_2_split_0
I0515 12:09:56.943256  9498 net.cpp:411] gt_boxes_input-data_2_split -> gt_boxes_input-data_2_split_1
I0515 12:09:56.943280  9498 net.cpp:150] Setting up gt_boxes_input-data_2_split
I0515 12:09:56.943289  9498 net.cpp:157] Top shape: 1 4 (4)
I0515 12:09:56.943295  9498 net.cpp:157] Top shape: 1 4 (4)
I0515 12:09:56.943297  9498 net.cpp:165] Memory required for data: 21600084
I0515 12:09:56.943300  9498 layer_factory.hpp:77] Creating layer conv1
I0515 12:09:56.943311  9498 net.cpp:106] Creating Layer conv1
I0515 12:09:56.943315  9498 net.cpp:454] conv1 <- data_input-data_0_split_0
I0515 12:09:56.943318  9498 net.cpp:411] conv1 -> conv1
I0515 12:09:57.674131  9498 net.cpp:150] Setting up conv1
I0515 12:09:57.674163  9498 net.cpp:157] Top shape: 1 96 300 500 (14400000)
I0515 12:09:57.674166  9498 net.cpp:165] Memory required for data: 79200084
I0515 12:09:57.674183  9498 layer_factory.hpp:77] Creating layer relu1
I0515 12:09:57.674194  9498 net.cpp:106] Creating Layer relu1
I0515 12:09:57.674198  9498 net.cpp:454] relu1 <- conv1
I0515 12:09:57.674204  9498 net.cpp:397] relu1 -> conv1 (in-place)
I0515 12:09:57.674785  9498 net.cpp:150] Setting up relu1
I0515 12:09:57.674796  9498 net.cpp:157] Top shape: 1 96 300 500 (14400000)
I0515 12:09:57.674798  9498 net.cpp:165] Memory required for data: 136800084
I0515 12:09:57.674801  9498 layer_factory.hpp:77] Creating layer norm1
I0515 12:09:57.674809  9498 net.cpp:106] Creating Layer norm1
I0515 12:09:57.674811  9498 net.cpp:454] norm1 <- conv1
I0515 12:09:57.674816  9498 net.cpp:411] norm1 -> norm1
I0515 12:09:57.674927  9498 net.cpp:150] Setting up norm1
I0515 12:09:57.674935  9498 net.cpp:157] Top shape: 1 96 300 500 (14400000)
I0515 12:09:57.674937  9498 net.cpp:165] Memory required for data: 194400084
I0515 12:09:57.674940  9498 layer_factory.hpp:77] Creating layer pool1
I0515 12:09:57.674945  9498 net.cpp:106] Creating Layer pool1
I0515 12:09:57.674947  9498 net.cpp:454] pool1 <- norm1
I0515 12:09:57.674952  9498 net.cpp:411] pool1 -> pool1
I0515 12:09:57.674983  9498 net.cpp:150] Setting up pool1
I0515 12:09:57.674991  9498 net.cpp:157] Top shape: 1 96 151 251 (3638496)
I0515 12:09:57.674995  9498 net.cpp:165] Memory required for data: 208954068
I0515 12:09:57.674999  9498 layer_factory.hpp:77] Creating layer conv2
I0515 12:09:57.675009  9498 net.cpp:106] Creating Layer conv2
I0515 12:09:57.675015  9498 net.cpp:454] conv2 <- pool1
I0515 12:09:57.675021  9498 net.cpp:411] conv2 -> conv2
I0515 12:09:57.677492  9498 net.cpp:150] Setting up conv2
I0515 12:09:57.677522  9498 net.cpp:157] Top shape: 1 256 76 126 (2451456)
I0515 12:09:57.677525  9498 net.cpp:165] Memory required for data: 218759892
I0515 12:09:57.677539  9498 layer_factory.hpp:77] Creating layer relu2
I0515 12:09:57.677549  9498 net.cpp:106] Creating Layer relu2
I0515 12:09:57.677553  9498 net.cpp:454] relu2 <- conv2
I0515 12:09:57.677559  9498 net.cpp:397] relu2 -> conv2 (in-place)
I0515 12:09:57.678081  9498 net.cpp:150] Setting up relu2
I0515 12:09:57.678091  9498 net.cpp:157] Top shape: 1 256 76 126 (2451456)
I0515 12:09:57.678093  9498 net.cpp:165] Memory required for data: 228565716
I0515 12:09:57.678097  9498 layer_factory.hpp:77] Creating layer norm2
I0515 12:09:57.678105  9498 net.cpp:106] Creating Layer norm2
I0515 12:09:57.678109  9498 net.cpp:454] norm2 <- conv2
I0515 12:09:57.678118  9498 net.cpp:411] norm2 -> norm2
I0515 12:09:57.678223  9498 net.cpp:150] Setting up norm2
I0515 12:09:57.678233  9498 net.cpp:157] Top shape: 1 256 76 126 (2451456)
I0515 12:09:57.678236  9498 net.cpp:165] Memory required for data: 238371540
I0515 12:09:57.678238  9498 layer_factory.hpp:77] Creating layer pool2
I0515 12:09:57.678243  9498 net.cpp:106] Creating Layer pool2
I0515 12:09:57.678246  9498 net.cpp:454] pool2 <- norm2
I0515 12:09:57.678249  9498 net.cpp:411] pool2 -> pool2
I0515 12:09:57.678287  9498 net.cpp:150] Setting up pool2
I0515 12:09:57.678294  9498 net.cpp:157] Top shape: 1 256 39 64 (638976)
I0515 12:09:57.678297  9498 net.cpp:165] Memory required for data: 240927444
I0515 12:09:57.678299  9498 layer_factory.hpp:77] Creating layer conv3
I0515 12:09:57.678308  9498 net.cpp:106] Creating Layer conv3
I0515 12:09:57.678310  9498 net.cpp:454] conv3 <- pool2
I0515 12:09:57.678316  9498 net.cpp:411] conv3 -> conv3
I0515 12:09:57.683910  9498 net.cpp:150] Setting up conv3
I0515 12:09:57.683938  9498 net.cpp:157] Top shape: 1 384 39 64 (958464)
I0515 12:09:57.683941  9498 net.cpp:165] Memory required for data: 244761300
I0515 12:09:57.683955  9498 layer_factory.hpp:77] Creating layer relu3
I0515 12:09:57.683966  9498 net.cpp:106] Creating Layer relu3
I0515 12:09:57.683970  9498 net.cpp:454] relu3 <- conv3
I0515 12:09:57.683977  9498 net.cpp:397] relu3 -> conv3 (in-place)
I0515 12:09:57.684185  9498 net.cpp:150] Setting up relu3
I0515 12:09:57.684195  9498 net.cpp:157] Top shape: 1 384 39 64 (958464)
I0515 12:09:57.684197  9498 net.cpp:165] Memory required for data: 248595156
I0515 12:09:57.684200  9498 layer_factory.hpp:77] Creating layer conv3_relu3_0_split
I0515 12:09:57.684206  9498 net.cpp:106] Creating Layer conv3_relu3_0_split
I0515 12:09:57.684208  9498 net.cpp:454] conv3_relu3_0_split <- conv3
I0515 12:09:57.684214  9498 net.cpp:411] conv3_relu3_0_split -> conv3_relu3_0_split_0
I0515 12:09:57.684226  9498 net.cpp:411] conv3_relu3_0_split -> conv3_relu3_0_split_1
I0515 12:09:57.684280  9498 net.cpp:150] Setting up conv3_relu3_0_split
I0515 12:09:57.684289  9498 net.cpp:157] Top shape: 1 384 39 64 (958464)
I0515 12:09:57.684294  9498 net.cpp:157] Top shape: 1 384 39 64 (958464)
I0515 12:09:57.684298  9498 net.cpp:165] Memory required for data: 256262868
I0515 12:09:57.684300  9498 layer_factory.hpp:77] Creating layer conv4
I0515 12:09:57.684314  9498 net.cpp:106] Creating Layer conv4
I0515 12:09:57.684317  9498 net.cpp:454] conv4 <- conv3_relu3_0_split_0
I0515 12:09:57.684325  9498 net.cpp:411] conv4 -> conv4
I0515 12:09:57.689728  9498 net.cpp:150] Setting up conv4
I0515 12:09:57.689757  9498 net.cpp:157] Top shape: 1 384 39 64 (958464)
I0515 12:09:57.689760  9498 net.cpp:165] Memory required for data: 260096724
I0515 12:09:57.689774  9498 layer_factory.hpp:77] Creating layer relu4
I0515 12:09:57.689795  9498 net.cpp:106] Creating Layer relu4
I0515 12:09:57.689801  9498 net.cpp:454] relu4 <- conv4
I0515 12:09:57.689810  9498 net.cpp:397] relu4 -> conv4 (in-place)
I0515 12:09:57.689998  9498 net.cpp:150] Setting up relu4
I0515 12:09:57.690011  9498 net.cpp:157] Top shape: 1 384 39 64 (958464)
I0515 12:09:57.690013  9498 net.cpp:165] Memory required for data: 263930580
I0515 12:09:57.690017  9498 layer_factory.hpp:77] Creating layer conv4_relu4_0_split
I0515 12:09:57.690024  9498 net.cpp:106] Creating Layer conv4_relu4_0_split
I0515 12:09:57.690028  9498 net.cpp:454] conv4_relu4_0_split <- conv4
I0515 12:09:57.690034  9498 net.cpp:411] conv4_relu4_0_split -> conv4_relu4_0_split_0
I0515 12:09:57.690045  9498 net.cpp:411] conv4_relu4_0_split -> conv4_relu4_0_split_1
I0515 12:09:57.690109  9498 net.cpp:150] Setting up conv4_relu4_0_split
I0515 12:09:57.690116  9498 net.cpp:157] Top shape: 1 384 39 64 (958464)
I0515 12:09:57.690120  9498 net.cpp:157] Top shape: 1 384 39 64 (958464)
I0515 12:09:57.690122  9498 net.cpp:165] Memory required for data: 271598292
I0515 12:09:57.690125  9498 layer_factory.hpp:77] Creating layer conv5
I0515 12:09:57.690135  9498 net.cpp:106] Creating Layer conv5
I0515 12:09:57.690136  9498 net.cpp:454] conv5 <- conv4_relu4_0_split_0
I0515 12:09:57.690142  9498 net.cpp:411] conv5 -> conv5
I0515 12:09:57.693809  9498 net.cpp:150] Setting up conv5
I0515 12:09:57.693842  9498 net.cpp:157] Top shape: 1 256 39 64 (638976)
I0515 12:09:57.693845  9498 net.cpp:165] Memory required for data: 274154196
I0515 12:09:57.693858  9498 layer_factory.hpp:77] Creating layer relu5
I0515 12:09:57.693869  9498 net.cpp:106] Creating Layer relu5
I0515 12:09:57.693873  9498 net.cpp:454] relu5 <- conv5
I0515 12:09:57.693881  9498 net.cpp:397] relu5 -> conv5 (in-place)
I0515 12:09:57.694037  9498 net.cpp:150] Setting up relu5
I0515 12:09:57.694046  9498 net.cpp:157] Top shape: 1 256 39 64 (638976)
I0515 12:09:57.694047  9498 net.cpp:165] Memory required for data: 276710100
I0515 12:09:57.694051  9498 layer_factory.hpp:77] Creating layer concat
I0515 12:09:57.694057  9498 net.cpp:106] Creating Layer concat
I0515 12:09:57.694061  9498 net.cpp:454] concat <- conv3_relu3_0_split_1
I0515 12:09:57.694064  9498 net.cpp:454] concat <- conv4_relu4_0_split_1
I0515 12:09:57.694067  9498 net.cpp:454] concat <- conv5
I0515 12:09:57.694072  9498 net.cpp:411] concat -> concat
I0515 12:09:57.694102  9498 net.cpp:150] Setting up concat
I0515 12:09:57.694108  9498 net.cpp:157] Top shape: 1 1024 39 64 (2555904)
I0515 12:09:57.694111  9498 net.cpp:165] Memory required for data: 286933716
I0515 12:09:57.694116  9498 layer_factory.hpp:77] Creating layer normconcat
I0515 12:09:57.694123  9498 net.cpp:106] Creating Layer normconcat
I0515 12:09:57.694129  9498 net.cpp:454] normconcat <- concat
I0515 12:09:57.694134  9498 net.cpp:411] normconcat -> concatfeature
I0515 12:09:57.694221  9498 net.cpp:150] Setting up normconcat
I0515 12:09:57.694227  9498 net.cpp:157] Top shape: 1 1024 39 64 (2555904)
I0515 12:09:57.694231  9498 net.cpp:165] Memory required for data: 297157332
I0515 12:09:57.694232  9498 layer_factory.hpp:77] Creating layer conv6
I0515 12:09:57.694242  9498 net.cpp:106] Creating Layer conv6
I0515 12:09:57.694245  9498 net.cpp:454] conv6 <- concatfeature
I0515 12:09:57.694250  9498 net.cpp:411] conv6 -> conv6
I0515 12:09:57.696457  9498 net.cpp:150] Setting up conv6
I0515 12:09:57.696475  9498 net.cpp:157] Top shape: 1 256 39 64 (638976)
I0515 12:09:57.696476  9498 net.cpp:165] Memory required for data: 299713236
I0515 12:09:57.696483  9498 layer_factory.hpp:77] Creating layer reluconv
I0515 12:09:57.696491  9498 net.cpp:106] Creating Layer reluconv
I0515 12:09:57.696493  9498 net.cpp:454] reluconv <- conv6
I0515 12:09:57.696497  9498 net.cpp:397] reluconv -> conv6 (in-place)
I0515 12:09:57.696668  9498 net.cpp:150] Setting up reluconv
I0515 12:09:57.696677  9498 net.cpp:157] Top shape: 1 256 39 64 (638976)
I0515 12:09:57.696681  9498 net.cpp:165] Memory required for data: 302269140
I0515 12:09:57.696682  9498 layer_factory.hpp:77] Creating layer conv6_reluconv_0_split
I0515 12:09:57.696689  9498 net.cpp:106] Creating Layer conv6_reluconv_0_split
I0515 12:09:57.696691  9498 net.cpp:454] conv6_reluconv_0_split <- conv6
I0515 12:09:57.696696  9498 net.cpp:411] conv6_reluconv_0_split -> conv6_reluconv_0_split_0
I0515 12:09:57.696703  9498 net.cpp:411] conv6_reluconv_0_split -> conv6_reluconv_0_split_1
I0515 12:09:57.696745  9498 net.cpp:150] Setting up conv6_reluconv_0_split
I0515 12:09:57.696751  9498 net.cpp:157] Top shape: 1 256 39 64 (638976)
I0515 12:09:57.696754  9498 net.cpp:157] Top shape: 1 256 39 64 (638976)
I0515 12:09:57.696758  9498 net.cpp:165] Memory required for data: 307380948
I0515 12:09:57.696759  9498 layer_factory.hpp:77] Creating layer rpn_conv/3x3
I0515 12:09:57.696768  9498 net.cpp:106] Creating Layer rpn_conv/3x3
I0515 12:09:57.696771  9498 net.cpp:454] rpn_conv/3x3 <- conv6_reluconv_0_split_0
I0515 12:09:57.696777  9498 net.cpp:411] rpn_conv/3x3 -> rpn/output
I0515 12:09:57.704035  9498 net.cpp:150] Setting up rpn_conv/3x3
I0515 12:09:57.704059  9498 net.cpp:157] Top shape: 1 256 39 64 (638976)
I0515 12:09:57.704062  9498 net.cpp:165] Memory required for data: 309936852
I0515 12:09:57.704071  9498 layer_factory.hpp:77] Creating layer rpn_relu/3x3
I0515 12:09:57.704082  9498 net.cpp:106] Creating Layer rpn_relu/3x3
I0515 12:09:57.704085  9498 net.cpp:454] rpn_relu/3x3 <- rpn/output
I0515 12:09:57.704093  9498 net.cpp:397] rpn_relu/3x3 -> rpn/output (in-place)
I0515 12:09:57.704689  9498 net.cpp:150] Setting up rpn_relu/3x3
I0515 12:09:57.704699  9498 net.cpp:157] Top shape: 1 256 39 64 (638976)
I0515 12:09:57.704701  9498 net.cpp:165] Memory required for data: 312492756
I0515 12:09:57.704704  9498 layer_factory.hpp:77] Creating layer rpn/output_rpn_relu/3x3_0_split
I0515 12:09:57.704710  9498 net.cpp:106] Creating Layer rpn/output_rpn_relu/3x3_0_split
I0515 12:09:57.704712  9498 net.cpp:454] rpn/output_rpn_relu/3x3_0_split <- rpn/output
I0515 12:09:57.704717  9498 net.cpp:411] rpn/output_rpn_relu/3x3_0_split -> rpn/output_rpn_relu/3x3_0_split_0
I0515 12:09:57.704723  9498 net.cpp:411] rpn/output_rpn_relu/3x3_0_split -> rpn/output_rpn_relu/3x3_0_split_1
I0515 12:09:57.704769  9498 net.cpp:150] Setting up rpn/output_rpn_relu/3x3_0_split
I0515 12:09:57.704779  9498 net.cpp:157] Top shape: 1 256 39 64 (638976)
I0515 12:09:57.704784  9498 net.cpp:157] Top shape: 1 256 39 64 (638976)
I0515 12:09:57.704787  9498 net.cpp:165] Memory required for data: 317604564
I0515 12:09:57.704790  9498 layer_factory.hpp:77] Creating layer rpn_cls_score
I0515 12:09:57.704802  9498 net.cpp:106] Creating Layer rpn_cls_score
I0515 12:09:57.704807  9498 net.cpp:454] rpn_cls_score <- rpn/output_rpn_relu/3x3_0_split_0
I0515 12:09:57.704814  9498 net.cpp:411] rpn_cls_score -> rpn_cls_score
I0515 12:09:57.705711  9498 net.cpp:150] Setting up rpn_cls_score
I0515 12:09:57.705732  9498 net.cpp:157] Top shape: 1 12 39 64 (29952)
I0515 12:09:57.705736  9498 net.cpp:165] Memory required for data: 317724372
I0515 12:09:57.705746  9498 layer_factory.hpp:77] Creating layer rpn_cls_score_rpn_cls_score_0_split
I0515 12:09:57.705760  9498 net.cpp:106] Creating Layer rpn_cls_score_rpn_cls_score_0_split
I0515 12:09:57.705765  9498 net.cpp:454] rpn_cls_score_rpn_cls_score_0_split <- rpn_cls_score
I0515 12:09:57.705771  9498 net.cpp:411] rpn_cls_score_rpn_cls_score_0_split -> rpn_cls_score_rpn_cls_score_0_split_0
I0515 12:09:57.705780  9498 net.cpp:411] rpn_cls_score_rpn_cls_score_0_split -> rpn_cls_score_rpn_cls_score_0_split_1
I0515 12:09:57.705833  9498 net.cpp:150] Setting up rpn_cls_score_rpn_cls_score_0_split
I0515 12:09:57.705873  9498 net.cpp:157] Top shape: 1 12 39 64 (29952)
I0515 12:09:57.705883  9498 net.cpp:157] Top shape: 1 12 39 64 (29952)
I0515 12:09:57.705886  9498 net.cpp:165] Memory required for data: 317963988
I0515 12:09:57.705890  9498 layer_factory.hpp:77] Creating layer rpn_bbox_pred
I0515 12:09:57.705905  9498 net.cpp:106] Creating Layer rpn_bbox_pred
I0515 12:09:57.705912  9498 net.cpp:454] rpn_bbox_pred <- rpn/output_rpn_relu/3x3_0_split_1
I0515 12:09:57.705920  9498 net.cpp:411] rpn_bbox_pred -> rpn_bbox_pred
I0515 12:09:57.707229  9498 net.cpp:150] Setting up rpn_bbox_pred
I0515 12:09:57.707244  9498 net.cpp:157] Top shape: 1 24 39 64 (59904)
I0515 12:09:57.707247  9498 net.cpp:165] Memory required for data: 318203604
I0515 12:09:57.707258  9498 layer_factory.hpp:77] Creating layer rpn_bbox_pred_rpn_bbox_pred_0_split
I0515 12:09:57.707267  9498 net.cpp:106] Creating Layer rpn_bbox_pred_rpn_bbox_pred_0_split
I0515 12:09:57.707270  9498 net.cpp:454] rpn_bbox_pred_rpn_bbox_pred_0_split <- rpn_bbox_pred
I0515 12:09:57.707275  9498 net.cpp:411] rpn_bbox_pred_rpn_bbox_pred_0_split -> rpn_bbox_pred_rpn_bbox_pred_0_split_0
I0515 12:09:57.707281  9498 net.cpp:411] rpn_bbox_pred_rpn_bbox_pred_0_split -> rpn_bbox_pred_rpn_bbox_pred_0_split_1
I0515 12:09:57.707329  9498 net.cpp:150] Setting up rpn_bbox_pred_rpn_bbox_pred_0_split
I0515 12:09:57.707336  9498 net.cpp:157] Top shape: 1 24 39 64 (59904)
I0515 12:09:57.707340  9498 net.cpp:157] Top shape: 1 24 39 64 (59904)
I0515 12:09:57.707341  9498 net.cpp:165] Memory required for data: 318682836
I0515 12:09:57.707345  9498 layer_factory.hpp:77] Creating layer rpn_cls_score_reshape
I0515 12:09:57.707356  9498 net.cpp:106] Creating Layer rpn_cls_score_reshape
I0515 12:09:57.707361  9498 net.cpp:454] rpn_cls_score_reshape <- rpn_cls_score_rpn_cls_score_0_split_0
I0515 12:09:57.707367  9498 net.cpp:411] rpn_cls_score_reshape -> rpn_cls_score_reshape
I0515 12:09:57.707394  9498 net.cpp:150] Setting up rpn_cls_score_reshape
I0515 12:09:57.707398  9498 net.cpp:157] Top shape: 1 2 234 64 (29952)
I0515 12:09:57.707401  9498 net.cpp:165] Memory required for data: 318802644
I0515 12:09:57.707402  9498 layer_factory.hpp:77] Creating layer rpn_cls_score_reshape_rpn_cls_score_reshape_0_split
I0515 12:09:57.707406  9498 net.cpp:106] Creating Layer rpn_cls_score_reshape_rpn_cls_score_reshape_0_split
I0515 12:09:57.707409  9498 net.cpp:454] rpn_cls_score_reshape_rpn_cls_score_reshape_0_split <- rpn_cls_score_reshape
I0515 12:09:57.707414  9498 net.cpp:411] rpn_cls_score_reshape_rpn_cls_score_reshape_0_split -> rpn_cls_score_reshape_rpn_cls_score_reshape_0_split_0
I0515 12:09:57.707419  9498 net.cpp:411] rpn_cls_score_reshape_rpn_cls_score_reshape_0_split -> rpn_cls_score_reshape_rpn_cls_score_reshape_0_split_1
I0515 12:09:57.707453  9498 net.cpp:150] Setting up rpn_cls_score_reshape_rpn_cls_score_reshape_0_split
I0515 12:09:57.707482  9498 net.cpp:157] Top shape: 1 2 234 64 (29952)
I0515 12:09:57.707490  9498 net.cpp:157] Top shape: 1 2 234 64 (29952)
I0515 12:09:57.707494  9498 net.cpp:165] Memory required for data: 319042260
I0515 12:09:57.707496  9498 layer_factory.hpp:77] Creating layer rpn-data
I0515 12:09:57.725594  9498 net.cpp:106] Creating Layer rpn-data
I0515 12:09:57.725630  9498 net.cpp:454] rpn-data <- rpn_cls_score_rpn_cls_score_0_split_1
I0515 12:09:57.725646  9498 net.cpp:454] rpn-data <- gt_boxes_input-data_2_split_0
I0515 12:09:57.725656  9498 net.cpp:454] rpn-data <- im_info_input-data_1_split_0
I0515 12:09:57.725666  9498 net.cpp:454] rpn-data <- data_input-data_0_split_1
I0515 12:09:57.725677  9498 net.cpp:411] rpn-data -> rpn_labels
I0515 12:09:57.725693  9498 net.cpp:411] rpn-data -> rpn_bbox_targets
I0515 12:09:57.725708  9498 net.cpp:411] rpn-data -> rpn_bbox_inside_weights
I0515 12:09:57.725721  9498 net.cpp:411] rpn-data -> rpn_bbox_outside_weights
I0515 12:09:57.728960  9498 net.cpp:150] Setting up rpn-data
I0515 12:09:57.729007  9498 net.cpp:157] Top shape: 1 1 234 64 (14976)
I0515 12:09:57.729017  9498 net.cpp:157] Top shape: 1 24 39 64 (59904)
I0515 12:09:57.729025  9498 net.cpp:157] Top shape: 1 24 39 64 (59904)
I0515 12:09:57.729034  9498 net.cpp:157] Top shape: 1 24 39 64 (59904)
I0515 12:09:57.729040  9498 net.cpp:165] Memory required for data: 319821012
I0515 12:09:57.729050  9498 layer_factory.hpp:77] Creating layer rpn_loss_cls
I0515 12:09:57.729069  9498 net.cpp:106] Creating Layer rpn_loss_cls
I0515 12:09:57.729079  9498 net.cpp:454] rpn_loss_cls <- rpn_cls_score_reshape_rpn_cls_score_reshape_0_split_0
I0515 12:09:57.729090  9498 net.cpp:454] rpn_loss_cls <- rpn_labels
…
I0515 12:09:57.731745  9498 net.cpp:157] Top shape: (1)
I0515 12:09:57.731750  9498 net.cpp:160]     with loss weight 1
I0515 12:09:57.731760  9498 net.cpp:165] Memory required for data: 319821020
I0515 12:09:57.731766  9498 layer_factory.hpp:77] Creating layer rpn_cls_prob
I0515 12:09:57.731777  9498 net.cpp:106] Creating Layer rpn_cls_prob
I0515 12:09:57.731784  9498 net.cpp:454] rpn_cls_prob <- rpn_cls_score_reshape_rpn_cls_score_reshape_0_split_1
I0515 12:09:57.731794  9498 net.cpp:411] rpn_cls_prob -> rpn_cls_prob
I0515 12:09:57.732205  9498 net.cpp:150] Setting up rpn_cls_prob
I0515 12:09:57.732215  9498 net.cpp:157] Top shape: 1 2 234 64 (29952)
I0515 12:09:57.732218  9498 net.cpp:165] Memory required for data: 319940828
I0515 12:09:57.732221  9498 layer_factory.hpp:77] Creating layer rpn_cls_prob_reshape
I0515 12:09:57.732228  9498 net.cpp:106] Creating Layer rpn_cls_prob_reshape
I0515 12:09:57.732231  9498 net.cpp:454] rpn_cls_prob_reshape <- rpn_cls_prob
I0515 12:09:57.732237  9498 net.cpp:411] rpn_cls_prob_reshape -> rpn_cls_prob_reshape
I0515 12:09:57.732269  9498 net.cpp:150] Setting up rpn_cls_prob_reshape
I0515 12:09:57.732277  9498 net.cpp:157] Top shape: 1 12 39 64 (29952)
I0515 12:09:57.732282  9498 net.cpp:165] Memory required for data: 320060636
I0515 12:09:57.732286  9498 layer_factory.hpp:77] Creating layer proposal
I0515 12:09:57.734632  9498 net.cpp:106] Creating Layer proposal
I0515 12:09:57.734654  9498 net.cpp:454] proposal <- rpn_cls_prob_reshape
I0515 12:09:57.734661  9498 net.cpp:454] proposal <- rpn_bbox_pred_rpn_bbox_pred_0_split_1
I0515 12:09:57.734665  9498 net.cpp:454] proposal <- im_info_input-data_1_split_1
I0515 12:09:57.734670  9498 net.cpp:411] proposal -> rpn_rois
I0515 12:09:57.746239  9498 net.cpp:150] Setting up proposal
I0515 12:09:57.746270  9498 net.cpp:157] Top shape: 1 5 (5)
I0515 12:09:57.746273  9498 net.cpp:165] Memory required for data: 320060656
I0515 12:09:57.746279  9498 layer_factory.hpp:77] Creating layer roi-data
I0515 12:09:57.747649  9498 net.cpp:106] Creating Layer roi-data
I0515 12:09:57.747661  9498 net.cpp:454] roi-data <- rpn_rois
I0515 12:09:57.747668  9498 net.cpp:454] roi-data <- gt_boxes_input-data_2_split_1
I0515 12:09:57.747674  9498 net.cpp:411] roi-data -> rois
I0515 12:09:57.747680  9498 net.cpp:411] roi-data -> labels
I0515 12:09:57.747686  9498 net.cpp:411] roi-data -> bbox_targets
I0515 12:09:57.747691  9498 net.cpp:411] roi-data -> bbox_inside_weights
I0515 12:09:57.747695  9498 net.cpp:411] roi-data -> bbox_outside_weights
I0515 12:09:57.748159  9498 net.cpp:150] Setting up roi-data
I0515 12:09:57.748170  9498 net.cpp:157] Top shape: 1 5 (5)
I0515 12:09:57.748173  9498 net.cpp:157] Top shape: 1 1 (1)
I0515 12:09:57.748176  9498 net.cpp:157] Top shape: 1 8 (8)
I0515 12:09:57.748180  9498 net.cpp:157] Top shape: 1 8 (8)
I0515 12:09:57.748183  9498 net.cpp:157] Top shape: 1 8 (8)
I0515 12:09:57.748186  9498 net.cpp:165] Memory required for data: 320060776
I0515 12:09:57.748191  9498 layer_factory.hpp:77] Creating layer roi_pool_conv5
I0515 12:09:57.748198  9498 net.cpp:106] Creating Layer roi_pool_conv5
I0515 12:09:57.748203  9498 net.cpp:454] roi_pool_conv5 <- conv6_reluconv_0_split_1
I0515 12:09:57.748210  9498 net.cpp:454] roi_pool_conv5 <- rois
I0515 12:09:57.748216  9498 net.cpp:411] roi_pool_conv5 -> roi_pool_conv5
I0515 12:09:57.748224  9498 roi_pooling_layer.cpp:30] Spatial scale: 0.0625
I0515 12:09:57.748278  9498 net.cpp:150] Setting up roi_pool_conv5
I0515 12:09:57.748286  9498 net.cpp:157] Top shape: 1 256 6 6 (9216)
I0515 12:09:57.748287  9498 net.cpp:165] Memory required for data: 320097640
I0515 12:09:57.748291  9498 layer_factory.hpp:77] Creating layer fc6
I0515 12:09:57.748296  9498 net.cpp:106] Creating Layer fc6
I0515 12:09:57.748301  9498 net.cpp:454] fc6 <- roi_pool_conv5
I0515 12:09:57.748306  9498 net.cpp:411] fc6 -> fc6
I0515 12:09:57.838719  9498 net.cpp:150] Setting up fc6
I0515 12:09:57.838786  9498 net.cpp:157] Top shape: 1 4096 (4096)
I0515 12:09:57.838788  9498 net.cpp:165] Memory required for data: 320114024
I0515 12:09:57.838801  9498 layer_factory.hpp:77] Creating layer relu6
I0515 12:09:57.838814  9498 net.cpp:106] Creating Layer relu6
I0515 12:09:57.838819  9498 net.cpp:454] relu6 <- fc6
I0515 12:09:57.838826  9498 net.cpp:397] relu6 -> fc6 (in-place)
I0515 12:09:57.839113  9498 net.cpp:150] Setting up relu6
I0515 12:09:57.839128  9498 net.cpp:157] Top shape: 1 4096 (4096)
I0515 12:09:57.839130  9498 net.cpp:165] Memory required for data: 320130408
I0515 12:09:57.839134  9498 layer_factory.hpp:77] Creating layer drop6
I0515 12:09:57.839143  9498 net.cpp:106] Creating Layer drop6
I0515 12:09:57.839145  9498 net.cpp:454] drop6 <- fc6
I0515 12:09:57.839149  9498 net.cpp:397] drop6 -> fc6 (in-place)
I0515 12:09:57.839181  9498 net.cpp:150] Setting up drop6
I0515 12:09:57.839187  9498 net.cpp:157] Top shape: 1 4096 (4096)
I0515 12:09:57.839190  9498 net.cpp:165] Memory required for data: 320146792
I0515 12:09:57.839193  9498 layer_factory.hpp:77] Creating layer fc7
I0515 12:09:57.839200  9498 net.cpp:106] Creating Layer fc7
I0515 12:09:57.839203  9498 net.cpp:454] fc7 <- fc6
I0515 12:09:57.839210  9498 net.cpp:411] fc7 -> fc7
I0515 12:09:57.881400  9498 net.cpp:150] Setting up fc7
I0515 12:09:57.881455  9498 net.cpp:157] Top shape: 1 4096 (4096)
I0515 12:09:57.881458  9498 net.cpp:165] Memory required for data: 320163176
I0515 12:09:57.881470  9498 layer_factory.hpp:77] Creating layer relu7
I0515 12:09:57.881484  9498 net.cpp:106] Creating Layer relu7
I0515 12:09:57.881489  9498 net.cpp:454] relu7 <- fc7
I0515 12:09:57.881496  9498 net.cpp:397] relu7 -> fc7 (in-place)
I0515 12:09:57.881781  9498 net.cpp:150] Setting up relu7
I0515 12:09:57.881798  9498 net.cpp:157] Top shape: 1 4096 (4096)
I0515 12:09:57.881799  9498 net.cpp:165] Memory required for data: 320179560
I0515 12:09:57.881803  9498 layer_factory.hpp:77] Creating layer drop7
I0515 12:09:57.881813  9498 net.cpp:106] Creating Layer drop7
I0515 12:09:57.881816  9498 net.cpp:454] drop7 <- fc7
I0515 12:09:57.881822  9498 net.cpp:397] drop7 -> fc7 (in-place)
I0515 12:09:57.881860  9498 net.cpp:150] Setting up drop7
I0515 12:09:57.881866  9498 net.cpp:157] Top shape: 1 4096 (4096)
I0515 12:09:57.881870  9498 net.cpp:165] Memory required for data: 320195944
I0515 12:09:57.881875  9498 layer_factory.hpp:77] Creating layer fc7_drop7_0_split
I0515 12:09:57.881880  9498 net.cpp:106] Creating Layer fc7_drop7_0_split
I0515 12:09:57.881884  9498 net.cpp:454] fc7_drop7_0_split <- fc7
I0515 12:09:57.881891  9498 net.cpp:411] fc7_drop7_0_split -> fc7_drop7_0_split_0
I0515 12:09:57.881899  9498 net.cpp:411] fc7_drop7_0_split -> fc7_drop7_0_split_1
I0515 12:09:57.881939  9498 net.cpp:150] Setting up fc7_drop7_0_split
I0515 12:09:57.881945  9498 net.cpp:157] Top shape: 1 4096 (4096)
I0515 12:09:57.881948  9498 net.cpp:157] Top shape: 1 4096 (4096)
I0515 12:09:57.881952  9498 net.cpp:165] Memory required for data: 320228712
I0515 12:09:57.881954  9498 layer_factory.hpp:77] Creating layer cls_score
I0515 12:09:57.881963  9498 net.cpp:106] Creating Layer cls_score
I0515 12:09:57.881966  9498 net.cpp:454] cls_score <- fc7_drop7_0_split_0
I0515 12:09:57.881973  9498 net.cpp:411] cls_score -> cls_score
I0515 12:09:57.882134  9498 net.cpp:150] Setting up cls_score
I0515 12:09:57.882141  9498 net.cpp:157] Top shape: 1 2 (2)
I0515 12:09:57.882143  9498 net.cpp:165] Memory required for data: 320228720
I0515 12:09:57.882149  9498 layer_factory.hpp:77] Creating layer bbox_pred
I0515 12:09:57.882156  9498 net.cpp:106] Creating Layer bbox_pred
I0515 12:09:57.882160  9498 net.cpp:454] bbox_pred <- fc7_drop7_0_split_1
I0515 12:09:57.882166  9498 net.cpp:411] bbox_pred -> bbox_pred
I0515 12:09:57.882521  9498 net.cpp:150] Setting up bbox_pred
I0515 12:09:57.882529  9498 net.cpp:157] Top shape: 1 8 (8)
I0515 12:09:57.882532  9498 net.cpp:165] Memory required for data: 320228752
I0515 12:09:57.882539  9498 layer_factory.hpp:77] Creating layer loss_cls
I0515 12:09:57.882544  9498 net.cpp:106] Creating Layer loss_cls
I0515 12:09:57.882547  9498 net.cpp:454] loss_cls <- cls_score
I0515 12:09:57.882551  9498 net.cpp:454] loss_cls <- labels
I0515 12:09:57.882556  9498 net.cpp:411] loss_cls -> cls_loss
…
           'RPN_POST_NMS_TOP_N': 2000,
           'RPN_PRE_NMS_TOP_N': 12000,
           'SCALES': [600],
           'SNAPSHOT_INFIX': '',
           'SNAPSHOT_ITERS': 10000,
           'USE_FLIPPED': True,
           'USE_PREFETCH': False},
 'USE_GPU_NMS': True}
WARNING: Logging before InitGoogleLogging() is written to STDERR
I0515 17:37:13.653470 10447 net.cpp:49] Initializing net from parameters: 
name: "ZF"
input: "data"
input: "im_info"
state {
  phase: TEST
}
input_shape {
  dim: 1
  dim: 3
  dim: 224
  dim: 224
}
input_shape {
  dim: 1
  dim: 3
}
layer {
  name: "conv1"
  type: "Convolution"
  bottom: "data"
  top: "conv1"
  convolution_param {
    num_output: 96
    pad: 3
    kernel_size: 7
    stride: 2
  }
}
layer {
  name: "relu1"
  type: "ReLU"
  bottom: "conv1"
  top: "conv1"
}
layer {
  name: "norm1"
  type: "LRN"
  bottom: "conv1"
  top: "norm1"
  lrn_param {
    local_size: 3
    alpha: 5e-05
    beta: 0.75
    norm_region: WITHIN_CHANNEL
    engine: CAFFE
  }
}
layer {
  name: "pool1"
  type: "Pooling"
  bottom: "norm1"
  top: "pool1"
  pooling_param {
    pool: MAX
    kernel_size: 3
    stride: 2
    pad: 1
  }
}
layer {
  name: "conv2"
  type: "Convolution"
  bottom: "pool1"
  top: "conv2"
  convolution_param {
    num_output: 256
    pad: 2
    kernel_size: 5
    stride: 2
  }
}
layer {
  name: "relu2"
  type: "ReLU"
  bottom: "conv2"
  top: "conv2"
}
layer {
  name: "norm2"
  type: "LRN"
  bottom: "conv2"
  top: "norm2"
  lrn_param {
    local_size: 3
    alpha: 5e-05
    beta: 0.75
    norm_region: WITHIN_CHANNEL
    engine: CAFFE
  }
}
layer {
  name: "pool2"
  type: "Pooling"
  bottom: "norm2"
  top: "pool2"
  pooling_param {
    pool: MAX
    kernel_size: 3
    stride: 2
    pad: 1
  }
}
layer {
  name: "conv3"
  type: "Convolution"
  bottom: "pool2"
  top: "conv3"
  convolution_param {
    num_output: 384
    pad: 1
    kernel_size: 3
    stride: 1
  }
}
layer {
  name: "relu3"
  type: "ReLU"
  bottom: "conv3"
  top: "conv3"
}
layer {
  name: "conv4"
  type: "Convolution"
  bottom: "conv3"
  top: "conv4"
  convolution_param {
    num_output: 384
    pad: 1
    kernel_size: 3
    stride: 1
  }
}
layer {
  name: "relu4"
  type: "ReLU"
  bottom: "conv4"
  top: "conv4"
}
layer {
  name: "conv5"
  type: "Convolution"
  bottom: "conv4"
  top: "conv5"
  convolution_param {
    num_output: 256
    pad: 1
    kernel_size: 3
    stride: 1
  }
}
layer {
  name: "relu5"
  type: "ReLU"
  bottom: "conv5"
  top: "conv5"
}
layer {
  name: "concat"
  type: "Concat"
  bottom: "conv3"
  bottom: "conv4"
  bottom: "conv5"
  top: "concat"
  concat_param {
    axis: 1
  }
}
layer {
  name: "normconcat"
  type: "LRN"
  bottom: "concat"
  top: "concatfeature"
  lrn_param {
    local_size: 3
    alpha: 5e-05
    beta: 0.75
    norm_region: WITHIN_CHANNEL
    engine: CAFFE
  }
}
layer {
  name: "conv6"
  type: "Convolution"
  bottom: "concatfeature"
  top: "conv6"
  param {
    lr_mult: 1
  }
  param {
    lr_mult: 2
  }
  convolution_param {
    num_output: 256
    pad: 0
    kernel_size: 1
    stride: 1
    weight_filler {
      type: "xavier"
    }
    bias_filler {
      type: "constant"
    }
  }
}
layer {
  name: "reluconv"
  type: "ReLU"
  bottom: "conv6"
  top: "conv6"
}
layer {
  name: "rpn_conv/3x3"
  type: "Convolution"
  bottom: "conv6"
  top: "rpn/output"
  convolution_param {
    num_output: 256
    pad: 1
    kernel_size: 3
    stride: 1
    weight_filler {
      type: "gaussian"
      std: 0.01
    }
    bias_filler {
      type: "constant"
      value: 0
    }
  }
}
layer {
  name: "rpn_relu/3x3"
  type: "ReLU"
  bottom: "rpn/output"
  top: "rpn/output"
}
layer {
  name: "rpn_cls_score"
  type: "Convolution"
  bottom: "rpn/output"
  top: "rpn_cls_score"
  convolution_param {
    num_output: 12
    pad: 0
    kernel_size: 1
    stride: 1
    weight_filler {
      type: "gaussian"
      std: 0.01
    }
    bias_filler {
      type: "constant"
      value: 0
    }
  }
}
layer {
  name: "rpn_bbox_pred"
  type: "Convolution"
  bottom: "rpn/output"
  top: "rpn_bbox_pred"
  convolution_param {
    num_output: 24
    pad: 0
    kernel_size: 1
    stride: 1
    weight_filler {
      type: "gaussian"
      std: 0.01
    }
    bias_filler {
      type: "constant"
      value: 0
    }
  }
}
layer {
  name: "rpn_cls_score_reshape"
  type: "Reshape"
  bottom: "rpn_cls_score"
  top: "rpn_cls_score_reshape"
  reshape_param {
    shape {
      dim: 0
      dim: 2
      dim: -1
      dim: 0
    }
  }
}
layer {
  name: "rpn_cls_prob"
  type: "Softmax"
  bottom: "rpn_cls_score_reshape"
  top: "rpn_cls_prob"
}
layer {
  name: "rpn_cls_prob_reshape"
  type: "Reshape"
  bottom: "rpn_cls_prob"
  top: "rpn_cls_prob_reshape"
  reshape_param {
    shape {
      dim: 0
      dim: 12
      dim: -1
      dim: 0
    }
  }
}
layer {
  name: "proposal"
  type: "Python"
  bottom: "rpn_cls_prob_reshape"
  bottom: "rpn_bbox_pred"
  bottom: "im_info"
  top: "rois"
  python_param {
    module: "rpn.proposal_layer"
    layer: "ProposalLayer"
    param_str: "\'feat_stride\': 16"
  }
}
layer {
  name: "roi_pool_conv5"
  type: "ROIPooling"
  bottom: "conv6"
  bottom: "rois"
  top: "roi_pool_conv5"
  roi_pooling_param {
    pooled_h: 6
    pooled_w: 6
    spatial_scale: 0.0625
  }
}
layer {
  name: "fc6"
  type: "InnerProduct"
  bottom: "roi_pool_conv5"
  top: "fc6"
  inner_product_param {
    num_output: 4096
  }
}
layer {
  name: "relu6"
  type: "ReLU"
  bottom: "fc6"
  top: "fc6"
}
layer {
  name: "drop6"
  type: "Dropout"
  bottom: "fc6"
  top: "fc6"
  dropout_param {
    dropout_ratio: 0.5
    scale_train: false
  }
}
layer {
  name: "fc7"
  type: "InnerProduct"
  bottom: "fc6"
  top: "fc7"
  inner_product_param {
    num_output: 4096
  }
}
layer {
  name: "relu7"
  type: "ReLU"
  bottom: "fc7"
  top: "fc7"
}
layer {
  name: "drop7"
  type: "Dropout"
  bottom: "fc7"
  top: "fc7"
  dropout_param {
    dropout_ratio: 0.5
    scale_train: false
  }
}
layer {
  name: "cls_score"
  type: "InnerProduct"
  bottom: "fc7"
  top: "cls_score"
  inner_product_param {
    num_output: 2
  }
}
layer {
  name: "bbox_pred"
  type: "InnerProduct"
  bottom: "fc7"
  top: "bbox_pred"
  inner_product_param {
    num_output: 8
  }
}
layer {
  name: "cls_prob"
  type: "Softmax"
  bottom: "cls_score"
  top: "cls_prob"
  loss_param {
    ignore_label: -1
    normalize: true
  }
}
I0515 17:37:13.653640 10447 net.cpp:413] Input 0 -> data
I0515 17:37:16.284097 10447 net.cpp:413] Input 1 -> im_info
I0515 17:37:16.284163 10447 layer_factory.hpp:77] Creating layer conv1
I0515 17:37:16.284180 10447 net.cpp:106] Creating Layer conv1
I0515 17:37:16.284184 10447 net.cpp:454] conv1 <- data
I0515 17:37:16.284189 10447 net.cpp:411] conv1 -> conv1
I0515 17:37:17.002601 10447 net.cpp:150] Setting up conv1
I0515 17:37:17.002634 10447 net.cpp:157] Top shape: 1 96 112 112 (1204224)
I0515 17:37:17.002636 10447 net.cpp:165] Memory required for data: 4816896
I0515 17:37:17.002651 10447 layer_factory.hpp:77] Creating layer relu1
I0515 17:37:17.002662 10447 net.cpp:106] Creating Layer relu1
I0515 17:37:17.002666 10447 net.cpp:454] relu1 <- conv1
I0515 17:37:17.002671 10447 net.cpp:397] relu1 -> conv1 (in-place)
I0515 17:37:17.003245 10447 net.cpp:150] Setting up relu1
I0515 17:37:17.003257 10447 net.cpp:157] Top shape: 1 96 112 112 (1204224)
I0515 17:37:17.003260 10447 net.cpp:165] Memory required for data: 9633792
I0515 17:37:17.003264 10447 layer_factory.hpp:77] Creating layer norm1
I0515 17:37:17.003273 10447 net.cpp:106] Creating Layer norm1
I0515 17:37:17.003276 10447 net.cpp:454] norm1 <- conv1
I0515 17:37:17.003283 10447 net.cpp:411] norm1 -> norm1
I0515 17:37:17.003393 10447 net.cpp:150] Setting up norm1
I0515 17:37:17.003402 10447 net.cpp:157] Top shape: 1 96 112 112 (1204224)
I0515 17:37:17.003406 10447 net.cpp:165] Memory required for data: 14450688
I0515 17:37:17.003408 10447 layer_factory.hpp:77] Creating layer pool1
I0515 17:37:17.003413 10447 net.cpp:106] Creating Layer pool1
I0515 17:37:17.003417 10447 net.cpp:454] pool1 <- norm1
I0515 17:37:17.003419 10447 net.cpp:411] pool1 -> pool1
I0515 17:37:17.003456 10447 net.cpp:150] Setting up pool1
I0515 17:37:17.003464 10447 net.cpp:157] Top shape: 1 96 57 57 (311904)
I0515 17:37:17.003468 10447 net.cpp:165] Memory required for data: 15698304
I0515 17:37:17.003471 10447 layer_factory.hpp:77] Creating layer conv2
I0515 17:37:17.003481 10447 net.cpp:106] Creating Layer conv2
I0515 17:37:17.003486 10447 net.cpp:454] conv2 <- pool1
I0515 17:37:17.003492 10447 net.cpp:411] conv2 -> conv2
I0515 17:37:17.006616 10447 net.cpp:150] Setting up conv2
I0515 17:37:17.006655 10447 net.cpp:157] Top shape: 1 256 29 29 (215296)
I0515 17:37:17.006659 10447 net.cpp:165] Memory required for data: 16559488
I0515 17:37:17.006680 10447 layer_factory.hpp:77] Creating layer relu2
I0515 17:37:17.006695 10447 net.cpp:106] Creating Layer relu2
I0515 17:37:17.006700 10447 net.cpp:454] relu2 <- conv2
I0515 17:37:17.006706 10447 net.cpp:397] relu2 -> conv2 (in-place)
I0515 17:37:17.007342 10447 net.cpp:150] Setting up relu2
I0515 17:37:17.007356 10447 net.cpp:157] Top shape: 1 256 29 29 (215296)
I0515 17:37:17.007360 10447 net.cpp:165] Memory required for data: 17420672
I0515 17:37:17.007364 10447 layer_factory.hpp:77] Creating layer norm2
I0515 17:37:17.007375 10447 net.cpp:106] Creating Layer norm2
I0515 17:37:17.007380 10447 net.cpp:454] norm2 <- conv2
I0515 17:37:17.007387 10447 net.cpp:411] norm2 -> norm2
I0515 17:37:17.007496 10447 net.cpp:150] Setting up norm2
I0515 17:37:17.007506 10447 net.cpp:157] Top shape: 1 256 29 29 (215296)
I0515 17:37:17.007510 10447 net.cpp:165] Memory required for data: 18281856
I0515 17:37:17.007513 10447 layer_factory.hpp:77] Creating layer pool2
I0515 17:37:17.007520 10447 net.cpp:106] Creating Layer pool2
I0515 17:37:17.007525 10447 net.cpp:454] pool2 <- norm2
I0515 17:37:17.007531 10447 net.cpp:411] pool2 -> pool2
I0515 17:37:17.007573 10447 net.cpp:150] Setting up pool2
I0515 17:37:17.007581 10447 net.cpp:157] Top shape: 1 256 15 15 (57600)
I0515 17:37:17.007586 10447 net.cpp:165] Memory required for data: 18512256
I0515 17:37:17.007589 10447 layer_factory.hpp:77] Creating layer conv3
I0515 17:37:17.007601 10447 net.cpp:106] Creating Layer conv3
I0515 17:37:17.007606 10447 net.cpp:454] conv3 <- pool2
I0515 17:37:17.007613 10447 net.cpp:411] conv3 -> conv3
I0515 17:37:17.011212 10447 net.cpp:150] Setting up conv3
I0515 17:37:17.011242 10447 net.cpp:157] Top shape: 1 384 15 15 (86400)
I0515 17:37:17.011246 10447 net.cpp:165] Memory required for data: 18857856
I0515 17:37:17.011265 10447 layer_factory.hpp:77] Creating layer relu3
I0515 17:37:17.011278 10447 net.cpp:106] Creating Layer relu3
I0515 17:37:17.011283 10447 net.cpp:454] relu3 <- conv3
I0515 17:37:17.011292 10447 net.cpp:397] relu3 -> conv3 (in-place)
I0515 17:37:17.011445 10447 net.cpp:150] Setting up relu3
I0515 17:37:17.011454 10447 net.cpp:157] Top shape: 1 384 15 15 (86400)
I0515 17:37:17.011458 10447 net.cpp:165] Memory required for data: 19203456
I0515 17:37:17.011462 10447 layer_factory.hpp:77] Creating layer conv3_relu3_0_split
I0515 17:37:17.011469 10447 net.cpp:106] Creating Layer conv3_relu3_0_split
I0515 17:37:17.011473 10447 net.cpp:454] conv3_relu3_0_split <- conv3
I0515 17:37:17.011479 10447 net.cpp:411] conv3_relu3_0_split -> conv3_relu3_0_split_0
I0515 17:37:17.011487 10447 net.cpp:411] conv3_relu3_0_split -> conv3_relu3_0_split_1
I0515 17:37:17.011531 10447 net.cpp:150] Setting up conv3_relu3_0_split
I0515 17:37:17.011540 10447 net.cpp:157] Top shape: 1 384 15 15 (86400)
I0515 17:37:17.011544 10447 net.cpp:157] Top shape: 1 384 15 15 (86400)
I0515 17:37:17.011548 10447 net.cpp:165] Memory required for data: 19894656
I0515 17:37:17.011553 10447 layer_factory.hpp:77] Creating layer conv4
I0515 17:37:17.011564 10447 net.cpp:106] Creating Layer conv4
I0515 17:37:17.011566 10447 net.cpp:454] conv4 <- conv3_relu3_0_split_0
I0515 17:37:17.011572 10447 net.cpp:411] conv4 -> conv4
I0515 17:37:17.016429 10447 net.cpp:150] Setting up conv4
I0515 17:37:17.016461 10447 net.cpp:157] Top shape: 1 384 15 15 (86400)
I0515 17:37:17.016466 10447 net.cpp:165] Memory required for data: 20240256
I0515 17:37:17.016480 10447 layer_factory.hpp:77] Creating layer relu4
I0515 17:37:17.016495 10447 net.cpp:106] Creating Layer relu4
I0515 17:37:17.016502 10447 net.cpp:454] relu4 <- conv4
I0515 17:37:17.016512 10447 net.cpp:397] relu4 -> conv4 (in-place)
I0515 17:37:17.016695 10447 net.cpp:150] Setting up relu4
I0515 17:37:17.016705 10447 net.cpp:157] Top shape: 1 384 15 15 (86400)
I0515 17:37:17.016710 10447 net.cpp:165] Memory required for data: 20585856
I0515 17:37:17.016715 10447 layer_factory.hpp:77] Creating layer conv4_relu4_0_split
I0515 17:37:17.016722 10447 net.cpp:106] Creating Layer conv4_relu4_0_split
I0515 17:37:17.016729 10447 net.cpp:454] conv4_relu4_0_split <- conv4
I0515 17:37:17.016736 10447 net.cpp:411] conv4_relu4_0_split -> conv4_relu4_0_split_0
I0515 17:37:17.016746 10447 net.cpp:411] conv4_relu4_0_split -> conv4_relu4_0_split_1
I0515 17:37:17.016813 10447 net.cpp:150] Setting up conv4_relu4_0_split
I0515 17:37:17.016821 10447 net.cpp:157] Top shape: 1 384 15 15 (86400)
I0515 17:37:17.016824 10447 net.cpp:157] Top shape: 1 384 15 15 (86400)
I0515 17:37:17.016826 10447 net.cpp:165] Memory required for data: 21277056
I0515 17:37:17.016829 10447 layer_factory.hpp:77] Creating layer conv5
I0515 17:37:17.016836 10447 net.cpp:106] Creating Layer conv5
I0515 17:37:17.016839 10447 net.cpp:454] conv5 <- conv4_relu4_0_split_0
I0515 17:37:17.016844 10447 net.cpp:411] conv5 -> conv5
I0515 17:37:17.020401 10447 net.cpp:150] Setting up conv5
I0515 17:37:17.020428 10447 net.cpp:157] Top shape: 1 256 15 15 (57600)
I0515 17:37:17.020431 10447 net.cpp:165] Memory required for data: 21507456
I0515 17:37:17.020444 10447 layer_factory.hpp:77] Creating layer relu5
I0515 17:37:17.020454 10447 net.cpp:106] Creating Layer relu5
I0515 17:37:17.020457 10447 net.cpp:454] relu5 <- conv5
I0515 17:37:17.020462 10447 net.cpp:397] relu5 -> conv5 (in-place)
I0515 17:37:17.020617 10447 net.cpp:150] Setting up relu5
I0515 17:37:17.020623 10447 net.cpp:157] Top shape: 1 256 15 15 (57600)
I0515 17:37:17.020625 10447 net.cpp:165] Memory required for data: 21737856
I0515 17:37:17.020628 10447 layer_factory.hpp:77] Creating layer concat
I0515 17:37:17.020637 10447 net.cpp:106] Creating Layer concat
I0515 17:37:17.020640 10447 net.cpp:454] concat <- conv3_relu3_0_split_1
I0515 17:37:17.020644 10447 net.cpp:454] concat <- conv4_relu4_0_split_1
I0515 17:37:17.020648 10447 net.cpp:454] concat <- conv5
I0515 17:37:17.020653 10447 net.cpp:411] concat -> concat
I0515 17:37:17.020689 10447 net.cpp:150] Setting up concat
I0515 17:37:17.020697 10447 net.cpp:157] Top shape: 1 1024 15 15 (230400)
I0515 17:37:17.020700 10447 net.cpp:165] Memory required for data: 22659456
I0515 17:37:17.020704 10447 layer_factory.hpp:77] Creating layer normconcat
I0515 17:37:17.020714 10447 net.cpp:106] Creating Layer normconcat
I0515 17:37:17.020716 10447 net.cpp:454] normconcat <- concat
I0515 17:37:17.020722 10447 net.cpp:411] normconcat -> concatfeature
I0515 17:37:17.020812 10447 net.cpp:150] Setting up normconcat
I0515 17:37:17.020819 10447 net.cpp:157] Top shape: 1 1024 15 15 (230400)
I0515 17:37:17.020823 10447 net.cpp:165] Memory required for data: 23581056
I0515 17:37:17.020826 10447 layer_factory.hpp:77] Creating layer conv6
I0515 17:37:17.020838 10447 net.cpp:106] Creating Layer conv6
I0515 17:37:17.020843 10447 net.cpp:454] conv6 <- concatfeature
I0515 17:37:17.020848 10447 net.cpp:411] conv6 -> conv6
I0515 17:37:17.024349 10447 net.cpp:150] Setting up conv6
I0515 17:37:17.024374 10447 net.cpp:157] Top shape: 1 256 15 15 (57600)
I0515 17:37:17.024377 10447 net.cpp:165] Memory required for data: 23811456
I0515 17:37:17.024389 10447 layer_factory.hpp:77] Creating layer reluconv
I0515 17:37:17.024400 10447 net.cpp:106] Creating Layer reluconv
I0515 17:37:17.024405 10447 net.cpp:454] reluconv <- conv6
I0515 17:37:17.024412 10447 net.cpp:397] reluconv -> conv6 (in-place)
I0515 17:37:17.024571 10447 net.cpp:150] Setting up reluconv
I0515 17:37:17.024581 10447 net.cpp:157] Top shape: 1 256 15 15 (57600)
I0515 17:37:17.024585 10447 net.cpp:165] Memory required for data: 24041856
I0515 17:37:17.024588 10447 layer_factory.hpp:77] Creating layer conv6_reluconv_0_split
I0515 17:37:17.024595 10447 net.cpp:106] Creating Layer conv6_reluconv_0_split
I0515 17:37:17.024600 10447 net.cpp:454] conv6_reluconv_0_split <- conv6
I0515 17:37:17.024606 10447 net.cpp:411] conv6_reluconv_0_split -> conv6_reluconv_0_split_0
I0515 17:37:17.024616 10447 net.cpp:411] conv6_reluconv_0_split -> conv6_reluconv_0_split_1
I0515 17:37:17.024655 10447 net.cpp:150] Setting up conv6_reluconv_0_split
I0515 17:37:17.024662 10447 net.cpp:157] Top shape: 1 256 15 15 (57600)
I0515 17:37:17.024667 10447 net.cpp:157] Top shape: 1 256 15 15 (57600)
I0515 17:37:17.024670 10447 net.cpp:165] Memory required for data: 24502656
I0515 17:37:17.024673 10447 layer_factory.hpp:77] Creating layer rpn_conv/3x3
I0515 17:37:17.024684 10447 net.cpp:106] Creating Layer rpn_conv/3x3
I0515 17:37:17.024689 10447 net.cpp:454] rpn_conv/3x3 <- conv6_reluconv_0_split_0
I0515 17:37:17.024695 10447 net.cpp:411] rpn_conv/3x3 -> rpn/output
I0515 17:37:17.031461 10447 net.cpp:150] Setting up rpn_conv/3x3
I0515 17:37:17.031558 10447 net.cpp:157] Top shape: 1 256 15 15 (57600)
I0515 17:37:17.031576 10447 net.cpp:165] Memory required for data: 24733056
I0515 17:37:17.031605 10447 layer_factory.hpp:77] Creating layer rpn_relu/3x3
I0515 17:37:17.031623 10447 net.cpp:106] Creating Layer rpn_relu/3x3
I0515 17:37:17.031643 10447 net.cpp:454] rpn_relu/3x3 <- rpn/output
I0515 17:37:17.031656 10447 net.cpp:397] rpn_relu/3x3 -> rpn/output (in-place)
I0515 17:37:17.032301 10447 net.cpp:150] Setting up rpn_relu/3x3
I0515 17:37:17.032316 10447 net.cpp:157] Top shape: 1 256 15 15 (57600)
I0515 17:37:17.032320 10447 net.cpp:165] Memory required for data: 24963456
I0515 17:37:17.032326 10447 layer_factory.hpp:77] Creating layer rpn/output_rpn_relu/3x3_0_split
I0515 17:37:17.032338 10447 net.cpp:106] Creating Layer rpn/output_rpn_relu/3x3_0_split
I0515 17:37:17.032344 10447 net.cpp:454] rpn/output_rpn_relu/3x3_0_split <- rpn/output
I0515 17:37:17.032352 10447 net.cpp:411] rpn/output_rpn_relu/3x3_0_split -> rpn/output_rpn_relu/3x3_0_split_0
I0515 17:37:17.032363 10447 net.cpp:411] rpn/output_rpn_relu/3x3_0_split -> rpn/output_rpn_relu/3x3_0_split_1
I0515 17:37:17.032423 10447 net.cpp:150] Setting up rpn/output_rpn_relu/3x3_0_split
I0515 17:37:17.032430 10447 net.cpp:157] Top shape: 1 256 15 15 (57600)
I0515 17:37:17.032436 10447 net.cpp:157] Top shape: 1 256 15 15 (57600)
I0515 17:37:17.032440 10447 net.cpp:165] Memory required for data: 25424256
I0515 17:37:17.032444 10447 layer_factory.hpp:77] Creating layer rpn_cls_score
I0515 17:37:17.032457 10447 net.cpp:106] Creating Layer rpn_cls_score
I0515 17:37:17.032464 10447 net.cpp:454] rpn_cls_score <- rpn/output_rpn_relu/3x3_0_split_0
I0515 17:37:17.032470 10447 net.cpp:411] rpn_cls_score -> rpn_cls_score
I0515 17:37:17.034268 10447 net.cpp:150] Setting up rpn_cls_score
I0515 17:37:17.034302 10447 net.cpp:157] Top shape: 1 12 15 15 (2700)
I0515 17:37:17.034307 10447 net.cpp:165] Memory required for data: 25435056
I0515 17:37:17.034317 10447 layer_factory.hpp:77] Creating layer rpn_bbox_pred
I0515 17:37:17.034335 10447 net.cpp:106] Creating Layer rpn_bbox_pred
I0515 17:37:17.034340 10447 net.cpp:454] rpn_bbox_pred <- rpn/output_rpn_relu/3x3_0_split_1
I0515 17:37:17.034349 10447 net.cpp:411] rpn_bbox_pred -> rpn_bbox_pred
I0515 17:37:17.035475 10447 net.cpp:150] Setting up rpn_bbox_pred
I0515 17:37:17.035488 10447 net.cpp:157] Top shape: 1 24 15 15 (5400)
I0515 17:37:17.035492 10447 net.cpp:165] Memory required for data: 25456656
I0515 17:37:17.035507 10447 layer_factory.hpp:77] Creating layer rpn_cls_score_reshape
I0515 17:37:17.035519 10447 net.cpp:106] Creating Layer rpn_cls_score_reshape
I0515 17:37:17.035524 10447 net.cpp:454] rpn_cls_score_reshape <- rpn_cls_score
I0515 17:37:17.035531 10447 net.cpp:411] rpn_cls_score_reshape -> rpn_cls_score_reshape
I0515 17:37:17.035562 10447 net.cpp:150] Setting up rpn_cls_score_reshape
I0515 17:37:17.035586 10447 net.cpp:157] Top shape: 1 2 90 15 (2700)
I0515 17:37:17.035593 10447 net.cpp:165] Memory required for data: 25467456
I0515 17:37:17.035598 10447 layer_factory.hpp:77] Creating layer rpn_cls_prob
I0515 17:37:17.035607 10447 net.cpp:106] Creating Layer rpn_cls_prob
I0515 17:37:17.035611 10447 net.cpp:454] rpn_cls_prob <- rpn_cls_score_reshape
I0515 17:37:17.035615 10447 net.cpp:411] rpn_cls_prob -> rpn_cls_prob
I0515 17:37:17.036190 10447 net.cpp:150] Setting up rpn_cls_prob
I0515 17:37:17.036201 10447 net.cpp:157] Top shape: 1 2 90 15 (2700)
I0515 17:37:17.036203 10447 net.cpp:165] Memory required for data: 25478256
I0515 17:37:17.036206 10447 layer_factory.hpp:77] Creating layer rpn_cls_prob_reshape
I0515 17:37:17.036211 10447 net.cpp:106] Creating Layer rpn_cls_prob_reshape
I0515 17:37:17.036214 10447 net.cpp:454] rpn_cls_prob_reshape <- rpn_cls_prob
I0515 17:37:17.036221 10447 net.cpp:411] rpn_cls_prob_reshape -> rpn_cls_prob_reshape
I0515 17:37:17.036247 10447 net.cpp:150] Setting up rpn_cls_prob_reshape
I0515 17:37:17.036272 10447 net.cpp:157] Top shape: 1 12 15 15 (2700)
I0515 17:37:17.036278 10447 net.cpp:165] Memory required for data: 25489056
I0515 17:37:17.036281 10447 layer_factory.hpp:77] Creating layer proposal
I0515 17:37:17.037488 10447 net.cpp:106] Creating Layer proposal
I0515 17:37:17.037511 10447 net.cpp:454] proposal <- rpn_cls_prob_reshape
I0515 17:37:17.037521 10447 net.cpp:454] proposal <- rpn_bbox_pred
I0515 17:37:17.037529 10447 net.cpp:454] proposal <- im_info
I0515 17:37:17.037541 10447 net.cpp:411] proposal -> rois
I0515 17:37:17.038756 10447 net.cpp:150] Setting up proposal
I0515 17:37:17.038784 10447 net.cpp:157] Top shape: 1 5 (5)
I0515 17:37:17.038789 10447 net.cpp:165] Memory required for data: 25489076
I0515 17:37:17.038796 10447 layer_factory.hpp:77] Creating layer roi_pool_conv5
I0515 17:37:17.038815 10447 net.cpp:106] Creating Layer roi_pool_conv5
I0515 17:37:17.038831 10447 net.cpp:454] roi_pool_conv5 <- conv6_reluconv_0_split_1
I0515 17:37:17.038847 10447 net.cpp:454] roi_pool_conv5 <- rois
I0515 17:37:17.038864 10447 net.cpp:411] roi_pool_conv5 -> roi_pool_conv5
I0515 17:37:17.038888 10447 roi_pooling_layer.cpp:30] Spatial scale: 0.0625
I0515 17:37:17.039011 10447 net.cpp:150] Setting up roi_pool_conv5
I0515 17:37:17.039026 10447 net.cpp:157] Top shape: 1 256 6 6 (9216)
I0515 17:37:17.039037 10447 net.cpp:165] Memory required for data: 25525940
I0515 17:37:17.039046 10447 layer_factory.hpp:77] Creating layer fc6
I0515 17:37:17.039060 10447 net.cpp:106] Creating Layer fc6
I0515 17:37:17.039069 10447 net.cpp:454] fc6 <- roi_pool_conv5
I0515 17:37:17.039083 10447 net.cpp:411] fc6 -> fc6
I0515 17:37:17.134531 10447 net.cpp:150] Setting up fc6
I0515 17:37:17.134585 10447 net.cpp:157] Top shape: 1 4096 (4096)
I0515 17:37:17.134589 10447 net.cpp:165] Memory required for data: 25542324
I0515 17:37:17.134604 10447 layer_factory.hpp:77] Creating layer relu6
I0515 17:37:17.134634 10447 net.cpp:106] Creating Layer relu6
I0515 17:37:17.134639 10447 net.cpp:454] relu6 <- fc6
I0515 17:37:17.134649 10447 net.cpp:397] relu6 -> fc6 (in-place)
I0515 17:37:17.134973 10447 net.cpp:150] Setting up relu6
I0515 17:37:17.134987 10447 net.cpp:157] Top shape: 1 4096 (4096)
I0515 17:37:17.134991 10447 net.cpp:165] Memory required for data: 25558708
I0515 17:37:17.134995 10447 layer_factory.hpp:77] Creating layer drop6
I0515 17:37:17.135004 10447 net.cpp:106] Creating Layer drop6
I0515 17:37:17.135008 10447 net.cpp:454] drop6 <- fc6
I0515 17:37:17.135015 10447 net.cpp:397] drop6 -> fc6 (in-place)
I0515 17:37:17.135051 10447 net.cpp:150] Setting up drop6
I0515 17:37:17.135077 10447 net.cpp:157] Top shape: 1 4096 (4096)
I0515 17:37:17.135084 10447 net.cpp:165] Memory required for data: 25575092
I0515 17:37:17.135088 10447 layer_factory.hpp:77] Creating layer fc7
I0515 17:37:17.135097 10447 net.cpp:106] Creating Layer fc7
I0515 17:37:17.135100 10447 net.cpp:454] fc7 <- fc6
I0515 17:37:17.135104 10447 net.cpp:411] fc7 -> fc7
I0515 17:37:17.176852 10447 net.cpp:150] Setting up fc7
I0515 17:37:17.176901 10447 net.cpp:157] Top shape: 1 4096 (4096)
I0515 17:37:17.176904 10447 net.cpp:165] Memory required for data: 25591476
I0515 17:37:17.176918 10447 layer_factory.hpp:77] Creating layer relu7
I0515 17:37:17.176929 10447 net.cpp:106] Creating Layer relu7
I0515 17:37:17.176932 10447 net.cpp:454] relu7 <- fc7
I0515 17:37:17.176940 10447 net.cpp:397] relu7 -> fc7 (in-place)
I0515 17:37:17.177206 10447 net.cpp:150] Setting up relu7
I0515 17:37:17.177217 10447 net.cpp:157] Top shape: 1 4096 (4096)
I0515 17:37:17.177220 10447 net.cpp:165] Memory required for data: 25607860
I0515 17:37:17.177223 10447 layer_factory.hpp:77] Creating layer drop7
I0515 17:37:17.177230 10447 net.cpp:106] Creating Layer drop7
I0515 17:37:17.177233 10447 net.cpp:454] drop7 <- fc7
I0515 17:37:17.177238 10447 net.cpp:397] drop7 -> fc7 (in-place)
I0515 17:37:17.177268 10447 net.cpp:150] Setting up drop7
I0515 17:37:17.177279 10447 net.cpp:157] Top shape: 1 4096 (4096)
I0515 17:37:17.177283 10447 net.cpp:165] Memory required for data: 25624244
I0515 17:37:17.177285 10447 layer_factory.hpp:77] Creating layer fc7_drop7_0_split
I0515 17:37:17.177296 10447 net.cpp:106] Creating Layer fc7_drop7_0_split
I0515 17:37:17.177300 10447 net.cpp:454] fc7_drop7_0_split <- fc7
I0515 17:37:17.177307 10447 net.cpp:411] fc7_drop7_0_split -> fc7_drop7_0_split_0
I0515 17:37:17.177323 10447 net.cpp:411] fc7_drop7_0_split -> fc7_drop7_0_split_1
I0515 17:37:17.177368 10447 net.cpp:150] Setting up fc7_drop7_0_split
I0515 17:37:17.177374 10447 net.cpp:157] Top shape: 1 4096 (4096)
I0515 17:37:17.177377 10447 net.cpp:157] Top shape: 1 4096 (4096)
I0515 17:37:17.177381 10447 net.cpp:165] Memory required for data: 25657012
I0515 17:37:17.177383 10447 layer_factory.hpp:77] Creating layer cls_score
I0515 17:37:17.177392 10447 net.cpp:106] Creating Layer cls_score
I0515 17:37:17.177397 10447 net.cpp:454] cls_score <- fc7_drop7_0_split_0
I0515 17:37:17.177402 10447 net.cpp:411] cls_score -> cls_score
I0515 17:37:17.177500 10447 net.cpp:150] Setting up cls_score
I0515 17:37:17.177507 10447 net.cpp:157] Top shape: 1 2 (2)
I0515 17:37:17.177510 10447 net.cpp:165] Memory required for data: 25657020
I0515 17:37:17.177513 10447 layer_factory.hpp:77] Creating layer bbox_pred
I0515 17:37:17.177518 10447 net.cpp:106] Creating Layer bbox_pred
I0515 17:37:17.177520 10447 net.cpp:454] bbox_pred <- fc7_drop7_0_split_1
I0515 17:37:17.177525 10447 net.cpp:411] bbox_pred -> bbox_pred
I0515 17:37:17.178717 10447 net.cpp:150] Setting up bbox_pred
I0515 17:37:17.178750 10447 net.cpp:157] Top shape: 1 8 (8)
I0515 17:37:17.178751 10447 net.cpp:165] Memory required for data: 25657052
I0515 17:37:17.178758 10447 layer_factory.hpp:77] Creating layer cls_prob
I0515 17:37:17.178769 10447 net.cpp:106] Creating Layer cls_prob
I0515 17:37:17.178772 10447 net.cpp:454] cls_prob <- cls_score
I0515 17:37:17.178778 10447 net.cpp:411] cls_prob -> cls_prob
I0515 17:37:17.179036 10447 net.cpp:150] Setting up cls_prob
I0515 17:37:17.179044 10447 net.cpp:157] Top shape: 1 2 (2)
I0515 17:37:17.179046 10447 net.cpp:165] Memory required for data: 25657060
I0515 17:37:17.179049 10447 net.cpp:228] cls_prob does not need backward computation.
I0515 17:37:17.179052 10447 net.cpp:228] bbox_pred does not need backward computation.
I0515 17:37:17.179055 10447 net.cpp:228] cls_score does not need backward computation.
I0515 17:37:17.179059 10447 net.cpp:228] fc7_drop7_0_split does not need backward computation.
…
